app/src/main/assets/model1.tflite (tflite, 186856 bytes, 11 tensors)

sequential_15/dense_61/BiasAdd/ReadVariableOp f4 [256]
-0.015712159 0.013178952 0.019937567 0.022843864 0.03164876 0.04242681 0.011488224 -0.005043589
0.018993976 0.02767482 -0.0025050233 -0.011132691 0.03442434 0.024141043 0.024251668 0.031700384
-0.028224645 0.019973041 0.028328877 -0.008943324 0.026012152 -0.0064174556 0.0077688396 0.024823878
0.016412284 0.038540836 0.02205783 0.006736296 0.0063519073 0.039690945 0.0063484805 0.044488885
0.013775614 0.023161579 0.014728849 0.006306842 0.049754426 0.058775462 0.0331846 0.026463395
0.03104789 0.0016763022 0.0149475 -0.0075653126 0.0024112128 0.020032035 0.007203468 0.001151633
-0.00532493 0.04365207 0.024731934 0.021230938 0.010782263 0.025705468 0.024653016 0.01961591
0.033489738 0.0018746528 -0.011536495 0.025738303 0.01746792 -0.00952933 0.018722376 -0.037664913
-0.018007345 0.012086888 0.002395922 0.008632939 0.011416019 0.0047125453 -0.012965419 0.015098313
0.019869603 0.020949172 0.03353366 0.011644513 0.026906697 -0.013170747 -0.0050374563 0.030599663
0.01515413 -0.011795639 0.022212215 0.019321436 -0.028193077 0.016714433 0.03008857 -0.023839021
0.01898482 0.018348431 0.018316524 -0.008211677 0.030238237 0.0031327815 0.029973315 0.02270859
0.0070026936 0.03691155 0.015931498 0.0019090185 0.025331797 0.0073037795 0.02074353 -0.0060172626
0.009393091 -0.02887989 0.0047522057 0.01696723 0.017496206 0.011855726 0.011909274 -0.0056021265
-0.025614519 0.026037125 0.030231105 0.020151803 0.013690343 0.018553676 0.0113712605 0.0064882427
0.023875704 0.0104889255 0.031586394 0.019842787 -0.0029001276 0.031198375 -0.015282011 0.020603962
-0.0017677309 0.012344566 0.0031838047 0.007093241 -0.004517003 -0.010073052 0.009645542 -0.0154508995
0.030999413 0.020249689 0.001341651 0.040133715 0.004826998 0.014241013 0.01343717 0.014462716
0.010606321 0.0013144256 0.026129182 0.0032849973 0.02773246 0.024711292 0.0024806052 0.032593705
-0.019467369 -0.0007727974 0.024588669 0.024857992 -0.0040996857 0.01176939 0.0035411264 0.009993858
0.01694539 0.020644689 -0.0060947738 0.025096435 -0.023587912 -0.001865701 -0.031176886 0.010701364
-0.020835085 -0.009074643 0.019568985 -0.005846314 0.022710605 0.014765902 0.014923373 0.024247088
0.0101049375 0.0023477713 0.02538066 0.0025605436 0.013320238 0.018031413 0.024259314 0.015719466
0.037412 0.03974245 -0.00053004234 -0.026783703 0.013290929 0.023662508 -0.010157967 -0.014164647
0.016820544 0.002350904 0.023407983 0.0115445135 0.015582682 0.01950093 0.0025145994 -0.005833052
0.015200883 0.028465718 0.011625682 0.004125938 0.0066226264 0.031810913 0.0057712453 0.022068216
0.010417331 0.027530476 0.0048771193 0.010496756 -0.011743891 0.011436391 0.003023934 0.029187864
0.005887064 0.018030886 0.008419263 -0.013462076 0.029810539 0.02597037 0.017888077 0.0073588984
0.022748444 0.027273517 0.0246401 -0.031268068 -0.029028501 0.014323714 0.028958533 0.010652882
0.005742927 -0.016571889 0.0006094433 0.03044952 -0.006256557 -0.007468604 0.01909491 0.012738756
-0.013780144 0.007968084 0.036866233 0.020322964 0.038629513 -0.014843531 0.024617903 0.018944614
-0.0110639995 -0.02701017 0.017662043 -0.039085407 0.000916184 0.022066902 0.012908318 -0.0032689946
00000000: c9b6 80bc 88ec 573c 1c54 a33c 0e23 bb3c
00000010: 21a2 013d bcc7 2d3d 1b39 3c3c b144 a5bb
00000020: 4199 9b3c 4eb6 e23c 512b 24bb e465 36bc
00000030: 8900 0d3d 70c3 c53c 6fab c63c 43d8 013d
00000040: 5f37 e7bc 819e a33c f611 e83c 0587 12bc
00000050: 7017 d53c 8549 d2bb c091 fe3b 725b cb3c
00000060: 0e73 863c ffdc 1d3d 9fb2 b43c 26bc dc3b
00000070: a923 d03b f992 223d ea06 d03b fa39 363d
00000080: 1db3 613c 5abd bd3c 4551 713c a0a9 ce3b
00000090: 4ccb 4b3d 8abe 703d 93ec 073d c3c9 d83c
000000a0: 2558 fe3c 5eb7 db3a 5ce6 743c 71e6 f7bb
000000b0: 7005 1e3b 391a a43c 120b ec3b 64f2 963a
000000c0: c07c aebb 83cc 323d a09a ca3c 81ec ad3c
000000d0: 17a8 303c 4694 d23c 1ff5 c93c 8bb1 a03c
000000e0: 892c 093d e9b6 f53a 9103 3dbc 22d9 d23c
000000f0: e218 8f3c e820 1cbc ab5f 993c 8646 1abd
00000100: 2484 93bc 1508 463c e704 1d3b 2c71 0d3c
00000110: 410a 3b3c b26b 9a3b e96c 54bc ea5e 773c
00000120: 94c5 a23c 999d ab3c 975a 093d a1c8 3e3c
00000130: 6f6b dc3c 1eca 57bc 3f11 a5bb 25ac fa3c
00000140: 0749 783c 7f42 41bc 64f6 b53c fd47 9e3c
00000150: 2bf5 e6bc b5ec 883c 4e7c f63c 0d4a c3bc
00000160: 0e86 9b3c 734f 963c 890c 963c 458a 06bc
00000170: 2eb6 f73c 5a4f 4d3b 998a f53c 5d07 ba3c
00000180: da76 e53b 9130 173d c682 823c 0838 fa3a
00000190: a184 cf3c 8b54 ef3b 56ee a93c 752c c5bb
000001a0: 7be5 193c 8595 ecbc 64b8 9b3b dcfe 8a3c
000001b0: 3454 8f3c 853e 423c 1e1f 433c 0b92 b7bb
000001c0: 8ad5 d1bc cf4b d53c 39a7 f73c 6515 a53c
000001d0: 764d 603c e1fd 973c 864e 3a3c 539b d43b
000001e0: fb96 c33c bed9 2b3c bc60 013d 578d a23c
000001f0: 1110 3ebb bc93 ff3c 6661 7abc a4c9 a83c
00000200: 35b3 e7ba dd40 4a3c 61a7 503b 6b6e e83b
00000210: 5e03 94bb 7109 25bc 5608 1e3c c525 7dbc
00000220: 7bf2 fd3c ade2 a53c 56da af3a 4063 243d
00000230: cb2b 9e3b 2353 693c 9327 5c3c 07f5 6c3c
00000240: 22c6 2d3c ce48 ac3a de0c d63c 1c49 573b
00000250: 2f2f e33c 566f ca3c a691 223b fa80 053d
00000260: 087a 9fbc 8e95 4aba 2d6e c93c fda2 cb3c
00000270: a856 86bb 66d4 403c 3e12 683b 47bd 233c
00000280: 0fd1 8a3c 0d1f a93c abb6 c7bb 0a97 cd3c
00000290: 703b c1bc 8a8a f4ba ab66 ffbc c654 2f3c
000002a0: 57ae aabc d0ad 14bc 234f a03c 7092 bfbb
000002b0: 970b ba3c afec 713c 2a81 743c d4a1 c63c
000002c0: 2e8f 253c 11dd 193b 1aeb cf3c cbce 273b
000002d0: 213d 5a3c 9db6 933c 78bb c63c 1cc6 803c
000002e0: 533d 193d fbc8 223d 8af2 0aba 7f69 dbbc
000002f0: 32c2 593c e0d7 c13c 9a6d 26bc d612 68bc
00000300: 3dcb 893c a011 1a3b 19c2 bf3c 3325 3d3c
00000310: 814e 7f3c 6ac0 9f3c facb 243b 3023 bfbb
00000320: 200d 793c f030 e93c a579 3e3c e032 873b
00000330: 9e02 d93b 294c 023d b71c bd3b 67c8 b43c
00000340: 74ad 2a3c 9887 e13c 3ed0 9f3b 96fa 2b3c
00000350: 7369 40bc b35f 3b3c 322d 463b 631b ef3c
00000360: 46e8 c03b 82b5 933c f3f0 093c 0a90 5cbc
00000370: 3b35 f43c d0bf d43c 048a 923c ea22 f13b
00000380: f25a ba3c b66c df3c 09da c93c f212 00bd
00000390: 2ecd edbc 03ae 6a3c 723a ed3c 6d89 2e3c
000003a0: 2a2f bc3b c5c1 87bc 0cc3 1f3a 4671 f93c
000003b0: ce03 cdbb 31bb f4bb ee6c 9c3c 37b6 503c
000003c0: 1dc6 61bc 918c 023c 0c01 173d 587c a63c
000003d0: fb39 1e3d 4832 73bc 7cab c93c bc31 9b3c
000003e0: c745 35bc 6f44 ddbc fdaf 903c 0518 20bd
000003f0: 112c 703a a6c5 b43c 697d 533c a13c 56bb

sequential_15/dense_62/BiasAdd/ReadVariableOp f4 [128]
0.020042121 -0.003507464 -0.015481082 -0.008396035 0.020477783 -0.008112046 0.016873399 0.025463624
0.022594362 0.014984512 0.02594438 0.0039030295 0.01365803 0.017757177 -0.012032513 0.01714982
-0.0006986909 0.009167349 -0.01028519 0.019725064 0.002302951 0.012067348 0.017687036 0.0044232863
0.022202674 0.020910392 0.024258683 0.01638563 0.020135544 0.023206318 0.012835383 -0.0032223356
0.016620269 0.019827522 0.026884448 -0.009323295 0.02214946 0.0014263965 -0.008975381 0.019979758
0.0048576277 0.031789683 0.01909117 0.02072601 -0.0031179492 0.010348835 0.02164209 0.023276221
0.024667501 0.023014234 0.023216475 -0.0040808227 0.015581985 0.01826792 -0.011488555 0.019504944
0.009491782 0.022943849 0.022054175 0.029435359 -0.009127257 0.020139951 0.024249371 0.018728083
0.015071185 0.015650313 0.019461615 0.021880787 0.0069346675 0.008012976 0.018979808 -0.021887293
0.019025179 0.00290256 0.016403 0.021548059 -0.016109541 0.0033428227 0.012532274 0.01122968
-0.016480014 0.031229341 0.016940895 0.020558853 -0.0060423 0.020283975 0.021499038 0.020082096
0.0042567337 -0.012194479 -0.0075078774 -0.00796753 0.02539092 -0.0010544801 0.014272359 0.018543463
-0.0068542883 -0.0110282665 0.0046928152 -0.018620435 -0.0017501086 0.011283478 -0.005248611 -0.009574018
-0.016199514 -0.010639074 0.019287925 0.020675845 -0.017171621 0.023275957 -0.016222652 0.017029408
0.0024739048 0.019001871 -0.007851812 -0.020713583 0.019168373 0.028309971 0.016740521 0.027054096
-0.014339195 -0.010034489 -0.028171554 0.013833459 0.021468058 -0.004908769 0.015395579 -0.0069173137
00000000: 602f a43c 7bdd 65bb 5da4 7dbc 868f 09bc
00000010: 06c1 a73c 63e8 04bc 153a 8a3c 1799 d03c
00000020: d017 b93c 9981 753c 4f89 d43c f8c9 7f3b
00000030: eec5 5f3c 8077 913c 0424 45bc c87d 8c3c
00000040: 5a28 37ba a632 163c 3783 28bc 7596 a13c
00000050: 1bed 163b 20b6 453c 67e4 903c 37f1 903b
00000060: 62e2 b53c 454c ab3c 25ba c63c 283b 863c
00000070: 4cf3 a43c 2d1b be3c 804b 523c d22d 53bb
00000080: 3b27 883c 546d a23c c63c dc3c bcc0 18bc
00000090: c972 b53c edf5 ba3a 7a0d 13bc 97ac a33c
000000a0: bc2c 9f3b e635 023d 1665 9c3c 98c9 a93c
000000b0: 8256 4cbb 298e 293c c14a b13c c6ad be3c
000000c0: 8013 ca3c 5988 bc3c 7a30 be3c 6cb8 85bb
000000d0: 954b 7f3c 9ba6 953c 7e3a 3cbc d5c8 9f3c
000000e0: 6b83 1b3c bdf4 bb3c f5aa b43c 6c22 f13c
000000f0: 7e8a 15bc 8afc a43c 9ea6 c63c a36b 993c
00000100: 22ed 763c 1635 803c f76d 9f3c 563f b33c
00000110: 353c e33b db48 033c 8b7b 9b3c fb4c b3bc
00000120: b1da 9b3c e038 3e3b 965f 863c 8e85 b03c
00000130: 28f8 83bc 4213 5b3b 2b54 4d3c b1fc 373c
00000140: 1801 87bc add4 ff3c a2c7 8a3c 0a6b a83c
00000150: 7cfe c5bb 942a a63c c01e b03c 3583 a43c
00000160: 127c 8b3b 5acb 47bc a404 f6bb 3e8a 02bc
00000170: 9e00 d03c 7b36 8aba 9dd6 693c 76e8 973c
00000180: f099 e0bb e7af 34bc 30c6 993b e289 98bc
00000190: e663 e5ba 56de 383c 8afc abbb 58dc 1cbc
000001a0: d8b4 84bc 834f 2ebc b601 9e3c 6460 a93c
000001b0: 80ab 8cbc 38ad be3c 5ee5 84bc 4281 8b3c
000001c0: 3c21 223b d0a9 9b3c e3a4 00bc 88af a9bc
000001d0: fe06 9d3c 50ea e73c 6b23 893c 8da0 dd3c
000001e0: f1ee 6abc b367 24bc 08c8 e6bc bba5 623c
000001f0: c8dd af3c bdd9 a0bb bd3d 7c3c a2aa e2bb

sequential_15/dense_63/BiasAdd/ReadVariableOp f4 [64]
-0.010497489 -0.006996186 0.019834187 0.018996857 0.028750574 8.2918516e-05 0.004964877 -0.00056439696
0.020826267 0.022924157 -0.020085046 -0.0014785187 0.029860357 0.019693732 0.023794321 0.010618879
0.018779028 -0.008098574 0.021565793 0.023473565 -0.01960229 0.023711087 0.025728159 -0.0035836184
0.020064898 0.023226492 -0.0048247413 0.0060819513 0.004927001 0.015895158 0.020907136 0.013693616
-0.0130361095 0.0 -0.0011967403 -0.020697828 -0.008106992 0.018349966 -0.004936966 -0.012501532
0.0100530265 0.012612216 -0.007876856 0.002242865 0.02139013 0.02182241 0.019777711 -0.0068274615
0.015744237 0.005593359 0.019220095 -0.0014407046 0.0011866456 0.019181633 0.010756655 -0.015319565
0.0009965514 -0.012803467 0.019077629 0.006234903 -0.0042318744 -0.0051363143 0.019943673 -0.00031618538
00000000: a9fd 2bbc 4340 e5bb 4e7b a23c 4c9f 9b3c
00000010: 5386 eb3c 8ae4 ad38 68b0 a23b 0af4 13ba
00000020: d99b aa3c 71cb bb3c 6589 a4bc dbca c1ba
00000030: b59d f43c c054 a13c 4fec c23c cffa 2d3c
00000040: 7ad6 993c e2af 04bc bfaa b03c a24b c03c
00000050: fb94 a0bc c13d c23c dcc3 d23c 24db 6abb
00000060: 245f a43c 7c45 be3c dd18 9ebb 1b4b c73b
00000070: ae72 a13b 9036 823c 7145 ab3c 305b 603c
00000080: 6895 55bc 0000 0000 f1db 9cba 7e8e a9bc
00000090: 30d3 04bc ab52 963c 46c6 a1bb 3ad3 4cbc
000000a0: 73b5 243c 78a3 4e3c ee0d 01bc 08fd 123b
000000b0: 5b3a af3c e9c4 b23c de04 a23c e6b8 dfbb
000000c0: 0ffa 803c 7f48 b73b 7673 9d3c 06d6 bcba
000000d0: 3889 9b3a cd22 9d3c ae3c 303c eafe 7abc
000000e0: b79e 823a a2c5 51bc b048 9c3c 284e cc3b
000000f0: 89ab 8abb 874e a8bb ea60 a33c afc5 a5b9

sequential_15/dense_64/BiasAdd/ReadVariableOp f4 [32]
0.002071331 0.015691798 0.022926645 0.019747179 0.0179106 0.020537257 -0.0026740164 -0.000797914
-0.006636453 0.0 0.019269656 0.004586272 0.021241624 -0.004149276 -0.017089183 0.002753015
0.021429965 0.021250274 0.020545823 -0.0018664361 0.015386502 0.018379625 -0.0064874045 0.020424642
0.0 -0.0050444175 -0.024990033 0.020376459 0.020537576 -0.013016174 0.00031622336 -0.0051764133
00000000: 2bbf 073b 168c 803c a9d0 bb3c d6c4 a13c
00000010: 40b9 923c c03d a83c 8d3e 2fbb 1a2b 51ba
00000020: 9a76 d9bb 0000 0000 66db 9d3c 7048 963b
00000030: ea02 ae3c a6f6 87bb 9dfe 8bbc ed6b 343b
00000040: e58d af3c 0e15 ae3c b74f a83c 34a3 f4ba
00000050: ab17 7c3c de90 963c 4b94 d4bb 9451 a73c
00000060: 0000 0000 a44b a5bb e6b7 ccbc 88ec a63c
00000070: 6b3e a83c ca41 55bc c8ca a539 e79e a9bb

sequential_15/dense_65/BiasAdd/ReadVariableOp f4 [16]
0.0 0.005660415 0.019858848 0.019739464 0.020818092 0.00087389466 0.0046244166 0.020007396
-0.022054546 0.019630168 -0.002680435 0.003394686 0.01974274 0.020154376 -0.005430847 0.0
00000000: 0000 0000 017b b93b 06af a23c a8b4 a13c
00000010: b48a aa3c 1416 653a 6b88 973b 8de6 a33c
00000020: bcab b4bc 72cf a03c 3daa 2fbb 6179 5e3b
00000030: 87bb a13c ca1a a53c 3ff5 b1bb 0000 0000

sequential_15/dense_61/MatMul f4 [256, 8]
0.06850629 -0.09990296 -0.12486616 0.15032697 0.06260249 -0.0041499324 0.1554804 0.16030389
0.05526326 0.16544957 -0.031128356 -0.101505406 -0.15616116 -0.033450283 -0.022493485 0.036652602
-0.04016348 0.053187266 -0.13765992 0.112863936 0.114320666 -0.058711145 0.13694961 -0.01212034
-0.032366175 -0.02855481 -0.10130093 -0.11899337 -0.019642351 0.0062337685 0.0029079604 0.11938758
-0.08115572 0.11691498 -0.06493394 0.07209309 0.09643982 0.13365406 -0.111162886 0.13501596
0.063682236 -0.042847898 0.09792015 0.040798374 -0.13550155 0.05891519 -0.17314728 -0.10149761
-0.0037594687 -0.056219976 0.1053437 0.18517826 0.095416404 0.04241246 0.08959271 0.11749434
0.09953874 0.116792105 0.04118367 0.021141844 0.08826265 -0.0031848873 0.08625751 -0.050114762
-0.17032975 0.01408949 -0.12225941 -0.0070032086 0.11473794 -0.042758245 0.046717405 0.017051516
-0.0711845 -0.008894694 0.1443216 -0.1270488 -0.15989108 0.08241746 -0.041930176 -0.17176719
-0.13343689 -0.077696525 0.016023546 0.10818915 0.050052498 -0.123552926 -0.13759147 -0.1291317
0.07924819 -0.067369916 -0.11519193 -0.12067252 -0.099883646 0.09986167 0.13359837 0.0067055826
-0.05135803 0.044634458 0.052164983 -0.098115794 0.035330586 0.06245134 0.06558488 0.003546833
-0.029373053 0.03779669 -0.101499535 -0.12014641 -0.12816538 -0.122468054 0.04974706 0.10750937
-0.0306524 -0.14287731 0.15060304 -0.0020109352 -0.06599806 -0.15164256 -0.096319616 0.0026578926
-0.01485236 0.025932904 -0.13502961 -0.025696067 0.11604297 -0.15819447 -0.051736098 -0.027419414
0.11847666 0.11638415 0.122277096 0.079484776 -0.01336802 0.087845474 -0.055899993 0.0319028
-0.18186277 0.10957417 -0.072426006 -0.11788804 -0.01964769 -0.0651528 0.1194024 0.011470375
-0.027220774 -0.123763554 -0.06758195 -0.10460569 -0.022103675 -0.038456563 -0.021306481 -0.12277474
0.12849419 -7.533589e-05 -0.1444213 -0.07952728 -0.0100710755 0.027696103 0.021050688 0.120497294
-0.099235065 0.17373845 0.09120733 0.008687086 0.045328747 -0.01610025 -0.12455033 0.12165308
-0.09272486 -0.17062055 0.0021487335 -0.06536019 0.13656816 -0.14259835 -0.015134532 -0.006177359
-0.07863237 0.09696954 -0.042037208 -0.152538 -0.00045992836 0.13865533 -0.065520994 -0.10835739
0.13662614 0.07029139 -0.020389998 -0.10303182 -0.12693614 0.06267843 0.051383924 0.016688751
0.038018197 0.10793868 0.11508734 0.04589547 -0.087605424 0.13837063 -0.08550913 -0.07826465
0.0020448181 0.114398554 -0.09073307 0.049208283 0.041115765 0.082882196 0.03157603 -0.15349922
0.01361504 -0.044704236 -0.13007332 -0.04535015 0.15403952 0.0019266471 -0.15451518 -0.094517015
-0.08777662 -0.0095460955 -0.15260269 0.084637664 0.060361817 0.030312523 0.12661222 -0.0063794306
-0.09849769 -0.013620926 -0.014258117 -0.08946945 -0.06219594 -0.010948851 0.0744707 -0.029640358
0.095975146 -0.13889378 -0.104527324 0.04253731 0.13000225 0.01359962 0.1386279 -0.008648619
-0.15512995 -0.15134245 -0.05956438 0.03929657 -0.06415576 0.14319222 0.091898866 -0.14226489
0.016123235 0.10379615 0.11859668 -0.10494136 0.103153914 -0.033505026 0.13902791 -0.14596894
00000000: 074d 8c3d ec99 ccbd d4b9 ffbd 50ef 193e
00000010: bc35 803d 28fc 87bb 4136 1f3e b426 243e
00000020: ba5b 623d 9d6b 293e e500 ffbc 11e2 cfbd
00000030: b6e8 1fbe 2a03 09bd 4244 b8bc 0a21 163d
00000040: 7682 24bd e4da 593d b9f6 0cbe 3525 e73d
00000050: f420 ea3d 197b 70bd 853c 0c3e 6494 46bc
00000060: 6592 04bd c7eb e9bc dd76 cfbd ccb2 f3bd
00000070: ffe8 a0bc a444 cc3b 7b93 3e3b 7a81 f43d
00000080: f834 a6bd 1f71 ef3d 16fc 84bd 8ba5 933d
00000090: 3e82 c53d 9cdc 083e 5ea9 e3bd a041 0a3e
000000a0: d56b 823d 4781 2fbd 5c8a c83d 321c 273d
000000b0: ebc0 0abe 0e51 713d 854d 31be fbdd cfbd
000000c0: 6b61 76bb eb46 66bd 70be d73d 5f9f 3d3e
000000d0: ad69 c33d b0b8 2d3d 627c b73d dfa0 f03d
000000e0: f8da cb3d b330 ef3d 35b0 283d a931 ad3c
000000f0: 0cc3 b43d 8bb9 50bb c7a7 b03d 2345 4dbd
00000100: ec6a 2ebe 9bd7 663c 2463 fabd 2c7b e5bb
00000110: bafb ea3d 4523 2fbd c05a 3f3d 9faf 8b3c
00000120: 2ec9 91bd 0dbb 11bc 0bc9 133e 1519 02be
00000130: 7dba 23be 7cca a83d fabe 2bbd bde3 2fbe
00000140: aea3 08be 5b1f 9fbd d043 833c 4692 dd3d
00000150: d903 4d3d 5109 fdbd c7e4 0cbe 1a3b 04be
00000160: e04c a23d 3df9 89bd bfe9 ebbd 2723 f7bd
00000170: cc8f ccbd 4684 cc3d 03ce 083e 81ba db3b
00000180: cc5c 52bd 9fd2 363d f3aa 553d eff0 c8bd
00000190: ceb6 103d facc 7f3d 5e51 863d fc71 683b
000001a0: c29f f0bc b4d0 1a3d fdde cfbd 520f f6bd
000001b0: c93d 03be 88d0 fabd 93c3 4b3d df2d dc3d
000001c0: be1a fbbc 6e4e 12be af37 1a3e e5c9 03bb
000001d0: fe29 87bd 3048 1bbe 3843 c5bd 0a30 2e3b
000001e0: 5057 73bc 3e71 d43c 3445 0abe 8f80 d2bc
000001f0: f0a7 ed3d bbfd 21be 3be9 53bd ae9e e0bc
00000200: e4a3 f23d d05a ee3d 6a6c fa3d eac8 a23d
00000210: 8a05 5bbc 54e8 b33d 64f7 64bd 83ac 023d
00000220: 3c3a 3abe 6c68 e03d 1654 94bd 496f f1bd
00000230: 31f4 a0bc d56e 85bd 3f89 f43d 3dee 3b3c
00000240: 1afe debc bf77 fdbd 6868 8abd 823b d6bd
00000250: c412 b5bc a184 1dbd ee8a aebc 5371 fbbd
00000260: fb93 033e a6fd 9db8 2de3 13be 33df a2bd
00000270: 2701 25bc f0e2 e23c 7e72 ac3c 49c7 f63d
00000280: c13b cbbd 7ee8 313e e9ca ba3d 4854 0e3c
00000290: a3aa 393d ace4 83bc 3e14 ffbd 4025 f93d
000002a0: 88e6 bdbd 27b7 2ebe c4d1 0c3b 90db 85bd
000002b0: 86d8 0b3e 4d05 12be d4f6 77bc 716b cabb
000002c0: 020a a1bd f797 c63d 352f 2cbd ec32 1cbe
000002d0: 8a22 f1b9 aafb 0d3e df2f 86bd 7bea ddbd
000002e0: b9e7 0b3e eff4 8f3d ed08 a7bc 5902 d3bd
000002f0: 8cfb 01be 8c5d 803d f377 523d d9b6 883c
00000300: f8b8 1b3d f40e dd3d e9b2 eb3d e3fc 3b3d
00000310: 796a b3bd 08b1 0d3e 691f afbd 3849 a0bd
00000320: 5b02 063b ca49 ea3d 43d2 b9bd a08e 493d
00000330: 0169 283d 24be a93d de55 013d e62e 1dbe
00000340: 9e11 5f3c ca1b 37bd f131 05be 14c1 39bd
00000350: 89bc 1d3e 8d87 fc3a 3a39 1ebe 2392 c1bd
00000360: 3bc4 b3bd 3a67 1cbc e143 1cbe 8356 ad3d
00000370: f43d 773d f851 f83c a2a6 013e 8b0a d1bb
00000380: 28b9 c9bd 4e2a 5fbc e19a 69bc c23b b7bd
00000390: 2cc1 7ebd cf62 33bc 1884 983d 56d0 f2bc
000003a0: 9e8e c43d 2c3a 0ebe 6c12 d6bd 9a3b 2e3d
000003b0: 4f1f 053e f1d0 5e3c 79f4 0d3e f0b2 0dbc
000003c0: 63da 1ebe 84f9 1abe c8f9 73bd 71f5 203d
000003d0: 1864 83bd fba0 123e 7935 bc3d e3ad 11be
000003e0: e014 843c 1393 d43d d1e2 f23d 7feb d6bd
000003f0: 5c42 d33d 913c 09bd 555d 0e3e e278 15be

sequential_15/dense_62/MatMul f4 [128, 256]
0.025614088 0.029917372 0.09390759 0.09287892 0.0031381585 0.09974979 0.029319566 0.08053077
0.021407116 -0.015408763 0.05534448 -0.077060595 -0.024947252 0.120798334 0.043635692 0.12700215
0.021486383 0.026998704 -0.009529021 -0.0041543525 -0.050219253 -0.04359463 -0.11379305 0.007453088
0.0665143 -0.017614145 0.11649845 0.07659033 0.038915783 0.109297246 -0.005157406 -0.039699033
-0.055747807 0.028831167 0.03569571 0.00612667 0.005844898 0.05291737 -0.03625076 -0.116237536
-0.08307885 0.082121074 -0.0344942 0.082608774 0.09356933 0.09658496 0.096668184 0.028716097
-0.0059218067 -0.09657214 0.027754214 -0.030044865 -0.036831345 0.006260076 -0.0013837278 0.078018695
-0.010232017 -0.053368527 -0.00983125 0.074037924 0.04593306 0.05622619 -0.11335435 -0.036115352
0.080738954 0.11641979 0.11638367 0.0358918 -0.03931895 -0.057817593 0.029207895 -0.024730086
0.0012728187 0.050223056 0.0445602 0.0027285644 -0.042607117 0.008268282 0.03330137 -0.038252696
0.007894632 -0.030269336 -0.022475164 0.11326618 -0.005366178 0.0553673 0.11643556 0.06937407
0.046891175 -0.047148537 -0.09579369 0.064512104 0.038668334 0.03626894 0.086905666 0.0057001547
0.0855426 -0.052749563 -0.06897781 -0.017053012 0.12559736 -0.009411239 0.079815924 0.0013818712
0.0998391 -0.13192771 -0.037729762 0.0056190896 0.1003114 -0.08128982 0.089826964 0.051805474
0.07734586 0.114583425 0.024756486 -0.118700534 -0.0030815694 -0.10343123 -0.10997928 0.05918744
0.0021152247 -0.046083115 0.06453249 -0.092508286 -0.057617903 0.0010991932 0.06775492 -0.09626732
0.033835813 -0.12362013 -0.08352846 0.123744175 0.068959534 0.11424111 -0.0030643977 -0.13404787
-0.027242102 0.116108544 0.06601174 0.098649256 0.12120977 -0.103014484 0.072046995 0.06807374
0.04091557 0.012213182 0.08847275 0.08271997 0.0032652237 -0.058406737 0.042888433 0.027887786
0.05226928 -0.045672223 -0.011196894 -0.0031154274 0.035656363 0.07273108 -0.101108566 -0.091030665
-0.08015195 -0.025099333 -0.044235248 -0.07554309 -0.10226543 0.113871485 -0.05882196 0.07865089
0.10711888 -0.04165687 0.10625373 -0.09100296 -0.11383305 -0.077328764 -0.11698528 0.056193426
-0.09920512 0.09871155 0.1161481 0.01352685 0.018503131 0.101412594 0.0364817 0.13950568
-0.09807211 0.11570234 -0.04555237 0.019814774 -0.10373282 0.060843825 0.07725908 0.088249266
0.054922722 -0.023929227 0.093451634 -0.069883674 0.030326355 0.028717758 -0.05522511 0.13847052
0.070182756 0.11930485 0.08957438 -0.057935238 0.104000695 0.12222434 0.070561714 -0.110655814
0.097223155 -0.1094209 0.106345296 -0.10531473 0.07133818 0.0975145 -0.003659856 -0.06268612
0.05025654 0.016820125 0.008051195 0.11593085 -0.05021107 0.03539861 0.014983757 -0.061762355
-0.012217385 0.087894924 -0.13673581 -0.08448483 0.022316901 0.11381354 0.01879511 -0.03336003
0.12492163 0.06810506 0.07380172 0.04398427 -0.094903775 0.09112828 0.0040020673 0.07262553
-0.07597003 -0.10822128 -0.027109107 0.009502274 -0.06857331 -0.026013352 -0.03499899 0.10094628
-0.015084571 -0.12173542 0.08482349 0.052111264 0.09185678 0.1049944 0.03874244 0.12093791
00000000: a3d4 d13c 4715 f53c 9f52 c03d 4e37 be3d
00000010: 90a9 4d3b 9e49 cc3d 962f f03c 51ed a43d
00000020: fa5d af3c 0975 7cbc e5b0 623d f2d1 9dbd
00000030: 2e5e ccbc 1e65 f73d 57bb 323d da0c 023e
00000040: 3604 b03c 632c dd3c 9c1f 1cbc 3c21 88bb
00000050: b4b2 4dbd 4890 32bd 550c e9bd 0939 f43b
00000060: a638 883d 8a4b 90bc bd96 ee3d 64db 9c3d
00000070: 2866 1f3d 3cd7 df3d 75ff a8bb 749b 22bd
00000080: d057 64bd 572f ec3c aa35 123d 3cc2 c83b
00000090: 8f86 bf3b e2bf 583d ad7b 14bd f20d eebd
000000a0: 3e25 aabd 182f a83d ca49 0dbd ca2e a93d
000000b0: 47a1 bf3d 56ce c53d f8f9 c53d 053e eb3c
000000c0: b70b c2bb 9dc7 c5bd ce5c e33c a620 f6bc
000000d0: 77dc 16bd 5321 cd3b 335e b5ba 44c8 9f3d
000000e0: 31a4 27bc f598 5abd 4013 21bc 32a1 973d
000000f0: 4e24 3c3d 6f4d 663d 5326 e8bd b1ed 13bd
00000100: 775a a53d 806d ee3d 905a ee3d 4803 133d
00000110: e80c 21bd 24d2 6cbd 6545 ef3c c096 cabc
00000120: b5d4 a63a b1b6 4d3d c284 363d b7d1 323b
00000130: cd84 2ebd b077 073c 0467 083d dcae 1cbd
00000140: 7d58 013c 66f7 f7bc d61d b8bc 19f8 e73d
00000150: c4d6 afbb d2c8 623d c475 ee3d fe13 8e3d
00000160: f610 403d d31e 41bd 7b2f c4bd ec1e 843d
00000170: b062 1e3d bd8e 143d 99fb b13d 5dc8 ba3b
00000180: f530 af3d ed0f 58bd 3d44 8dbd c2b2 8bbc
00000190: 989c 003e 9931 1abc 8876 a33d e71f b53a
000001a0: 7178 cc3d 0f18 07be 868a 1abd 5720 b83b
000001b0: 1070 cd3d 477b a6bd 33f7 b73d fa31 543d
000001c0: 8267 9e3d b7aa ea3d 1dce ca3c 4419 f3bd
000001d0: 28f4 49bb c1d3 d3bd d13c e1bd 876e 723d
000001e0: 959f 0a3b a6c1 3cbd 9c29 843d fc74 bdbd
000001f0: c000 6cbd ce12 903a 17c3 8a3d cd27 c5bd
00000200: 6c97 0a3d 8d2c fdbd f810 abbd 966d fd3d
00000210: a83a 8d3d 3ef7 e93d 10d4 48bb d843 09be
00000220: d42a dfbc 51ca ed3d 2a31 873d 9f08 ca3d
00000230: d43c f83d 42f9 d2bd 608d 933d 3f6a 8b3d
00000240: 1697 273d cc19 483c 3331 b53d 1669 a93d
00000250: 5dfd 553b e73b 6fbd c8ab 2f3d ed74 e43c
00000260: 5018 563d cc12 3bbd 2d73 37bc 332c 4cbb
00000270: 680c 123d 08f4 943d 0212 cfbd 496e babd
00000280: b526 a4bd 1e9d cdbc 0530 35bd 56b6 9abd
00000290: 8a70 d1bd 7435 e93d 4cef 70bd b813 a13d
000002a0: 2561 db3d 65a0 2abd 8e9b d93d c35f babd
000002b0: 4d21 e9bd 8b5e 9ebd fa95 efbd 142b 663d
000002c0: 0e2c cbbd 4829 ca3d 0edf ed3d b99f 5d3c
000002d0: e193 973c 68b1 cf3d d66d 153d 94da 0e3e
000002e0: 08da c8bd 59f5 ec3d 1f95 3abd 9852 a23c
000002f0: df71 d4bd 6037 793d 023a 9e3d 08bc b43d
00000300: a6f6 603d 3a07 c4bc 9263 bf3d 2c1f 8fbd
00000310: fa6e f83c 8141 eb3c ba33 62bd 37cb 0d3e
00000320: fabb 8f3d 1a56 f43d c672 b73d 804d 6dbd
00000330: 51fe d43d c150 fa3d a982 903d 849f e2bd
00000340: ef1c c73d 1118 e0bd 90cb d93d 40af d7bd
00000350: c019 923d afb5 c73d 32da 6fbb 9561 80bd
00000360: cdd9 4d3d 5cca 893c 29e9 033c 276d ed3d
00000370: 1faa 4dbd 22fe 103d 6f7e 753c 86fa 7cbd
00000380: 6d2b 48bc 4102 b43d 7904 0cbe 6206 adbd
00000390: efd1 b63c 1317 e93d 34f8 993c 87a4 08bd
000003a0: e9d6 ff3d aa7a 8b3d 5b25 973d da28 343d
000003b0: e95c c2bd 77a1 ba3d c623 833b b2bc 943d
000003c0: 2d96 9bbd 1ea3 ddbd eb13 debc 6daf 1b3c
000003d0: 2a70 8cbd f419 d5bc 1a5b 0fbd ecbc ce3d
000003e0: 4725 77bc 6b50 f9bd f0b7 ad3d 9f72 553d
000003f0: 681f bc3d 4e07 d73d 65b0 1e3d 4cae f73d

sequential_15/dense_63/MatMul f4 [64, 128]
-0.17730725 0.07589445 -0.0036119814 0.031552106 -0.1557535 0.0653153 -0.0653561 -0.09691532
0.13377665 -0.16843817 0.13953315 -0.13009542 0.0023521194 0.040370133 0.04432098 0.047545556
-0.11812235 -0.080464974 -0.11735439 -0.14765754 -0.12507679 0.15449566 0.14980894 0.12736765
-0.07389728 0.10350708 -0.16384731 0.07741999 -0.032808304 0.07403448 -0.17874223 -0.041695807
0.15390642 -0.107496016 -0.10065689 -0.043229748 -0.07294638 0.12993127 -0.09968756 -0.10644518
0.03703729 -0.014320533 0.017724141 0.12769575 -0.15159322 -0.019189045 -0.029209925 -0.028209757
0.03302815 0.071454324 -0.11796785 0.05423926 -0.1166646 -0.14412613 0.024013776 0.106703244
-0.11110604 0.11122922 -0.038876634 -0.010130833 -0.033901434 -0.07154798 -0.06719867 -0.14997026
-0.15847756 -0.1368962 0.019632135 0.024548616 0.06763955 -0.16777802 0.03892319 -0.061711572
-0.08191025 -0.12963389 -0.18098123 0.15298681 -0.06815805 0.0746562 0.11384165 0.10757778
-0.06415248 -0.09352895 0.09564325 -0.023196513 0.11731775 0.10436541 0.044568185 0.019338923
0.067709036 0.13043264 0.13897203 0.15936807 -0.031771496 0.15415247 -0.14837977 -0.15265517
0.020134568 0.14201827 0.06815045 0.13957448 0.13280846 -0.065331556 -0.089334264 -0.15063414
-0.05172212 0.016777772 -0.10035643 -0.12714003 -0.009017797 -0.011338525 0.16584463 0.10308573
-0.019419048 0.039057408 -0.03306215 0.12525117 0.050169256 -0.16068947 -0.09159901 -0.07205129
0.020999951 -0.12389971 0.046620436 -0.008329734 -0.17240898 -0.034003023 -0.060917947 0.07690933
-0.06881871 -0.08989596 -0.012025557 -0.08464724 -0.1846008 0.1433057 -0.1134503 0.08262332
-0.041064084 0.14538772 -0.1145515 0.062414058 0.05634209 0.08332127 0.16109441 -0.17832473
-0.053401366 0.07836343 0.056859512 0.006830345 -0.09886554 0.014313851 -0.18158177 0.06405124
-0.070465155 0.11956887 0.14573921 -0.075377196 0.073934026 0.024473688 0.072156556 0.10877299
0.14173748 -0.14599106 -0.04782471 -0.17336202 0.028832551 -0.02963527 -0.0751541 -0.068787664
-0.010231199 0.17752945 -0.16352953 0.15431628 0.050907556 0.1926809 0.01436218 0.1462421
-0.027332313 0.13811858 -0.04934538 0.04295738 0.15978812 0.10712223 0.018086506 -0.17121644
0.17389013 -0.15572236 -0.120758034 0.0114369495 -0.12190227 -0.14697294 0.06557242 0.07687077
-0.1757778 0.06144594 0.0964464 -0.031557336 0.13947825 0.095588945 -0.18467988 0.079348795
-0.13603333 -0.051405605 0.02688034 0.13584238 -0.007616655 0.15178013 -0.08095514 0.08305939
-0.029456051 0.023694087 -0.10614845 0.036048923 0.049952954 0.013758365 -0.028103 0.0038887307
0.17875758 0.16207886 0.1746286 -0.063693255 -0.0018116396 -0.05721329 -0.067265324 0.028358568
-0.1486136 -0.04113971 -0.025721919 -0.0575989 -0.049262375 -0.06545921 0.11995384 0.1539026
-0.038754698 0.038828522 0.064521804 0.042913537 0.1218264 0.0020403243 0.18217856 0.039081123
0.06338238 -0.05720655 0.013085286 -0.11402309 0.073734336 0.15534936 -0.058430888 0.16583486
0.21132061 0.13144249 0.03969361 -0.18885288 -0.044259235 0.096774496 0.13768129 -0.0064846287
00000000: 0890 35be 8d6e 9b3d feb6 6cbb c83c 013d
00000010: d87d 1fbe 07c4 853d 6bd9 85bd 8a7b c6bd
00000020: bffc 083e 0e7b 2cbe c7e1 0e3e bc37 05be
00000030: 0426 1a3b 275b 253d ea89 353d 21bf 423d
00000040: 21ea f1bd d2ca a4bd 8057 f0bd 8a33 17be
00000050: 2114 00be 1c34 1e3e 8467 193e aa6c 023e
00000060: 7557 97bd 85fb d33d 97c7 27be 5f8e 9e3d
00000070: 0062 06bd 649f 973d 3408 37be 39c9 2abd
00000080: a599 1d3e df26 dcbd 3325 cebd ad11 31bd
00000090: e964 95bd b40c 053e fe28 ccbd eeff d9bd
000000a0: 6ab4 173d aba0 6abc 3832 913c adc2 023e
000000b0: 413b 1bbe 5832 9dbc a749 efbc 2618 e7bc
000000c0: 8748 073d a556 923d 2199 f1bd fc29 5e3d
000000d0: daed eebd cd95 13be 8ab8 c43c 3b87 da3d
000000e0: 908b e3bd 25cc e33d 1b3d 1fbd cbfb 25bc
000000f0: 3bdc 0abd bf87 92bd 759f 89bd ce91 19be
00000100: f147 22be 842e 0cbe 92d3 a03c 2e1a c93c
00000110: 9b86 8a3d 00ce 2bbe ec6d 1f3d 46c5 7cbd
00000120: 90c0 a7bd bfbe 04be 2553 39be 93a8 1c3e
00000130: 7396 8bbd 5ae5 983d d025 e93d bd51 dc3d
00000140: 6062 83bd 1b8c bfbd 9ce0 c33d 9d06 bebc
00000150: 4a44 f03d 88bd d53d 218d 363d a96c 9e3c
00000160: 09ab 8a3d 2290 053e af4e 0e3e 6231 233e
00000170: d422 02bd 25da 1d3e def0 17be a351 1cbe
00000180: 40f1 a43c 3d6d 113e 7792 8b3d 9dec 0e3e
00000190: f1fe 073e 8dcc 85bd e2f4 b6bd d63f 1abe
000001a0: 93da 53bd 8a71 893c ac87 cdbd ff30 02be
000001b0: 62bf 13bc 39c5 39bc 2dd3 293e 9c1e d33d
000001c0: b214 9fbc a9fa 1f3d 2d6c 07bd d841 003e
000001d0: 477e 4d3d c88b 24be 4398 bbbd a08f 93bd
000001e0: 1708 ac3c 22bf fdbd 12f5 3e3d 7079 08bc
000001f0: fb8b 30be c146 0bbd 1985 79bd a482 9d3d
00000200: d3f0 8cbd 601b b8bd d806 45bc 885b adbd
00000210: fe07 3dbe bbbe 123e a258 e8bd 6a36 a93d
00000220: d032 28bd 85e0 143e fa99 eabd e2a5 7f3d
00000230: f7c6 663d 58a4 aa3d eff5 243e c29a 36be
00000240: 64bb 5abd 027d a03d 85e5 683d 16d1 df3b
00000250: 047a cabd a484 6a3c 92f0 39be 4c2d 833d
00000260: 0950 90bd 86e0 f43d a93c 153e 5c5f 9abd
00000270: b96a 973d 0b7d c83c d1c6 933d 60c4 de3d
00000280: a123 113e ae7e 15be d8e3 43bd d085 31be
00000290: 3e32 ec3c aac5 f2bc 65ea 99bd 8ce0 8cbd
000002a0: c2a0 27bc 48ca 353e 4974 27be 1605 1e3e
000002b0: 7184 503d 244e 453e 594f 6b3c 7dc0 153e
000002c0: 04e8 dfbc f56e 0d3e 621e 4abd 14f4 2f3d
000002d0: 7f9f 233e e662 db3d 272a 943c 5d53 2fbe
000002e0: 4110 323e af75 1fbe fd4f f7bd 0b62 3b3c
000002f0: e6a7 f9bd 1380 16be d54a 863d 6c6e 9d3d
00000300: 18ff 33be bdae 7b3d b185 c53d 4442 01bd
00000310: 63d3 0e3e 23c4 c33d b91c 3dbe 9f81 a23d
00000320: 524c 0bbe af8e 52bd 2934 dc3c 441a 0b3e
00000330: 2295 f9bb 406c 1b3e cfcb a5bd 0b1b aa3d
00000340: d14d f1bc 1a1a c23c 5c64 d9bd 09a8 133d
00000350: 789b 4c3d c46a 613c 4338 e6bc 13da 7e3b
00000360: 3a0c 373e 00f8 253e d7d1 323e 9c71 82bd
00000370: 8a74 edba 7c58 6abd 67c2 89bd 3a50 e83c
00000380: 2a2e 18be 1d82 28bd c6b6 d2bc d3ec 6bbd
00000390: 58c7 49bd 7a0f 86bd 5caa f53d a598 1d3e
000003a0: 3fbd 1ebd a80a 1f3d 0224 843d 1bc6 2f3d
000003b0: 1f80 f93d f6b6 053b 048d 3a3e 8713 203d
000003c0: 9fce 813d 6a51 6abd ab63 563c f084 e9bd
000003d0: 0702 973d e713 1f3e 3a55 6fbd 9dd0 293e
000003e0: 6e64 583e dc98 063e c495 223d a662 41be
000003f0: 2c49 35bd b531 c63d 53fc 0c3e 027d d4bb

sequential_15/dense_64/MatMul f4 [32, 64]
-0.17132242 -0.100000635 -0.0901418 -0.15501252 -0.2129809 0.07700691 0.009060005 -0.031673193
-0.03885993 0.25846195 -0.12507166 -0.19388929 -0.17142642 -0.0790425 -0.16189016 0.24095154
0.08746921 -0.2271943 -0.13676773 -0.13994087 0.05846912 -0.18599214 -0.21132067 -0.05348169
-0.10000163 0.05727298 -0.04334579 -0.10337645 0.18070492 0.06522669 0.12284756 -0.036360655
0.08954323 -0.21255678 -0.12600598 0.01724595 -0.087916456 -0.14749855 0.19243433 0.10941875
0.21055225 0.09236668 0.16694316 0.1581071 0.17887722 -0.1101792 0.047522534 -0.13196883
0.14322571 -0.21546578 -0.12880193 0.16001049 -0.12515232 -0.14182693 0.10300445 -0.0538774
0.0009882202 0.124827355 -0.00010885752 -0.21046476 -0.1410466 0.072273746 0.15104768 -0.1999508
0.080296196 0.1545444 0.2253228 -0.028044414 0.029243628 -0.22779791 -0.033087198 -0.118846506
0.185318 -0.21718794 -0.06827276 0.010509628 0.14813973 0.1529407 0.11072417 0.2100236
0.18465568 -0.025019292 -0.07481808 0.23009875 -0.19238508 0.09711494 0.07065843 -0.01573606
-0.17553414 0.13600263 0.14287606 0.06010296 0.24966915 0.057847816 0.18616045 0.18337774
-0.0968963 -0.053033352 -0.011707313 0.2123023 0.15044016 0.12135811 0.1149032 -0.15396675
-0.06871989 -0.0064308546 0.19093013 0.23173012 0.004556151 -0.21726108 -0.14911008 0.14148378
0.016547916 0.18786763 -0.22579406 0.10480575 0.05797668 -0.2200185 -0.21572587 -0.14822297
-0.24189702 0.17762047 0.14118005 -0.20228322 -0.22270232 0.18801355 0.02595702 0.15951449
-0.03788968 -0.026049681 -0.046526734 -0.007130851 -0.106760964 0.20706849 -0.12210003 -0.1736215
0.068851106 0.23306654 -0.23408562 -0.047462966 0.20828758 -0.1377922 0.08304964 -0.076255605
0.069103725 0.2098844 -0.19312142 0.21201178 0.0787247 -0.0989941 -0.012608116 0.057994787
-0.054622795 0.08189715 0.13977471 0.12555893 0.09623679 -0.22942963 -0.20103247 0.11616572
-0.011141217 -0.17567241 0.1560712 0.08587323 0.19594689 -0.066261135 0.113143675 0.022344159
-0.14864177 0.1515228 0.15544917 0.08144305 0.005279545 0.0154313585 -0.14617261 0.1267226
-0.14998206 -0.24184772 0.16114748 -0.18789858 0.1821796 0.14596216 0.08992271 -0.085263506
0.26178902 0.08544449 -0.058258705 0.10509025 0.10931629 -0.18870007 0.23255025 0.19050366
0.055293165 -0.072958335 0.1120268 -0.13879645 -0.033117928 -0.19426125 0.2487714 -0.00029637356
-0.05816019 0.06996373 -0.22515903 -0.19861056 0.20437999 0.025852235 0.24734887 0.21314798
0.14422303 0.17634785 0.24008512 0.22285217 -0.20097438 0.061296854 0.06287088 -0.24458514
0.0666068 0.23247708 0.09451427 -0.28642327 0.08389209 0.07902784 -0.111669265 0.09098682
-0.13984467 -0.1787355 -0.22943217 0.12144703 -0.024135062 -0.12721723 -0.2635642 -0.04179902
0.16229929 -0.20734484 -0.14270371 0.024498427 0.18682534 0.25587454 0.119205736 -0.09804064
0.12638761 -0.28916645 -0.099762805 0.11441368 0.14609875 -0.12818645 -0.12188193 -0.011769648
0.2461536 -0.24176879 0.25042707 -0.072713055 0.09494039 -0.0075543756 0.24071631 -0.022289079
00000000: 256f 2fbe 22cd ccbd 449c b8bd 9abb 1ebe
00000010: aa17 5abe cdb5 9d3d 6a70 143c c0bb 01bd
00000020: 972b 1fbd 2055 843e c912 00be ea8a 46be
00000030: 688a 2fbe 09e1 a1bd 89c6 25be 00bc 763e
00000040: 0f23 b33d 9fa5 68be d70c 0cbe a94c 0fbe
00000050: 517d 6f3d b974 3ebe 7264 58be 9e0f 5bbd
00000060: a8cd ccbd 1397 6a3d 5b8b 31bd 08b7 d3bd
00000070: b60a 393e 9295 853d 8097 fb3d e9ee 14bd
00000080: 7162 b73d 7ca8 59be b607 01be 6147 8d3c
00000090: 8b0d b4bd dc09 17be 810d 453e f016 e03d
000000a0: 029b 573e be2a bd3d 26f3 2a3e d4e6 213e
000000b0: 972b 373e a2a5 e1bd fda6 423d d622 07be
000000c0: c3a9 123e 10a3 5cbe a7e4 03be cad9 233e
000000d0: ee27 00be 143b 11be fff3 d23d 8cae 5cbd
000000e0: 2b87 813a 7ca5 ff3d 704a e4b8 1384 57be
000000f0: 856e 10be 4204 943d 3eac 1a3e e7bf 4cbe
00000100: 5572 a43d e340 1e3e 05bb 663e 66bd e5bc
00000110: 5590 ef3c db43 69be 7186 07bd cc65 f3bd
00000120: 00c4 3d3e 8466 5ebe 97d2 8bbd 9330 2c3c
00000130: f1b1 173e 7d9c 1c3e 5bc3 e23d 6d10 573e
00000140: 6116 3d3e 42f5 ccbc 393a 99bd 029f 6b3e
00000150: 9800 45be 33e4 c63d 5eb5 903d e9e8 80bc
00000160: 39bf 33be 4644 0b3e 1a4e 123e 852e 763d
00000170: 45a9 7f3e d5f1 6c3d d8a0 3e3e 60c7 3b3e
00000180: 9171 c6bd 8039 59bd 08d0 3fbc c665 593e
00000190: fc0c 1a3e 9a8a f83d 5e52 eb3d 76a9 1dbe
000001a0: 04bd 8cbd ebb9 d2bb 3083 433e a94a 6d3e
000001b0: c44b 953b b079 5ebe 50b0 18be 20e1 103e
000001c0: 7f8f 873c 5f60 403e 8f36 67be 66a4 d63d
000001d0: f578 6d3d 884c 61be 3ee7 5cbe c3c7 17be
000001e0: dab3 77be 24e2 353e 8191 103e 5523 4fbe
000001f0: 140c 64be a086 403e d1a3 d43c c457 233e
00000200: 3632 1bbd 2466 d5bc d192 3ebd eaa9 e9bb
00000210: 7ea5 dabd c309 543e 950f fabd d6c9 31be
00000220: cf01 8d3d ffa8 6e3e 24b4 6fbe 8768 42bd
00000230: 5749 553e 6619 0dbe ee15 aa3d e62b 9cbd
00000240: 4186 8d3d f0eb 563e 9fc1 45be 9e19 593e
00000250: 6a3a a13d 6bbd cabd 4592 4ebc f18b 6d3d
00000260: 27bc 5fbd b1b9 a73d 1a21 0f3e 8592 003e
00000270: cb17 c53d 9aef 6abe 75db 4dbe 4be8 ed3d
00000280: a789 36bc 78e3 33be 21d1 1f3e 4ede af3d
00000290: 4da6 483e ebb3 87bd dfb7 e73d 190b b73c
000002a0: 8c35 18be cb28 1b3e 112e 1f3e 9dcb a63d
000002b0: 0900 ad3b cfd3 7c3c 46ae 15be 92c3 013e
000002c0: e694 19be eea6 77be d803 253e 7c68 40be
000002d0: 4a8d 3a3e 1b77 153e 6629 b83d a29e aebd
000002e0: 3609 863e 85fd ae3d aea0 6ebd 8f39 d73d
000002f0: 38e1 df3d 973a 41be a721 6e3e 6413 433e
00000300: 167b 623d 2e6b 95bd 4f6e e53d a820 0ebe
00000310: aaa6 07bd 6cec 46be eebd 7e3e 9662 9bb9
00000320: 6139 6ebd 2549 8f3d 1790 66be 9160 4bbe
00000330: fd48 513e 11c8 d33c 0649 7d3e 7743 5a3e
00000340: 34af 133e 8894 343e e0d8 753e 5c33 643e
00000350: 3acc 4dbe 6912 7b3d 73c2 803d 8774 7abe
00000360: 2569 883d 790e 6e3e b390 c13d 12a6 92be
00000370: 9ecf ab3d 59d9 a13d dbb2 e4bd 4c57 ba3d
00000380: 7133 0fbe 7006 37be 44f0 6abe 38b9 f83d
00000390: e5b6 c5bc 3c45 02be e3f1 86be 7335 2bbd
000003a0: c931 263e 3552 54be ec20 12be edb0 c83c
000003b0: 244f 3f3e fd01 833e 2322 f43d 88c9 c8bd
000003c0: c16b 013e a00d 94be 7150 ccbd b851 ea3d
000003d0: e99a 153e 4f43 03be 3c9d f9bd 7bd5 40bc
000003e0: b00f 7c3e 3d92 77be fa37 803e 95ea 94bd
000003f0: 1b70 c23d b28a f7bb 567e 763e 9697 b6bc

sequential_15/dense_65/MatMul f4 [16, 32]
-0.2315949 -0.038327992 -0.15348828 0.16108683 -0.31678516 0.10391483 -0.15758193 -0.28537446
0.30998996 0.0859853 -0.31011128 -0.09388664 -0.1856057 0.05718416 0.18922153 -0.25325722
-0.17953107 -0.29029417 -0.18375318 0.11922932 -0.17286724 -0.016552925 -0.09129235 -0.06371221
-0.012429357 0.00667572 -0.269732 -0.2673195 -0.24518524 -0.16545428 0.041065365 0.1639897
0.0061475732 -0.21607906 0.23077686 -0.26920822 0.2421919 0.35175008 -0.009525523 0.15951195
0.16253912 -0.10161033 0.16378753 0.20571163 -0.25319493 -0.091677696 0.09083587 0.08945537
-0.21534088 -0.32449916 0.2792355 -0.141884 -0.18402022 0.34011763 -0.25516614 0.33373448
0.12269604 -0.044271976 -0.10319374 -0.04191757 -0.26694077 0.17850962 0.31451705 -0.0088199
-0.000644615 0.12304447 0.38552552 -0.057853606 0.11990921 0.34448516 -0.13545349 -0.28998336
-0.21685001 -0.20974092 0.05292423 -0.27054295 -0.051355474 0.0018624818 0.10941375 0.31917867
0.2680006 0.15396063 0.30852327 0.19094853 0.14384378 0.042093202 -0.16617334 -0.0008360691
-0.19502746 -0.15945858 -0.19154811 0.23082042 0.28867093 -0.14387903 0.059114695 -0.20758228
0.21476163 0.25602958 0.26915625 0.16111597 0.1385081 0.17337398 -0.18292838 -0.38853654
-0.26738146 -0.2790375 0.36862352 -0.09309203 0.27683392 0.10551017 -0.08212884 0.1547836
0.058932133 0.2223262 0.06799483 -0.24501681 0.1534562 0.20326574 0.002082365 0.3599662
-0.12123111 -0.3328794 0.03666162 0.32316995 0.19665992 -0.1365567 -0.20141615 -0.20688832
0.019170387 -0.3121259 0.006515938 0.27055445 0.20114435 0.32988718 -0.14055832 -0.049489878
0.103104666 0.20168337 -0.30150715 -0.061798308 0.059712507 -0.22820528 0.02523564 0.079429165
-0.28790203 -0.1337678 0.28382775 -0.14404894 0.33738843 -0.111334026 0.15749867 0.23114894
-0.13160522 -0.1058817 -0.22246945 -0.110981904 0.06918038 -0.3496776 0.14028022 -0.2900177
0.14280906 0.086280495 0.011699581 -0.12573874 -0.26005098 0.28226236 -0.037271693 -0.27269572
0.18612684 0.3356065 0.08398671 0.09845351 -0.32402456 0.33630005 0.059503395 -0.115372024
-0.11707179 -0.33211508 -0.32532492 0.017417587 0.27626482 0.3361474 0.3495698 -0.09143798
-0.0829016 0.16597794 0.2888649 -0.084395856 -0.09770889 -0.10217852 -0.18216829 0.32556963
0.23848954 -0.009527029 -0.29571912 -0.25741082 -0.26069883 0.259653 0.14828506 0.2593847
0.020670593 -0.29135627 -0.01293079 0.20114444 0.030857222 0.29172733 -0.17622924 0.1071544
0.06820921 0.2962288 -0.3366139 0.12601906 -0.3400565 0.121414036 -0.24097486 -0.26821715
0.043735534 0.23646918 -0.10626318 -0.14442398 -0.04672749 0.34887543 0.24206445 -0.018083692
0.22022064 -0.018729474 0.40447375 0.3047324 -0.053488586 -0.25340456 -0.10892484 0.2764586
0.17368872 0.24383786 0.13593067 -0.14784022 -0.038681492 -0.30615368 -0.2856748 -0.34012803
0.35934785 0.32817924 0.056166913 -0.038836814 0.35629067 -0.14582546 0.26819462 -0.06558746
-0.2471954 0.27605805 0.063732736 0.124132335 0.047657732 0.013099308 -0.3089572 0.24511677
00000000: 3727 6dbe d0fd 1cbd 082c 1dbe f2f3 243e
00000010: aa31 a2be 4cd1 d43d 285d 21be 9a1c 92be
00000020: 01b7 9e3e 1019 b03d e8c6 9ebe a447 c0bd
00000030: 6c0f 3ebe f039 6a3d 4ac3 413e eeaa 81be
00000040: fed6 37be 70a1 94be cb29 3cbe 802e f43d
00000050: 1c04 31be 009a 87bc 7cf7 babd 8c7b 82bd
00000060: 80a4 4bbc 00c0 da3b 501a 8abe 1ade 88be
00000070: d711 7bbe d96c 29be 2834 283d eaec 273e
00000080: 9571 c93b d443 5dbe c550 6c3e a9d5 89be
00000090: 2701 783e 9618 b43e f010 1cbc 1a57 233e
000000a0: a870 263e 1419 d0bd ebb7 273e 12a6 523e
000000b0: c4a2 81be 84c1 bbbd 2808 ba3d 6134 b73d
000000c0: 5282 5cbe c124 a6be f5f7 8e3e 0a4a 11be
000000d0: cc6f 3cbe e623 ae3e 23a5 82be 3fdf aa3e
000000e0: 1048 fb3d 8856 35bd 3d57 d3bd c2b1 2bbd
000000f0: 76ac 88be 3acb 363e 6108 a13e 5881 10bc
00000100: 61fb 28ba bdfe fb3d 9a63 c53e e7f7 6cbd
00000110: f692 f53d 5c60 b03e 52b4 0abe b378 94be
00000120: ee0d 5ebe 53c6 56be 14c7 583d 9b84 8abe
00000130: 1e5a 52bd 851e f43a 5114 e03d 636b a33e
00000140: 6037 893e dba7 1d3e c3f6 9d3e 0388 433e
00000150: c94b 133e ec69 2c3d 5829 2abe a62b 5bba
00000160: 47b5 47be 1c49 23be 3025 44be 305c 6c3e
00000170: adcc 933e 0655 13be 4022 723d 7390 54be
00000180: 79ea 5b3e 4f16 833e d9ce 893e 96fb 243e
00000190: 11d5 0d3e f388 313e 9451 3bbe 43ee c6be
000001a0: 39e6 88be 01de 8ebe 39bc bc3e 09a7 bebd
000001b0: 2dbd 8d3e b715 d83d 2a33 a8bd 987f 1e3e
000001c0: d262 713d 7ba9 633e e040 8b3d b0e5 7abe
000001d0: 9f23 1d3e e524 503e 4a78 083b 7d4d b83e
000001e0: 0448 f8bd 2b6f aabe 7f2a 163d 8876 a53e
000001f0: 3861 493e 85d5 0bbe 0940 4ebe 88da 53be
00000200: 370b 9d3c f7ce 9fbe a683 d53b 1d86 8a3e
00000210: c9f8 4d3e f9e6 a83e 85ee 0fbe e6b5 4abd
00000220: 8a28 d33d 1686 4e3e 255f 9abe 3920 7dbd
00000230: 1a95 743d a5ae 69be f9ba ce3c c2ab a23d
00000240: e567 93be 6dfa 08be df51 913e 9181 13be
00000250: 2dbe ac3e 1803 e4bd 5547 213e 4fb2 6c3e
00000260: 85c3 06be 81d8 d8bd 08cf 63be 7b4a e3bd
00000270: 71ae 8d3d f108 b3be 9ea5 0f3e 337d 94be
00000280: 8a3c 123e d4b3 b03d 99af 3f3c a8c1 00be
00000290: 6725 85be b184 903e 34aa 18bd c69e 8bbe
000002a0: 0998 3e3e 9dd4 ab3e 3901 ac3d fea1 c93d
000002b0: 8ce6 a5be 852f ac3e d5b9 733d 2b48 ecbd
000002c0: 56c3 efbd fd0a aabe fd90 a6be 54af 8e3c
000002d0: 9572 8d3e 831b ac3e d0fa b23e d643 bbbd
000002e0: 50c8 a9bd 1ff6 293e 1ae6 933e bcd7 acbd
000002f0: 991b c8bd f942 d1bd 538a 3abe 10b1 a63e
00000300: 9a36 743e 4117 1cbc 7f68 97be 5acb 83be
00000310: 517a 85be 3df1 843e 0ad8 173e 12ce 843e
00000320: 6055 a93c a62c 95be aadb 53bc cff8 4d3e
00000330: 49c8 fc3c 495d 953e 7075 34be c473 db3d
00000340: 45b1 8b3d 4dab 973e a858 acbe 240b 013e
00000350: e31b aebe eca7 f83d 1dc2 76be c253 89be
00000360: 0824 333d fa24 723e 83a0 d9bd e1e3 13be
00000370: 5365 3fbd cd9f b23e bedf 773e 4024 94bc
00000380: 8581 613e 8e6e 99bc 2f17 cf3e e305 9c3e
00000390: d916 5bbd 3ebe 81be fd13 dfbd fb8b 8d3e
000003a0: 75db 313e a2b0 793e 6931 0b3e 6d63 17be
000003b0: 7c70 1ebd 2dc0 9cbe f843 92be 4325 aebe
000003c0: 71fc b73e 1c07 a83e 470f 663d 5a13 1fbd
000003d0: bb6b b63e 4553 15be ce50 893e b852 86bd
000003e0: ca20 7dbe 7b57 8d3e 4f86 823d 1839 fe3d
000003f0: c134 433d 7b9e 563c a32f 9ebe e4ff 7a3e

sequential_15/dense_66/MatMul f4 [1, 16]
-0.5184398 0.20415677 0.5153432 0.6101785 0.52382326 0.13387479 0.5506364 0.44002438
0.009590527 0.14355178 -0.29154426 0.06734831 0.476451 0.51859033 -0.14251661 -0.3474893
00000000: 79b8 04bf 790e 513e 88ed 033f a834 1c3f
00000010: 4819 063f 7916 093e 82f6 0c3f e04a e13e
00000020: 9621 1d3c 3dff 123e 4a45 95be e9ed 893d
00000030: 63f1 f33e 56c2 043f e0ef 11be 1eea b1be
