app/src/main/assets/model4.tflite (tflite, 187692 bytes, 13 tensors)

sequential_1/dense_10/BiasAdd/ReadVariableOp f4 [32]
-0.0063136593 0.0 0.0 -0.00095896784 -0.00458499 0.0 0.0 0.015944315
0.014466128 0.024774047 0.018187564 0.015013402 0.01823322 0.008754718 -0.004249808 0.012753746
0.0022185158 0.016216462 0.0 -0.0022294591 -0.0010394591 0.027814288 -0.01511121 -0.021907378
-0.0022109651 0.01389219 0.008027451 -0.008982181 -0.00036011144 -0.0010270376 0.0 0.0
00000000: d0e2 cebb 0000 0000 0000 0000 3e63 7bba
00000010: af3d 96bb 0000 0000 0000 0000 a79d 823c
00000020: 5703 6d3c f1f2 ca3c 16fe 943c c6fa 753c
00000030: d55d 953c f36f 0f3c f941 8bbb 16f5 503c
00000040: 8564 113b 63d8 843c 0000 0000 1e1c 12bb
00000050: 763e 88ba cada e33c 0295 77bc 1a77 b3bc
00000060: d7e5 10bb 119c 633c 9285 033c ff29 13bc
00000070: 57cd bcb9 aa9d 86ba 0000 0000 0000 0000

sequential_1/dense_11/BiasAdd/ReadVariableOp f4 [16]
0.008461824 -0.0005161163 0.013952121 0.01510715 -5.6659155e-05 0.0 -0.0014090191 -0.006082959
0.017445149 0.014696753 0.0 0.011993506 -0.0014434376 0.016538097 0.0 0.0
00000000: 76a3 0a3c fb4b 07ba 7097 643c fb83 773c
00000010: 4ea5 6db8 0000 0000 d6ae b8ba 8f53 c7bb
00000020: 21e9 8e3c a6ca 703c 0000 0000 6980 443c
00000030: bb31 bdba e77a 873c 0000 0000 0000 0000

sequential_1/dense_12/BiasAdd/ReadVariableOp f4 [8]
-0.0043868436 -0.0017060325 -0.0066624205 0.0037078417 0.0 -0.0051061055 0.014920212 0.0
00000000: 83bf 8fbb f49c dfba 6f50 dabb 43ff 723b
00000010: 0000 0000 1e51 a7bb e873 743c 0000 0000

sequential_1/dense_7/BiasAdd/ReadVariableOp f4 [256]
8.572487e-05 0.018325172 0.02180694 -0.006390433 0.017728299 0.0014693966 0.018409004 0.0
-0.020995423 0.024801658 0.02679324 0.013888551 0.03257161 0.017166007 -0.004281743 -0.0012191847
0.020915098 0.024962474 0.01879679 0.025859995 0.0025499994 0.0054361783 -0.015229674 -0.021534128
0.0 -0.006522496 0.0 0.013511962 0.0012415175 0.025705926 -0.018325016 0.016184932
0.0 -0.007486873 0.0 -0.011325761 -0.0009847698 0.018629884 0.0 0.0055636186
0.0 0.018856786 0.0 -0.010120454 0.034347836 -0.00828935 0.0045923963 -0.0068968767
-0.014461372 0.014611789 0.018711038 0.0 0.0020397918 0.0180282 -0.012964608 -0.004747919
-0.01722368 0.0 0.0 0.006401378 0.015365171 0.0067893253 -0.008954089 0.023054311
0.019275855 0.0071133217 -0.010414438 0.021348407 0.033802953 -0.0031951698 0.014610224 -0.019821825
0.018052574 0.024721397 0.0 0.0053910767 0.0309023 0.0 -0.002085918 0.0
0.01995045 0.0 0.0 -0.015448218 0.0 0.015140359 0.018489309 0.0
0.008138866 -0.007548951 -0.013359573 -0.00203456 -0.0072053806 0.0 -0.015375235 0.0
0.005903945 0.023235386 0.009575403 0.0 0.0 0.03514925 0.022600288 0.021033801
0.0052936915 0.0011905277 0.019161152 0.0 0.011630643 0.012580592 -0.0017052618 0.011043321
0.0 0.011992779 3.1027233e-05 0.037290927 0.019160349 -0.0010844853 0.037915695 0.019557541
0.013088693 0.015390543 0.0 -0.0036581152 0.0031007072 0.004012475 0.0 0.004294677
0.0 -0.017407542 0.027832538 0.0 0.0022426306 0.0020042008 0.009553562 0.023579657
0.0495039 0.0 0.023138184 0.0 -0.0044049593 -0.012467576 -0.0016226168 0.00013862307
-0.007885899 0.008217018 0.0070278184 0.03320681 0.024269946 -0.008424635 0.00020641628 0.009722456
0.0 0.023294652 0.0 -0.008873472 0.011360845 0.021719145 0.013265436 0.021196892
0.017325768 -0.009775887 0.0 0.020767998 0.012020541 0.001985534 -0.014391378 0.047721922
0.0118668275 -0.003606967 0.0 0.003526524 0.029238144 0.0 0.0003691522 -0.015372666
0.012386545 0.0 0.00090747565 0.020492291 0.012174937 -0.02004742 0.0 0.022650193
-0.007974408 0.020644337 0.021513645 0.0 -0.008221581 -0.024166366 -0.0003431081 0.0
0.016718814 0.0 0.015363672 0.03225416 0.0 -0.01179218 0.018494096 -0.0063541993
-0.0112965135 0.0 0.0 0.013171639 0.018726291 0.0 -0.014762652 0.0
0.0 -0.0029624281 0.03144271 0.03224459 0.0 0.0 0.0 -0.007514302
0.0 0.021700641 0.01080103 0.0 -0.0029622694 0.016629288 0.0 0.015852477
0.0052752933 0.010585057 -0.007839024 0.008019507 -0.0051680687 0.0001582787 -0.014347218 -0.011426162
-0.015240155 -0.011960751 0.018903172 -0.0012473144 0.0 0.019213751 -0.0011069673 -0.006649312
-0.0031907922 -0.0075105606 -0.027364556 0.023949418 0.033103537 0.008397146 -0.00490836 -0.00047915135
0.03899718 0.0062587466 0.0 0.0 0.0 0.0 0.0013201031 0.0
00000000: 30c7 b338 ac1e 963c 78a4 b23c d666 d1bb
00000010: f03a 913c c598 c03a 7bce 963c 0000 0000
00000020: 98fe abbc d92c cb3c 7f7d db3c ce8c 633c
00000030: cf69 053d ba9f 8c3c dd4d 8cbb 0dcd 9fba
00000040: 2456 ab3c 1a7e cc3c bafb 993c 57d8 d33c
00000050: e41d 273b f821 b23b e285 79bc 5768 b0bc
00000060: 0000 0000 aaba d5bb 0000 0000 4761 5d3c
00000070: 6aba a23a 3c95 d23c 581e 96bc 4396 843c
00000080: 0000 0000 7154 f5bb 0000 0000 af8f 39bc
00000090: 6413 81ba b39d 983c 0000 0000 044f b63b
000000a0: 0000 0000 8c79 9a3c 0000 0000 43d0 25bc
000000b0: 51b0 0c3d 0ed0 07bc d07b 963b 32ff e1bb
000000c0: 64ef 6cbc 4966 6f3c e447 993c 0000 0000
000000d0: 07ae 053b e0af 933c 8269 54bc 6e94 9bbb
000000e0: ad18 8dbc 0000 0000 0000 0000 a7c2 d13b
000000f0: 33be 7b3c fd78 de3b 2cb4 12bc 65dc bc3c
00000100: 66e8 9d3c de16 e93b 52a1 2abc dbe2 ae3c
00000110: f774 0a3d 0e66 51bb b95f 6f3c 6161 a2bc
00000120: fee2 933c 8784 ca3c 0000 0000 a1a7 b03b
00000130: d226 fd3c 0000 0000 e6b3 08bb 0000 0000
00000140: 206f a33c 0000 0000 0000 0000 861a 7dbc
00000150: 0000 0000 450f 783c e476 973c 0000 0000
00000160: e158 053c 315d f7bb 1ce2 5abc 4156 05bb
00000170: 1d1b ecbb 0000 0000 69e8 7bbc 0000 0000
00000180: e175 c13b 2358 be3c 27e2 1c3c 0000 0000
00000190: 0000 0000 a9f8 0f3d 3d24 b93c 144f ac3c
000001a0: b476 ad3b 7b0b 9c3a d9f7 9c3c 0000 0000
000001b0: 748e 3e3c d41e 4e3c 1783 dfba 0cef 343c
000001c0: 0000 0000 5c7d 443c 3d23 0238 5fbe 183d
000001d0: 2af6 9c3c 4a25 8eba 7d4d 1b3d 2337 a03c
000001e0: f571 563c 9e28 7c3c 0000 0000 fdbc 6fbb
000001f0: 3c35 4b3b 147b 833b 0000 0000 5dba 8c3b
00000200: 0000 0000 439a 8ebc 1001 e43c 0000 0000
00000210: 19f9 123b e958 033b 8b86 1c3c 202a c13c
00000220: 9ac4 4a3d 0000 0000 4a8c bd3c 0000 0000
00000230: 7a57 90bb ce44 4cbc fcad d4ba 595b 1139
00000240: dc33 01bc aca0 063c 9d49 e63b dd03 083d
00000250: c4d1 c63c 7b07 0abc 7371 5839 f04a 1f3c
00000260: 0000 0000 6dd4 be3c 0000 0000 0a62 11bc
00000270: d622 3a3c 59ec b13c 4557 593c 1ba5 ad3c
00000280: c5ee 8d3c 0b2b 20bc 0000 0000 a621 aa3c
00000290: cef1 443c bc1f 023b d0c9 6bbc 1078 433d
000002a0: 156d 423c dd62 6cbb 0000 0000 411d 673b
000002b0: d584 ef3c 0000 0000 c58a c139 a2dd 7bbc
000002c0: eff0 4a3c 0000 0000 a9e3 6d3a 73df a73c
000002d0: 6379 473c 7d3a a4bc 0000 0000 e68c b93c
000002e0: 17a7 02bc 501e a93c 623d b03c 0000 0000
000002f0: cfb3 06bc 8bf8 c5bc 31e3 b3b9 0000 0000
00000300: e5f5 883c 0000 0000 e9b7 7b3c f01c 043d
00000310: 0000 0000 fd33 41bc ee80 973c e336 d0bb
00000320: 0315 39bc 0000 0000 0000 0000 dccd 573c
00000330: e167 993c 0000 0000 0ddf 71bc 0000 0000
00000340: 0000 0000 4c25 42bb 12ca 003d e712 043d
00000350: 0000 0000 0000 0000 0000 0000 893a f6bb
00000360: 0000 0000 8bc5 b13c cef6 303c 0000 0000
00000370: a222 42bb 253a 883c 0000 0000 0edd 813c
00000380: 5edc ac3b f26c 2d3c 406f 00bc 4064 033c
00000390: e758 a9bb 9df7 2539 9810 6bbc cc34 3bbc
000003a0: d8b1 79bc 07f7 43bc d3da 9a3c ed7c a3ba
000003b0: 0000 0000 2866 9d3c a917 91ba 79e2 d9bb
000003c0: 9c1c 51bb 261b f6bb a22b e0bc 9231 c43c
000003d0: 9397 073d 2f94 093c 4fd6 a0bb 9b36 fbb9
000003e0: 82bb 1f3d 2c16 cd3b 0000 0000 0000 0000
000003f0: 0000 0000 0000 0000 4f07 ad3a 0000 0000

sequential_1/dense_8/BiasAdd/ReadVariableOp f4 [128]
-0.011904604 0.02286362 -0.0071952012 0.00075499003 0.0 0.015911326 0.01284848 -0.0011320582
0.010971921 0.018159928 -0.002916851 0.012391745 0.0 0.0 -0.0007352209 0.0
-0.0005114736 -0.020030366 -0.0034105072 0.021139791 0.013746102 0.012122362 -0.011374705 0.021108301
-0.018782698 0.0 -0.007846437 0.002445517 0.0 -0.0018078159 0.0 -0.012903576
0.0 -0.013402225 0.017245978 0.015724126 0.0 0.004109211 -0.012786408 -0.012728348
-0.0026801978 -0.003324316 -0.001988568 0.011491631 0.021788165 -0.009810583 0.019634586 0.005273465
0.018368227 0.0020682886 -0.013805142 0.0 -0.01073227 0.0064617447 -0.0029490287 0.018223796
0.027965812 0.02439823 0.0 -0.016991118 0.0 0.0048463084 0.01796207 0.0
0.0 0.0 -0.00064978667 -0.0022693358 -0.0031874005 0.0 -0.012145084 0.0
-0.013179284 -0.015051901 0.01895729 0.017298386 0.019559905 -0.008314988 0.0 -0.005370555
0.0062538115 -0.00090630306 0.015803576 0.0129319085 0.014636989 -0.0134488875 0.0 0.0
0.013322831 0.020069093 -0.011973978 -0.014330033 0.020448146 0.021189095 0.0 -0.0055912547
-0.006019697 0.0017373445 0.0 0.020048758 0.0 0.0 -0.015739564 -0.018302906
0.0 -0.0021762268 0.017692529 -0.00025342597 0.0 0.0 0.0 0.0
-0.005975466 0.019243522 0.0 0.0 -0.0087883305 0.009839113 0.0 -0.0029633145
0.0 0.0 0.0 -0.009356123 -0.012095072 0.02287743 0.018460825 0.019613925
00000000: 870b 43bc 7d4c bb3c b9c5 ebbb 86ea 453a
00000010: 0000 0000 7858 823c 6e82 523c 9261 94ba
00000020: 92c3 333c 21c4 943c a428 3fbb bf06 4b3c
00000030: 0000 0000 0000 0000 d7bb 40ba 0000 0000
00000040: 6a14 06ba b916 a4bc d182 5fbb 5b2d ad3c
00000050: 5537 613c df9c 463c f85c 3abc 51eb ac3c
00000060: 2cde 99bc 0000 0000 588e 00bc f844 203b
00000070: 0000 0000 3cf4 ecba 0000 0000 8569 53bc
00000080: 0000 0000 0295 5bbc 7047 8d3c e2cf 803c
00000090: 0000 0000 8fa6 863b 157e 51bc 908a 50bc
000000a0: 42a6 2fbb c5dc 59bb a352 02bb 6547 3c3c
000000b0: 187d b23c 91bc 20bc b6d8 a03c 08cd ac3b
000000c0: f778 963c 208c 073b f62e 62bc 0000 0000
000000d0: 67d6 2fbc 0bbd d33b 7e44 41bb 124a 953c
000000e0: 8f18 e53c ccde c73c 0000 0000 f530 8bbc
000000f0: 0000 0000 c8cd 9e3b 3125 933c 0000 0000
00000100: 0000 0000 0000 0000 7256 2aba 23b9 14bb
00000110: b5e3 50bb 0000 0000 2dfc 46bc 0000 0000
00000120: eced 57bc 409c 76bc 524c 9b3c 58b5 8d3c
00000130: 183c a03c 963b 08bc 0000 0000 7bfb afbb
00000140: c6ec cc3b f894 6dba 8076 813c 5be0 533c
00000150: fbcf 6f3c b958 5cbc 0000 0000 0000 0000
00000160: 0148 5a3c f067 a43c 812e 44bc 84c8 6abc
00000170: df82 a73c c194 ad3c 0000 0000 d836 b7bb
00000180: e140 c5bb 9cb7 e33a 0000 0000 4b3d a43c
00000190: 0000 0000 0000 0000 42f0 80bc faef 95bc
000001a0: 0000 0000 079f 0ebb ecef 903c 42de 84b9
000001b0: 0000 0000 0000 0000 0000 0000 0000 0000
000001c0: d8cd c3bb 97a4 9d3c 0000 0000 0000 0000
000001d0: eefc 0fbc 3b34 213c 0000 0000 2b34 42bb
000001e0: 0000 0000 0000 0000 0000 0000 6d4a 19bc
000001f0: 692a 46bc 7369 bb3c 283b 973c 62ad a03c

sequential_1/dense_9/BiasAdd/ReadVariableOp f4 [64]
0.0 -0.0104526 0.012631955 0.0 0.0 0.0 0.0035570345 -0.0016357811
0.014524304 -0.002686644 0.0 -0.001409145 -0.0038801702 0.015345539 -0.014482388 0.013665332
0.010991584 0.0 0.0019384989 -0.002418933 0.022626579 0.017288392 0.026372518 0.016908787
0.0 0.017237818 0.0156115955 -0.00038037487 -0.011533037 0.0 -0.004171406 -0.009611281
0.0046513015 -0.010807498 -0.014982066 -0.012151504 -0.008677925 0.01078043 -0.012820154 0.0009130867
-0.0058693406 0.0114486385 0.014602479 -0.017158715 -0.0014102168 0.00018910634 0.0056615844 -0.0018849276
0.009681792 -0.011915783 -0.02143134 0.0 -0.0005160581 0.018491324 0.0 -0.0082269665
0.013187488 0.0 -0.014671352 -0.0024194466 0.017154839 -0.004915734 0.0078105843 0.0
00000000: 0000 0000 6241 2bbc 42f6 4e3c 0000 0000
00000010: 0000 0000 0000 0000 231d 693b b567 d6ba
00000020: 59f7 6d3c 6812 30bb 0000 0000 0fb3 b8ba
00000030: 744a 7ebb db6b 7b3c 8a47 6dbc 8fe4 5f3c
00000040: 0b16 343c 0000 0000 3b15 fe3a f686 1ebb
00000050: 605b b93c 63a0 8d3c 2e0b d83c 4c84 8a3c
00000060: 0000 0000 5336 8d3c c7c7 7f3c 0d6d c7b9
00000070: 10f5 3cbc 0000 0000 4ab0 88bb a278 1dbc
00000080: f269 983b ef11 31bc 5777 75bc 1a17 47bc
00000090: db2d 0ebc 67a0 303c a00b 52bc 365c 6f3a
000000a0: 9953 c0bb 1293 3b3c 3c3f 6f3c 6f90 8cbc
000000b0: 06d7 b8ba d94a 4639 d084 b93b ad0f f7ba
000000c0: 61a0 1e3c 6b3a 43bc c790 afbc 0000 0000
000000d0: 1348 07ba 1e7b 973c 0000 0000 66ca 06bc
000000e0: 5510 583c 0000 0000 1c60 70bc 948f 1ebb
000000f0: 4e88 8c3c 2a14 a1bb eeef ff3b 0000 0000

sequential_1/dense_7/MatMul f4 [256, 8]
-0.123129696 -0.09611771 0.05579883 0.06715487 -0.027973607 -0.07931073 -0.10067163 -0.04619798
-0.059739143 -0.03153642 0.027668282 0.15642849 0.15978608 -0.01633403 0.1408074 -0.008140722
0.045045733 0.124975674 -0.013105518 0.11521438 0.11827151 0.11325373 -0.046624783 -0.02267471
0.12768893 -0.15021941 0.069349244 -0.13287278 0.10988355 0.07927847 0.115540124 -0.13064016
0.04752287 0.02406846 0.092740454 0.090659425 0.052780826 0.016948685 -0.09034086 0.020949306
-0.029251497 0.093718804 -0.07260175 -0.07771886 -0.010846648 0.120731995 -0.093654834 -0.03197266
-0.06676908 0.0045483373 -0.12142327 0.131053 -0.00071614556 -0.04719156 -0.02266397 0.07864588
-0.021532923 -0.09260583 0.0024570227 -0.11149565 -0.06389539 0.038312748 0.058747858 0.10232079
0.14887072 -0.08661157 0.14318179 0.019428782 0.05346762 0.002462777 -0.060704432 -0.074451104
-0.024605617 -0.13813698 0.13216291 0.1030804 0.04244689 -0.13075231 -0.10756688 0.048757657
-0.031092409 0.01661082 0.055399157 0.04099317 0.055700283 -0.061350483 -0.065762214 0.08674356
0.06997825 0.14749116 0.1375465 0.102803744 0.0482097 0.102523476 0.03919246 -0.044111617
-0.0783838 -0.024088161 0.070576206 0.030742027 -0.040702485 0.016783806 0.19242728 -0.015994685
-0.06943647 0.05985439 0.06100606 0.105421074 0.11621495 0.018127482 0.1645007 0.0632242
0.13681392 0.06481751 -0.1486717 -0.007508263 -0.102995 -0.11947699 -0.0450557 0.057758473
0.046901032 -0.056125488 -0.1451514 0.008928279 -0.020401817 0.07473147 0.03610166 0.028740853
0.11169468 -0.007504207 0.0049389624 0.120458305 0.08798559 -0.10382362 -0.07041909 0.042202473
0.017593417 0.14150105 0.11771711 0.16220923 0.08502174 0.046150714 0.16358452 -0.04188992
0.110519536 0.13738504 -0.09953717 0.0033482423 0.14190838 -0.064430475 0.19443241 -0.035706155
-0.12655628 0.1143321 0.009662151 0.088845216 0.03647899 0.18928508 -0.038679186 -0.13380739
0.034724478 -0.015274562 0.058381967 -0.14421684 -0.07191361 -0.14751269 0.1128459 -0.13749193
0.10192689 0.12783042 -0.150266 0.08499293 -0.035037618 -0.0054455153 0.08739586 -0.13299768
0.051929947 0.03982018 0.076285884 -0.067384556 -0.16865422 0.07328975 0.058858827 -0.05586874
0.0033323904 0.09427041 0.15341014 -0.12163386 -0.042155117 -0.036585454 -0.003052415 0.06767608
0.04345654 -0.10917568 -0.049483202 -0.12471515 -0.11327925 0.05495538 -0.055534706 0.09505491
-0.1340743 0.10357775 -0.07636354 0.0011682521 0.051736902 -0.111266285 0.07378416 0.114549994
-0.10392323 -0.13544782 -0.08558391 -0.13133296 0.0870368 -0.0066313297 -0.084084086 0.11168593
0.12797175 0.10600751 -0.08301764 -0.12313438 0.08744639 0.17662059 0.09989443 0.09564932
0.05556056 -0.10268293 0.003260778 -0.010980296 0.033025045 0.06475791 -0.01928784 0.013930306
0.032069672 0.08818826 -0.13101155 0.1503888 0.045122772 0.06481975 -0.0011935829 0.0344234
0.12136675 0.14342703 0.14292277 -0.057185844 0.110200495 -0.08359395 -0.050385196 0.072452106
0.101752706 0.045078248 -0.051639467 -0.012565277 -0.062314294 0.06325887 0.09711612 -0.015784003
00000000: 6c2b fcbd 5dd9 c4bd 508d 643d 7e88 893d
00000010: e828 e5bc aa6d a2bd ed2c cebd 183a 3dbd
00000020: 08b1 74bd 552c 01bd 98a8 e23c ca2e 203e
00000030: f69e 233e f2ce 85bc d12f 103e aa60 05bc
00000040: e081 383d 3ff3 ff3d 87b8 56bc 84f5 eb3d
00000050: 5538 f23d 92f1 e73d a1f9 3ebd 50c0 b9bc
00000060: e3c0 023e 1ed3 19be fa06 8e3d cd0f 08be
00000070: a00a e13d c05c a23d 4da0 ec3d 89c6 05be
00000080: 57a7 423d 382b c53c b5ee bd3d a6ab b93d
00000090: b530 583d f8d7 8a3c a104 b9bd e19d ab3c
000000a0: d6a0 efbc a5ef bf3d 3ab0 94bd 112b 9fbd
000000b0: 24b6 31bc 5642 f73d 1bce bfbd c4f5 02bd
000000c0: 3abe 88bd 380a 953b c3ac f8bd c232 063e
000000d0: b7bb 3bba f04b 41bd caa9 b9bc 1711 a13d
000000e0: d065 b0bc 20a8 bdbd 0006 213b d557 e4bd
000000f0: 96db 82bd d4ed 1c3d 98a1 703d 908d d13d
00000100: 9171 183e 6861 b1bd 3f9e 123e 1c29 9f3c
00000110: dd00 5b3d 8b66 213b 36a5 78bd d279 98bd
00000120: b891 c9bc c873 0dbe b755 073e d11b d33d
00000130: cadc 2d3d efe3 05be 064c dcbd 1cb6 473d
00000140: 82b5 febc 6a13 883c 3aea 623d 74e8 273d
00000150: fb25 643d a54a 7bbd 57ae 86bd 9ca6 b13d
00000160: c250 8f3d ec07 173e fdd8 0c3e c58a d23d
00000170: 8977 453d d4f7 d13d 4688 203d 62ae 34bd
00000180: b087 a0bd 8954 c5bc 428a 903d b4d6 fb3c
00000190: a6b7 26bd 317e 893c a80b 453e 4907 83bc
000001a0: b534 8ebd e029 753d 7ee1 793d 01e7 d73d
000001b0: 1b02 ee3d 1680 943c df72 283e b07b 813d
000001c0: f318 0c3e 0bbf 843d 653d 18be e007 f6bb
000001d0: 0bef d2bd 5ab0 f4bd 538c 38bd 2694 6c3d
000001e0: 4c1b 403d d7e3 65bd 92a2 14be eb47 123c
000001f0: b621 a7bc d00c 993d 56df 133d f071 eb3c
00000200: 2ec0 e43d dae5 f5bb 05d7 a13b d8b2 f63d
00000210: ca31 b43d 7aa1 d4bd e237 90bd 80dc 2c3d
00000220: 1220 903c a7e5 103e ab15 f13d 2d1a 263e
00000230: e11f ae3d 8808 3d3d b382 273e c494 2bbd
00000240: 1158 e23d aaae 0c3e 25da cbbd 2f6e 5b3b
00000250: 6e50 113e 20f4 83bd 4a19 473e 9e40 12bd
00000260: f897 01be f326 ea3d 004e 1e3c 7bf4 b53d
00000270: fe6a 153d f3d3 413e 116e 1ebd ce04 09be
00000280: 413b 0e3d 2842 7abc ee21 6f3d 94ad 13be
00000290: 7147 93bd 910d 17be c01b e73d afca 0cbe
000002a0: 0cbf d03d fae5 023e 55df 19be c610 ae3d
000002b0: 9b83 0fbd 4b70 b2bb 9afc b23d 8b30 08be
000002c0: 7fb4 543d 7c1a 233d c63b 9c3d ea00 8abd
000002d0: b1b3 2cbe f018 963d f415 713d 9fd6 64bd
000002e0: 3c64 5a3b d810 c13d 8c17 1d3e 2c1b f9bd
000002f0: d8aa 2cbd a1da 15bd 070b 48bb c299 8a3d
00000300: 7cff 313d 8097 dfbd e6ae 4abd a86a ffbd
00000310: f4fe e7bd e418 613d 5c78 63bd 26ac c23d
00000320: c64a 09be 9220 d43d 7d64 9cbd 0920 993a
00000330: 13ea 533d 94df e3bd 261c 973d 3099 ea3d
00000340: b4d5 d4bd d5b2 0abe 9e46 afbd 267c 06be
00000350: 5a40 b23d a04b d9bb 4734 acbd 98bb e43d
00000360: 070b 033e 771a d93d 2705 aabd e12d fcbd
00000370: 1817 b33d 07dc 343e 7395 cc3d cae3 c33d
00000380: 7893 633d 6e4b d2bd c7b2 553b b3e6 33bc
00000390: 4545 073d cc9f 843d 8801 9ebc f03b 643c
000003a0: 7d5b 033d 0c9c b43d e427 06be 86ff 193e
000003b0: a8d2 383d 38c0 843d ff71 9cba 8dff 0c3d
000003c0: 218f f83d 89de 123e 595a 123e b43b 6abd
000003d0: ccb0 e13d 4e33 abbd b560 4ebd c561 943d
000003e0: b963 d03d f8a3 383d e883 53bd 97de 4dbc
000003f0: 463d 7fbd de8d 813d d1e4 c63d 744d 81bc

sequential_1/dense_8/MatMul f4 [128, 256]
0.06099672 0.10549058 -0.08965908 0.0071649924 -0.070366174 0.102013916 0.032714233 -0.01979506
0.10739624 0.051507544 0.018179758 -0.107665844 0.09132067 0.019926809 0.0241404 -0.048205514
0.10825602 0.011790703 -0.08555701 -0.032116875 0.03046689 0.1003399 0.07313739 -0.00999569
0.029946178 0.020938996 0.089514494 -0.093517505 0.07489165 -0.07547609 0.01813573 -0.03678376
0.090811014 0.13253134 0.011210054 -0.059581492 0.1109607 0.082764626 0.050139755 0.07830098
0.08419892 0.06309218 0.09400657 -0.015084034 -0.11319774 -0.022727748 -0.0641308 -0.09027409
0.08306693 0.024608655 -0.04993348 0.0135860145 0.05212604 0.0100098755 0.09841406 -0.055180177
-0.114027895 0.10889664 -0.043275297 -0.0014339318 0.087300986 -0.0030714998 -0.039830875 0.006150906
-0.06603537 -0.15737043 0.07124125 -0.016507037 -0.081759974 0.048100732 0.052783392 0.09905319
-0.0140119195 -0.10388784 0.07927802 0.11452943 0.08452319 -0.068786144 0.093416125 -0.0689342
-0.044674892 0.03732252 0.05030805 -0.02473015 0.053397983 0.07825701 0.025865711 -0.0062301457
0.023037065 -0.03657785 -0.08446963 0.06265484 -0.011531671 0.0069594383 0.04786166 -0.10804346
-0.07984946 0.043968767 0.064893164 -0.008689523 -0.028738528 0.048187297 0.08919195 0.06540518
-0.008840709 0.10702237 -0.074937016 0.01910752 0.09339194 -0.10003785 0.084270075 -0.09674356
-0.032771885 0.004815928 0.08094949 0.06665 -0.08520078 0.010040351 0.11170572 -0.06544875
-0.042063564 0.06216401 0.063789606 -0.16774446 0.05581757 0.10607019 0.09965381 0.05100199
0.006051272 0.122219704 0.11870441 0.019263357 -0.018746613 0.12421705 0.08643235 0.10635162
-0.11632402 -0.053063244 0.06635346 -0.123125255 0.117538385 0.10219534 -0.051876307 -0.0064761187
-0.006938779 -0.07322193 -0.07817256 0.046616666 -0.021358877 0.03985617 -0.045923825 0.08428856
-0.029839158 0.102352254 -0.030583054 0.06430732 0.041237578 -0.003875385 0.024406265 -0.07868745
-0.11356403 0.049932387 0.008959204 -0.085385345 0.08098663 -0.07921536 0.098069064 -0.03945819
-0.010040612 -0.05588108 0.048974097 -0.015156158 -0.07857705 0.047410905 -0.09894555 -0.053638447
-0.0530177 -0.018311918 -0.091629565 0.052369922 -0.077483155 0.041982073 0.042571306 0.07358751
-0.07270184 -0.121829696 -0.112774014 -0.10865581 -0.062379345 0.09512487 0.10471438 -0.006377965
-0.016080044 -0.09387469 -0.09228262 -0.14849328 0.097917885 -0.11478103 -0.07314855 -0.034046333
0.09108885 -0.010237724 -0.036731184 0.08798216 -0.098457135 0.08725831 0.10668335 -0.08940014
-0.0825215 -0.083604164 -0.058297608 -0.041368928 0.01346916 -0.04943779 0.049184024 0.02327947
-0.09470919 0.0048526875 -0.10960483 -0.10583651 0.05603197 -0.09454953 -0.11583477 0.07112166
0.10718115 -0.07361067 -0.06897099 0.039761823 0.0037506337 -0.117897764 0.116468444 -0.106367216
0.119413726 0.093365595 -0.038141 0.03928876 0.11286047 0.091376275 0.0995442 -0.029076235
-0.12122936 -0.00901011 -0.025438458 0.0020296697 0.025930835 -0.042783756 0.0044964566 -0.038728688
-0.0019267525 -0.015412729 0.04392594 0.0516631 -0.046134263 0.09220341 0.04066646 -0.07397467
00000000: b2d7 793d 720b d83d 2e9f b7bd 50c8 ea3b
00000010: 241c 90bd acec d03d 5cff 053d 4029 a2bc
00000020: 8ff2 db3d 93f9 523d b7ed 943c e97f dcbd
00000030: 5506 bb3d 8c3d a33c 17c2 c53c 2573 45bd
00000040: 55b5 dd3d cb2d 413c 8338 afbd fc8c 03bd
00000050: b395 f93c 017f cd3d 0ec9 953d f6c4 23bc
00000060: b051 f53c 4288 ab3c 6053 b73d 1b86 bfbd
00000070: cb60 993d 3593 9abd 6291 943c 91aa 16bd
00000080: 20fb b93d 4cb6 073e 60aa 373c b90b 74bd
00000090: 5d3f e33d 8080 a93d 585f 4d3d 445c a03d
000000a0: 7c70 ac3d 7936 813d 8486 c03d 0623 77bc
000000b0: 37d4 e7bd 8b2f babc 0257 83bd 9fe1 b8bd
000000c0: ff1e aa3d 1798 c93c 0c87 4cbd e097 5e3c
000000d0: 1d82 553d 7600 243c 508d c93d 9c04 62bd
000000e0: 7587 e9bd 3405 df3d 7041 31bd c4f2 bbba
000000f0: dcca b23d 374b 49bb b325 23bd 8a8d c93b
00000100: 8d3d 87bd b725 21be efe6 913d c439 87bc
00000110: c671 a7bd 4605 453d 6633 583d 66dc ca3d
00000120: 4092 65bc 26c3 d4bd 845c a23d 688e ea3d
00000130: 7f1a ad3d c0df 8cbd f450 bf3d 602d 8dbd
00000140: 05fd 36bd 80df 183d d00f 4e3d e296 cabc
00000150: d8b7 5a3d 3645 a03d 54e4 d33c 4026 ccbb
00000160: 3ab8 bc3c a8d2 15bd 6afe acbd 2e51 803d
00000170: 55ef 3cbc 000c e43b 970a 443d e445 ddbd
00000180: 1d88 a3bd 9818 343d b5e6 843d 805e 0ebc
00000190: 106d ebbc 0b60 453d 45aa b63d 27f3 853d
000001a0: 9fd8 10bc 8b2e db3d 9478 99bd 6087 9c3c
000001b0: 4644 bf3d a5e0 ccbd ca95 ac3d 7d21 c6bd
000001c0: d03b 06bd efce 9d3b d9c8 a53d cc7f 883d
000001d0: bf7d aebd 4980 243c f8c5 e43d ff09 86bd
000001e0: d84a 2cbd b09f 7e3d 20a4 823d 34c5 2bbe
000001f0: f7a0 643d 543b d93d 4c17 cc3d 76e7 503d
00000200: c049 c63b 534e fa3d 4c1b f33d 30ce 9d3c
00000210: 7f92 99bc 8265 fe3d 7203 b13d e1ce d93d
00000220: 4a3b eebd d858 59bd 53e4 873d 1829 fcbd
00000230: f7b7 f03d ca4b d13d 407c 54bd 9f35 d4bb
00000240: b25e e3bb 61f5 95bd ef18 a0bd 1ef1 3e3d
00000250: d0f8 aebc 3940 233d 9f1a 3cbd 7b9f ac3d
00000260: 4071 f4bc 0f9e d13d 5089 fabc 8eb3 833d
00000270: bce8 283d 2cfa 7dbb a6ef c73c e326 a1bd
00000280: 4294 e8bd e785 4c3d a0c9 123c 83de aebd
00000290: 51dc a53d aa3b a2bd 6fd8 c83d e99e 21bd
000002a0: 6181 24bc 8fe3 64bd 1099 483d 8951 78bc
000002b0: 01ed a0bd f031 423d f7a3 cabd fdb3 5bbd
000002c0: 1629 59bd e002 96bc 48a8 bbbd d881 563d
000002d0: 7daf 9ebd 65f5 2b3d 405f 2e3d 0cb5 963d
000002e0: b4e4 94bd d981 f9bd 10f6 e6bd f086 debd
000002f0: 7c81 7fbd d4d0 c23d 7e74 d63d 40fe d0bb
00000300: 4cba 83bc 6041 c0bd acfe bcbd 9f0e 18be
00000310: 2c89 c83d 5112 ebbd e8ce 95bd 2b74 0bbd
00000320: ca8c ba3d 20bc 27bc 7073 16bd fe2f b43d
00000330: e5a3 c9bd 7cb4 b23d cd7c da3d 6c17 b7bd
00000340: 0801 a9bd a938 abbd 79c9 6ebd 7772 29bd
00000350: c0ad 5c3c 487f 4abd 3075 493d 96b4 be3c
00000360: e4f6 c1bd 4b03 9f3b 7f78 e0bd d0c0 d8bd
00000370: c781 653d 2fa3 c1bd c83a edbd 3ca8 913d
00000380: ca81 db3d 31c1 96bd aa40 8dbd 4bdd 223d
00000390: 31cd 753b 6274 f1bd 0287 ee3d 0ed7 d9bd
000003a0: 2f8f f43d 7636 bf3d bd39 1cbd 40ed 203d
000003b0: 6423 e73d 7c23 bb3d d4dd cb3d 4931 eebc
000003c0: 1947 f8bd 249f 13bc 5064 d0bc 3504 053b
000003d0: e76c d43c 053e 2fbd 0357 933b f9a1 1ebd
000003e0: 168b fcba ac85 7cbc b0eb 333d b09c 533d
000003f0: 48f7 3cbd 24d5 bc3d e091 263d 0880 97bd

sequential_1/dense_9/MatMul f4 [64, 128]
0.06390296 -0.15938126 -0.07671801 0.09213309 0.17161809 -0.031566933 0.12017883 6.043911e-05
0.12220387 -0.02695021 0.006205231 0.1496283 -0.07476033 -0.09525558 0.050772786 0.055492774
-0.12468049 -0.05662787 0.16112684 0.14507855 -0.11835505 0.004544154 0.0032436699 -0.04329464
-0.11583716 0.068239495 -0.003798142 -0.0717282 -0.104886055 -0.108759984 0.035629645 0.046557978
-0.11881028 0.17380546 -0.08719664 0.037270546 -0.01635483 -0.034129173 -0.17110996 -0.14790268
-0.1656925 -0.16592994 -0.1315363 -0.119757235 0.07246384 0.017612278 0.13473277 0.098951235
0.09981991 -0.035473317 0.12409325 0.14639248 -0.0042207986 -0.056012146 0.17018165 0.010653928
-0.1002282 -0.02180472 0.14762639 -0.11394716 -0.1555032 0.00049969554 -0.14069057 -0.15086098
-0.15588087 0.042503536 0.028633386 -0.049158096 -0.1308223 0.038986385 0.01125215 0.08859517
0.03439924 0.1568207 -0.17075504 -0.1555893 -0.001304999 -0.09484567 -0.108166896 0.07098061
-0.08264757 -0.034669876 -0.11010105 0.031726718 -0.115085974 -0.08635316 -0.05967749 -0.13554266
-0.10307699 0.059314698 0.01701662 -0.17592895 -0.072440356 0.03239955 -0.051517308 0.014781952
0.09585081 0.10615049 0.12441565 0.10187672 0.1752974 0.15139984 0.14636035 -0.089076474
0.12318201 0.17411388 -0.029210761 0.12886341 -0.07782301 0.09995063 -0.06987673 -0.16855527
-0.15269795 0.124298856 0.15346216 -0.0064836144 0.07995437 -0.0869677 -0.024314478 -0.052934922
0.0498413 0.049765736 0.095043406 0.027351111 -0.13024409 0.010281384 -0.12208631 -0.13038899
-0.0018965391 0.0029318258 0.17210053 0.026195481 0.07286304 0.098797865 0.053378757 0.14984186
-0.16156542 0.11096381 -0.15481266 -0.089645855 -0.051136732 0.06794725 0.025638249 0.16973047
-0.025319427 -0.16335107 0.12722076 0.10218406 0.093570605 0.026929375 0.07299518 0.10413151
-0.14328049 -0.13814856 -0.17847843 -0.047939125 -0.060229823 -0.084024206 0.04888782 -0.17194863
-0.034988537 0.12744275 -0.18444622 -0.091968276 -0.109910004 -0.013728917 0.13800137 -0.010390231
-0.06285136 0.16217598 0.01147475 -0.11642578 0.07138269 -0.006235983 0.068430535 -0.15784933
0.13151225 -0.09930992 -0.16482505 -0.10522618 -0.08182725 0.07329884 -0.009544099 0.13033816
-0.17022893 0.10255075 0.023366258 -0.040259905 0.1618226 -0.14504647 -0.052272286 -0.015715584
0.083232865 -0.09663732 -0.031059578 0.0037820104 0.075568944 0.13726635 0.13186368 0.02741155
-0.102430776 0.082370274 -0.03927415 0.057195485 -0.09588805 -0.08609299 0.053375185 -0.033126704
-0.08082079 0.114220455 -0.13769002 0.08877073 -0.026859837 -0.08485303 0.12102635 -0.07390458
0.023995431 -0.0835142 0.13630672 -0.16536246 0.103238255 -0.12497732 -0.14980549 0.10796399
0.116097644 0.06883461 0.16053645 -0.040859845 -0.11094913 -0.073855735 0.09620554 0.046408847
-0.040249273 0.07913524 0.15297103 0.09854905 0.15139674 0.08675869 0.1378385 0.029939651
-0.008784413 0.09830385 0.15958671 -0.12666143 0.053704426 0.1388765 0.078797 0.039396003
-0.15340075 -0.16023384 -0.08672148 0.010718335 -0.08677299 -0.14000095 -0.127896 -0.09796235
00000000: 8edf 823d d734 23be 551e 9dbd 46b0 bc3d
00000010: a7bc 2f3e 544c 01bd 5220 f63d 0080 7d38
00000020: 0646 fa3d b0c6 dcbc 4055 cb3b 2938 193e
00000030: f21b 99bd 5c15 c3bd 20f7 4f3d 644c 633d
00000040: 7c58 ffbd a0f2 67bd 6ffe 243e 798f 143e
00000050: 2264 f2bd 20e7 943b c093 543b b855 31bd
00000060: 083c edbd 26c1 8b3d 40ea 78bb 3ce6 92bd
00000070: 80ce d6bd 8ebd debd 64f0 113d 94b3 3e3d
00000080: ce52 f3bd 0ffa 313e 2794 b2bd 00a9 183d
00000090: 90fa 85bc 08cb 0bbd 7337 2fbe cd73 17be
000000a0: 4bab 29be 8ae9 29be 74b1 06be 4843 f5bd
000000b0: ec67 943d a047 903c 63f7 093e f2a6 ca3d
000000c0: 626e cc3d 784c 11bd 9a24 fe3d e9e7 153e
000000d0: a04e 8abb fe6c 65bd 1944 2e3e d08d 2e3c
000000e0: 7144 cdbd d09f b2bc 5f2b 173e 215d e9bd
000000f0: 3b3c 1fbe 00fe 023a 3011 10be 4d7b 1abe
00000100: 3c9f 1fbe 3018 2e3d 9090 ea3c 005a 49bd
00000110: 48f6 05be 30b0 1f3d f05a 383c 6271 b53d
00000120: 38e6 0c3d 9b95 203e 69da 2ebe cd52 1fbe
00000130: 800c abba 723e c2bd 9b86 ddbd 485e 913d
00000140: 2143 a9bd 0002 0ebd a97c e1bd e0f3 013d
00000150: 32b2 ebbd edd9 b0bd 6270 74bd b2cb 0abe
00000160: 071a d3bd f8f3 723d 7066 8b3c b826 34be
00000170: 9c5b 94bd 64b5 043d d003 53bd 0030 723c
00000180: 6e4d c43d 6e65 d93d a2cd fe3d bea4 d03d
00000190: 2981 333e 8f08 1b3e 7ddf 153e ba6d b6bd
000001a0: da46 fc3d e94a 323e 684b efbc c5f4 033e
000001b0: ac61 9fbd eab2 cc3d 881b 8fbd c199 2cbe
000001c0: da5c 1cbe 6690 fe3d 2f25 1d3e 8074 d4bb
000001d0: 1ebf a33d 1f1c b2bd 282f c7bc 4ad2 58bd
000001e0: 6426 4c3d 28d7 4b3d 1ea6 c23d 700f e03c
000001f0: b55e 05be 4073 283c 6308 fabd b184 05be
00000200: 4b95 f8ba e023 403b 1f3b 303e e897 d63c
00000210: 3839 953d 8956 ca3d afa3 5a3d 2570 193e
00000220: 6871 25be fe40 e33d 3687 1ebe 3f98 b7bd
00000230: c074 51bd ee27 8b3d 4e07 d23c d3cd 2d3e
00000240: b06a cfbc 8145 27be 2946 023e e045 d13d
00000250: f2a1 bf3d fe9a dc3c 7f7e 953d e742 d53d
00000260: 1fb8 12be d176 0dbe 0dc3 36be d15b 44bd
00000270: 8cb3 76bd e214 acbd 983e 483d 4d13 30be
00000280: 2450 0fbd 5a80 023e 78df 3cbe dd59 bcbd
00000290: 7f18 e1bd 40ef 60bc 3b50 0d3e ca3b 2abc
000002a0: 37b8 80bd 7611 263e 9700 3c3c a470 eebd
000002b0: 1631 923d 3857 ccbb 4f25 8c3d 41a3 21be
000002c0: 26ab 063e 0063 cbbd e6c7 28be d380 d7bd
000002d0: 0c95 a7bd b41d 963d da5e 1cbc 5e77 053e
000002e0: 7e50 2ebe 2106 d23d 986a bf3c 92e7 24bd
000002f0: d3b4 253e 1087 14be 771b 56bd f8bd 80bc
00000300: fe75 aa3d cae9 c5bd a870 febc 9bdb 773b
00000310: e4c3 9a3d 8d8f 0c3e 4607 073e 308e e03c
00000320: 3ac7 d1bd bfb1 a83d eedd 20bd d045 6a3d
00000330: f460 c4bd 8651 b0bd f09f 5a3d deaf 07bd
00000340: 5f85 a5bd 6aec e93d 9dfe 0cbe 6ecd b53d
00000350: 2909 dcbc 6dc7 adbd aadc f73d 495b 97bd
00000360: 1192 c43c 7e09 abbd fd93 0b3e c754 29be
00000370: 946e d33d 1cf4 ffbd 9c66 19be 391c dd3d
00000380: 9ac4 ed3d 29f9 8c3d ab63 243e a75c 27bd
00000390: 4c39 e3bd ad41 97bd 6907 c53d 3417 3e3d
000003a0: 6cdc 24bd a811 a23d 70a4 1c3e 16d4 c93d
000003b0: bf07 1b3e 8aae b13d 8925 0d3e 0044 f53c
000003c0: 80ec 0fbc 8753 c93d b36a 233e 89b3 01be
000003d0: 2cf9 5b3d a435 0e3e 5260 a13d b45d 213d
000003e0: 1615 1dbe 5714 24be 089b b1bd f59b 2f3c
000003f0: 0ab6 b1bd 695c 0fbe 2bf7 02be 7ca0 c8bd

sequential_1/dense_10/MatMul f4 [32, 64]
-0.050343573 0.00618222 -0.22350277 -0.12237078 -0.14425766 0.20888686 0.17503107 0.15900986
-0.03918363 0.23652512 -0.18027961 0.18043558 0.060676996 0.17084387 0.106618546 -0.19573426
0.038741715 0.18561459 -0.17233503 0.0613626 0.15299952 -0.08650161 -0.06036745 0.21481498
0.04197204 -0.054845523 0.1323609 0.12310932 0.03370372 -0.23614556 -0.123746954 -0.038896058
-0.013118298 0.20321365 -0.17916314 0.18835688 -0.23946053 -0.07538569 0.23166344 -0.2407398
0.13082196 0.18838206 0.029376466 0.011298682 -0.1528589 -0.013745786 0.009675791 0.23372729
-0.23616277 0.13231894 -0.11040522 0.11950171 -0.14122576 -0.010501583 -0.12947547 0.044078063
-0.21639624 0.21536773 0.1747174 -0.11260064 -0.1137436 0.11894935 -0.11929433 -0.0009377003
0.16770214 0.07633394 -0.09930587 -0.20679075 0.098047376 -0.081149876 -0.16992795 0.24182576
0.1611619 -0.08872706 0.12241733 0.10140842 0.109847605 -0.1807034 0.049493313 -0.046314716
-0.2489115 0.173926 -0.10747635 0.0130621195 -0.047159314 -0.18051302 0.117534816 0.08825123
-0.18925041 -0.12220693 0.09630704 -0.16982907 0.0019046068 -0.20388389 0.11992979 0.050657272
-0.24581325 -0.13055634 0.022389352 -0.0068377852 -0.1753316 0.13663906 0.097032964 -0.20263082
0.023181617 -0.20656258 -0.19707012 0.0013281107 0.14846116 0.11193955 0.21157163 -0.18732607
-0.04411912 -0.11405879 0.108451724 -0.12582618 -0.12551355 -0.06695998 -0.034456313 0.09474969
0.1627329 0.21153682 0.14975667 0.24319679 -0.0814091 -0.010777295 0.034204364 -0.074805915
0.13727641 -0.09309685 -0.24149805 0.14022762 0.1566788 0.030132294 -0.057082117 -0.06263399
-0.16006905 0.24576628 -0.1117183 0.21413445 -0.22169602 0.097910166 0.24744427 -0.030461013
0.05121422 -0.15599233 -0.18710524 0.17228717 0.17152709 0.018797517 -0.02186042 -0.15037656
-0.023243904 -0.20936131 -0.16329044 0.19311017 0.13621545 -0.19086754 -0.22972256 0.0684579
0.07539189 -0.20017928 -0.030784845 -0.24053264 -0.15830702 0.19023043 -0.12997591 -0.1090489
-0.15043974 -0.22445536 0.090806305 -0.15414596 0.095841944 0.062385976 -0.014543176 -0.23789155
-0.1996358 -0.17766368 -0.05620104 0.18893081 -0.13353169 -0.22388625 0.0822171 0.24687982
-0.0725047 0.10315174 -0.13544667 -0.042154133 0.11179227 0.14943385 -0.20544142 -0.069869876
0.0019109249 -0.19797292 0.18720458 0.0602172 -0.17486137 0.091195464 0.0024507588 0.14714944
0.008178102 -0.22833651 0.20955306 0.06738182 -0.036524013 0.06700068 -0.24424288 -0.11627895
-0.01763559 -0.1855669 -0.031180397 -0.007868707 0.16124254 0.22361165 -0.1367482 0.0064943335
0.11515921 -0.12010431 -0.21125767 0.074997604 -0.1618982 -0.0038266182 0.06328851 0.2001874
-0.04021591 -0.046278235 0.15905173 -0.22726576 0.09351295 0.09053733 -0.17107204 -0.039909013
-0.1603275 -0.21399994 0.048192397 0.01306333 0.083531655 0.054947097 0.060130533 0.07041314
-0.0012597224 -0.09282865 0.16868709 -0.09509128 0.13312471 -0.21725436 0.11914569 -0.2190032
0.1925155 -0.15883559 -0.22023092 -0.07070768 0.098913245 -0.15417469 0.17520694 -0.14507657
00000000: 1035 4ebd 3894 ca3b e9dd 64be 889d fabd
00000010: 48b8 13be 70e6 553e 583b 333e 7bd3 223e
00000020: 047f 20bd a433 723e 389b 38be 1bc4 383e
00000030: 7188 783d b2f1 2e3e d35a da3d 906e 48be
00000040: a2af 1e3d c011 3e3e 9878 30be 5a57 7b3d
00000050: e8ab 1c3e c227 b1bd dc43 77bd 75f8 5b3e
00000060: e0ea 2b3d b3a5 60bd 9e89 073e bd20 fc3d
00000070: e90c 0a3d 24d0 71be 0b6f fdbd 7951 1fbd
00000080: 21ee 56bc 3d17 503e 8b76 37be a0e0 403e
00000090: 2435 75be d063 9abd 2e39 6d3e 7e84 76be
000000a0: 31f6 053e 3ae7 403e eaa6 f03c 1b1e 393c
000000b0: 0b87 1cbe 0136 61bc 3587 1e3c 3556 6f3e
000000c0: a7d4 71be 9e7e 073e 221c e2bd 50bd f43d
000000d0: 7c9d 10be d50e 2cbc 3895 04be 338b 343d
000000e0: fa96 5dbe 5c89 5c3e 1ee9 323e 2a9b e6bd
000000f0: 68f2 e8bd b89b f33d 9650 f4bd 00d0 75ba
00000100: 1cba 2b3e f854 9c3d e060 cbbd f4c0 53be
00000110: 10cd c83d e831 a6bd 9801 2ebe 2ca1 773e
00000120: a007 253e 88b6 b5bd f0b5 fa3d 38af cf3d
00000130: c8f7 e03d 500a 39be 80b9 4a3d 80b4 3dbd
00000140: a8e2 7ebe a819 323e 901c dcbd 8002 563c
00000150: 202a 41bd 68d8 38be 18b6 f03d 10bd b43d
00000160: dcca 41be a047 fabd a03c c53d ace7 2dbe
00000170: 00a4 f93a f0c6 50be c09d f53d 007e 4f3d
00000180: 78b6 7bbe 90b0 05be e069 b73c 800f e0bb
00000190: 208a 33be 1ceb 0b3e 38b9 c63d 747e 4fbe
000001a0: 60e7 bd3c 2485 53be c0cc 49be 0014 ae3a
000001b0: 3406 183e 9040 e53d 3ca6 583e 68d2 3fbe
000001c0: 40b6 34bd a897 e9bd f01b de3d 94d8 00be
000001d0: a086 00be 5022 89bd 1022 0dbd 200c c23d
000001e0: 74a3 263e 1c9d 583e d059 193e 9408 793e
000001f0: d0b9 a6bd 4093 30bc e019 0c3d d833 99bd
00000200: 3092 0c3e 90a9 bebd 444b 77be d497 0f3e
00000210: 6870 203e 00d8 f63c f0ce 69bd 4046 80bd
00000220: 24e9 23be 28aa 7b3e 90cc e4bd 1046 5b3e
00000230: 4804 63be 2085 c83d 0862 7d3e 6089 f9bc
00000240: 00c6 513d 74bc 1fbe 8498 3fbe 0c6c 303e
00000250: cca4 2f3e 40fd 993c a014 b3bc 50fc 19be
00000260: 006a bebc d062 56be 9c35 27be acbe 453e
00000270: 107c 0b3e c872 43be 643c 6bbe a833 8c3d
00000280: 1067 9a3d ccfb 4cbe 8030 fcbc 304e 76be
00000290: 3c1b 22be c4cb 423e 6818 05be 0855 dfbd
000002a0: e00c 1abe a0d7 65be a8f8 b93d 70d8 1dbe
000002b0: c848 c43d 7088 7f3d 8046 6ebc d899 73be
000002c0: 546d 4cbe 78ed 35be 1033 66bd 1477 413e
000002d0: 88bc 08be 7042 65be 7061 a83d 10ce 7c3e
000002e0: 587d 94bd 3841 d33d 88b2 0abe d0a9 2cbd
000002f0: 58f3 e43d 3005 193e 3c5f 52be f017 8fbd
00000300: 0078 fa3a 6ab9 4abe 8fb2 3f3e 50a6 763d
00000310: dc0e 33be b0c4 ba3d e99c 203b 58ae 163e
00000320: 72fd 053c 0cd1 69be 1495 563e 7bff 893d
00000330: 349a 15bd a737 893d ce1a 7abe a823 eebd
00000340: 8378 90bc 4005 3ebe 086e ffbc c0eb 00bc
00000350: c41c 253e 74fa 643e b807 0cbe 6bce d43b
00000360: 98d8 eb3d 40f9 f5bd ee53 58be 5898 993d
00000370: a4c8 25be 00c8 7abb 689d 813d edfd 4c3e
00000380: 70b9 24bd 3f8e 3dbd 75de 223e 5bb8 68be
00000390: b883 bf3d a36b b93d 822d 2fbe a277 23bd
000003a0: e42c 24be cd22 5bbe 6465 453d 9407 563c
000003b0: a512 ab3d 3510 613d 6f4b 763d c434 903d
000003c0: 451d a5ba f21c bebd 4fbc 2c3e 38bf c2bd
000003d0: d851 083e ed77 5ebe a802 f43d 6042 60be
000003e0: c922 453e cca5 22be 3784 61be 30cf 90bd
000003f0: 0793 ca3d f8df 1dbe 7369 333e f48e 14be

sequential_1/dense_11/MatMul f4 [16, 32]
-0.33558133 -0.049871445 0.18644276 -0.24462275 0.294387 0.2491189 0.22281906 -0.05419636
-0.03928741 0.04049982 0.20107336 0.05798385 0.07731966 -0.19473995 0.07023625 -0.22079268
-0.02855469 -0.11640948 0.19665155 -0.19787809 -0.093241036 0.23673435 -0.13006878 0.07333452
0.26016006 0.3224367 0.12506212 0.19530442 -0.03526457 -0.27734944 -0.012159705 0.31987837
-0.019602448 0.053011537 0.037957042 -0.23704728 0.27167106 0.20516512 -0.09631312 -0.14986745
0.06616209 -0.047226906 -0.07734958 0.25499257 -0.29755297 0.2422653 -0.01782912 0.0032449663
-0.2137683 0.34111956 -0.2319695 0.079187125 -0.15632746 -0.03761083 0.16429907 0.029677272
-0.026644409 -0.32453215 -0.054904357 0.062252514 0.23196498 -0.3053133 0.10776484 -0.13864653
-0.0046835975 -0.1489301 -0.0025326014 -0.005858716 0.115247294 -0.23622659 0.05146399 -0.04304829
0.19328335 0.13476178 -0.07478833 0.22788836 0.159371 0.036981273 0.15254529 0.23336998
-0.014560134 0.05446884 0.10990161 -0.18789792 0.03889843 0.04994412 -0.19306424 -0.1488932
-0.11699225 0.04475375 0.2755686 0.22018948 -0.075340554 0.25031102 -0.1473963 0.21291104
-0.010009576 0.053072065 -0.19702479 -0.336385 -0.33910394 -0.045997053 -0.18294817 0.28411412
-0.24525526 0.3800381 0.13065203 0.2755727 0.24068789 -0.037315365 0.28912902 0.26907885
0.351406 -0.2085396 0.24423751 -0.04373638 -0.19772157 0.35971496 -0.35223955 -0.17686614
0.08493605 0.16619563 -0.15544288 -0.3366449 0.32914183 0.3358264 0.21806559 -0.31050494
0.32553473 -0.10626215 0.080230236 0.32901594 -0.13170977 0.14714172 -0.26182237 0.20903523
0.20440456 0.29737836 -0.28623727 0.3501616 -0.2260702 -0.051498067 -0.1600968 -0.25993705
0.32676068 0.018294593 0.12930644 0.017340494 0.023090765 0.056843843 -0.2169994 -0.12214146
-0.24224254 -0.0168277 0.2432988 -0.11504022 -0.05701626 -0.17830798 -0.17038259 0.29111627
-0.24341777 0.05273834 -0.23792452 -0.16560163 -0.249151 -0.29513085 -0.10873735 -0.105804935
-0.32822523 0.2501147 -0.31130067 -0.032981187 -0.334005 0.14763752 -0.2452155 -0.34202227
-0.31761408 -0.14054035 0.062343866 -0.054068923 -0.18794696 -0.14238006 -0.22164606 0.22254083
0.21418926 0.00255993 -0.27318457 -0.23319067 0.21967533 -0.3225629 -0.16154204 0.33177856
0.26933104 0.1461646 0.060192794 -0.27005506 -0.070429675 -0.2767722 0.06382027 -0.3131151
0.09038559 0.21200812 0.041808683 -0.24382466 0.07639223 0.13407727 0.053531818 -0.097728275
-0.3303442 0.06364572 0.33331016 0.19930916 0.19593553 0.28111744 0.11844748 0.31354898
-0.040213626 -0.34301132 0.036669206 -0.028087456 0.29836795 -0.105995245 0.0021869242 0.14448908
0.35024315 0.12543449 0.22227946 -0.20222458 0.042861383 0.11042103 -0.084251046 -0.016237697
-0.0012817865 -0.16595067 -0.06542601 -0.24650149 -0.1307666 -0.13036439 0.005257796 0.28076166
0.13005899 -0.19456038 -0.040118158 -0.034713343 0.09480746 0.044982202 -0.15653116 -0.26993495
-0.032165248 -0.041993488 0.03749615 -0.15212034 -0.19278495 0.29266158 -0.1970817 -0.12659101
00000000: 51d1 abbe 0046 4cbd daea 3e3e 637e 7abe
00000010: e5b9 963e 0619 7f3e ae2a 643e 01fd 5dbd
00000020: d6eb 20bd 24e3 253d 2de6 4d3e 7980 6d3d
00000030: c559 9e3d e969 47be 06d8 8f3d 7a17 62be
00000040: 86eb e9bc 1868 eebd 065f 493e 8ea0 4abe
00000050: 28f5 bebd 7d6a 723e c030 05be 6930 963d
00000060: b333 853e 6c16 a53e 4910 003e e2fd 473e
00000070: 9571 10bd bf00 8ebe 8039 47bc 19c7 a33e
00000080: 5095 a0bc a022 593d d878 1b3d 86bc 72be
00000090: 7818 8b3e ce16 523e d03f c5bd da76 19be
000000a0: fd7f 873d 0071 41bd 7569 9ebd 638e 823e
000000b0: dd58 98be 6514 783e 600e 92bc 80a9 543b
000000c0: 14e6 5abe 39a7 ae3e 6a89 6dbe dc2c a23d
000000d0: 4e14 20be d00d 1abd 043e 283e c01d f33c
000000e0: 6045 dabc 1429 a6be 64e3 60bd 7efc 7e3d
000000f0: 3a88 6d3e 0652 9cbe d0b3 dc3d 5bf9 0dbe
00000100: dd78 99bb 2281 18be 00fa 25bb 79fa bfbb
00000110: c606 ec3d 62e5 71be e8cb 523d 6753 30bd
00000120: 12ec 453e fefe 093e a02a 99bd 915b 693e
00000130: 2732 233e ad79 173d d534 1c3e 8af8 6e3e
00000140: a18d 6ebc b81a 5f3d 1814 e13d 5068 40be
00000150: f653 1f3d 3592 4c3d a2b2 45be 7677 18be
00000160: a299 efbd b54f 373d 5417 8d3e 5a79 613e
00000170: 264c 9abd c428 803e 0eef 16be 5a05 5a3e
00000180: 34ff 23bc 1862 593d dec0 49be a83a acbe
00000190: 089f adbe 6867 3cbd c456 3bbe 6877 913e
000001a0: 3224 7bbe 5b94 c23e a5c9 053e dd17 8d3e
000001b0: e376 763e ffd7 18bd b808 943e b4c4 893e
000001c0: 7deb b33e 688b 55be 6619 7a3e eb24 33bd
000001d0: 8677 4abe 8f2c b83e be58 b4be 661c 35be
000001e0: f4f2 ad3d 302f 2a3e 6b2c 1fbe b85c acbe
000001f0: 4785 a83e 70f1 ab3e 964c 5f3e 81fa 9ebe
00000200: 7dac a63e f89f d9bd c04f a43d c774 a83e
00000210: edde 06be 52ac 163e 950d 86be 550d 563e
00000220: 6e4f 513e fa41 983e b18d 92be 6248 b33e
00000230: f27e 67be a3ef 52bd 6af0 23be 7816 85be
00000240: 2d4d a73e 8bde 953c e868 043e a70d 8e3c
00000250: d828 bd3c 17d5 683d 1735 5ebe 4d25 fabd
00000260: 6e0e 78be 3fda 89bc 5223 793e 359a ebbd
00000270: e289 69bd 5e96 36be c678 2ebe 310d 953e
00000280: 8242 79be 2804 583d 7ca2 73be 7993 29be
00000290: 7121 7fbe 641b 97be b0b1 debd 42b0 d8bd
000002a0: 230d a8be 090f 803e cd62 9fbe 4817 07bd
000002b0: b402 abbe 4a2e 173e c619 7bbe 8b1d afbe
000002c0: 509e a2be cfe9 0fbe 485c 7f3d 6077 5dbd
000002d0: 2b75 40be 14cc 11be 2ff7 62be bee1 633e
000002e0: 6e54 5b3e 80c4 273b d9de 8bbe 89c9 6ebe
000002f0: 92f2 603e f726 a5be 476b 25be e1de a93e
00000300: c2e5 893e 2cac 153e b88c 763d a844 8abe
00000310: 6f3d 90bd 16b5 8dbe 34b4 823d 9f50 a0be
00000320: 151c b93d a818 593e 953f 2b3d 2cad 79be
00000330: 8873 9c3d 8d4b 093e 2e44 5b3d c325 c8bd
00000340: e022 a9be b058 823d a1a7 aa3e b317 4c3e
00000350: 53a3 483e a0ee 8f3e 9894 f23d 7e89 a03e
00000360: 0bb7 24bd 2e9f afbe 7332 163d aa17 e6bc
00000370: afc3 983e 0914 d9bd 8052 0f3b f2f4 133e
00000380: 1253 b33e e671 003e 3a9d 633e f613 4fbe
00000390: 6b8f 2f3d 6c24 e23d d08b acbd eb04 85bc
000003a0: 9e01 a8ba f9ee 29be 12fe 85bd e36a 7cbe
000003b0: aee7 05be 3e7e 05be 9749 ac3b febf 8f3e
000003c0: 2f2e 053e d63a 47be f052 24bd 942f 0ebd
000003d0: 6a2a c23d 423f 383d b449 20be ea34 8abe
000003e0: b5bf 03bd 5d01 2cbd 9095 193d 6fc5 1bbe
000003f0: 6b69 45be bdd7 953e c9cf 49be 13a1 01be

sequential_1/dense_12/MatMul f4 [8, 16]
0.3366361 -0.24973321 -0.31093124 -0.33057156 -0.14202319 -0.22354257 -0.16161 -0.03743718
0.05972493 -0.42105523 0.12576938 0.030358113 0.38714468 0.22858298 -0.4550177 0.33215988
-0.31840208 0.10527621 0.3013771 -0.48882437 0.011888243 0.26239777 -0.22329697 -0.40783364
-0.20171529 -0.09351206 0.32368147 -0.031929534 0.3120476 -0.3591544 0.48331106 -0.11257696
-0.46600804 -0.028241625 -0.16624813 -0.067283146 0.16193962 0.18388307 0.28017282 0.27277324
-0.06618674 -0.523318 0.29452634 -0.40689778 0.4768895 0.4353373 0.39840794 0.09840822
0.43029425 0.14872074 0.16404477 0.06415092 -0.30826166 0.036641836 -0.116177216 0.28551352
0.18521376 0.34814662 -0.18196785 -0.21557567 -0.19502294 -0.28455165 -0.47401524 -0.25273
-0.40638256 -0.07846308 -0.4803022 -0.4617412 0.123012304 -0.44998443 0.13832438 -0.1155864
-0.3061434 0.13041532 -0.4083197 0.20435059 -0.22767842 -0.01544857 -0.0051101446 -0.1582824
0.11562905 -0.28542623 0.4498203 0.38578066 -0.06526663 0.33561134 0.2990142 -0.19883473
0.3369588 0.47094852 -0.49438596 -0.42679998 -0.20847291 -0.45100018 -0.15415394 -0.34233356
-0.023316555 -0.4932268 0.407719 0.23182553 0.2760329 0.48757672 -0.2834888 -0.49330544
0.51673675 0.19234651 -0.19734168 0.23461509 -0.45263073 0.33675754 -0.31745136 -0.13602579
-0.106787324 -0.19712901 -0.037581086 0.15747833 -0.4519813 0.07026327 0.24807644 0.0016434193
0.16833377 -0.222888 -0.49185193 0.056916595 0.044195294 -0.17166734 0.26738763 0.4140135
00000000: 915b ac3e 10ba 7fbe 6132 9fbe ad40 a9be
00000010: 876e 11be 58e8 64be 187d 25be ba57 19bd
00000020: 21a2 743d 8d94 d7be b0c9 003e 94b1 f83c
00000030: d437 c63e a811 6a3e 14f8 e8be dc10 aa3e
00000040: 9905 a3be 0e9b d73d 194e 9a3e 3047 fabe
00000050: e8c6 423c 0059 863e f6a7 64be 92cf d0be
00000060: 748e 4ebe 4083 bfbd 94b9 a53e 8bc8 02bd
00000070: b4c4 9f3e 16e3 b7be 8c74 f73e c08e e6bd
00000080: 9b98 eebe fb5a e7bc f33c 2abe bfcb 89bd
00000090: 80d3 253e d84b 3c3e d072 8f3e efa8 8b3e
000000a0: ea8c 87bd 2bf8 05bf 28cc 963e e854 d0be
000000b0: dc2a f43e 88e4 de3e 20fc cb3e 408a c93d
000000c0: 874f dc3e 404a 183e 5afb 273e 8f61 833d
000000d0: 79d4 9dbe c015 163d 52ee edbd d42e 923e
000000e0: ada8 3d3e 4640 b23e c855 3abe debf 5cbe
000000f0: 18b4 47be c1b0 91be 20b2 f2be d465 81be
00000100: 6011 d0be 40b1 a0bd 2cea f5be 5869 ecbe
00000110: e0ed fb3d 5c64 e6be e8a4 0d3e 90b8 ecbd
00000120: d4be 9cbe 988b 053e 480f d1be 4841 513e
00000130: 8824 69be 001c 7dbc 0073 a7bb c814 22be
00000140: ecce ec3d 6323 92be d94e e63e 0b85 c53e
00000150: 83aa 85bd 40d5 ab3e 6418 993e 559b 4bbe
00000160: dd85 ac3e 2a20 f13e 2820 fdbe 8785 dabe
00000170: ec79 55be 7fe9 e6be 88da 1dbe 5846 afbe
00000180: 5c02 bfbc 3988 fcbe 8bc0 d03e ac63 6d3e
00000190: 2f54 8d3e a8a3 f93e 7225 91be 8892 fcbe
000001a0: dc48 043f 7cf6 443e f013 4abe f03e 703e
000001b0: 37bf e7be 7c6b ac3e fc88 a2be 584a 0bbe
000001c0: 50b3 dabd 30dc 49be a0ee 19bd 0042 213e
000001d0: 186a e7be 30e6 8f3d c007 7e3e 0068 d73a
000001e0: b05f 2c3e c03c 64be 04d4 fbbe 6021 693d
000001f0: 2006 353d 90c9 2fbe 08e7 883e 94f9 d33e

sequential_1/dense_13/MatMul f4 [1, 8]
-0.59005237 -0.048177682 -0.4419174 0.7872132 0.070738435 -0.44528913 0.46250618 -0.46330586
00000000: ac0d 17bf f655 45bd ff42 e2be ce86 493f
00000010: 50df 903d f0fc e3be 9ccd ec3e 6d36 edbe
