app/src/main/assets/model7.tflite (tflite, 187728 bytes, 13 tensors)

sequential_7/dense_49/BiasAdd/ReadVariableOp f4 [256]
00000000: 2b07 6b3b 0000 0000 a578 893c 0000 0000
00000010: 76e1 9ebc 0000 0000 ddf0 a6bc 8cc4 c93c
00000020: d9e6 e23b 8e62 46bc 5f19 2dbc 0000 0000
00000030: 0000 0000 decf 723c 4029 a93c 8b0e b9bc
00000040: 22b8 173d da76 2abc dfe1 d73a 935a 9f3c
00000050: 9529 63bc 8b0c 18bc ed7d 93bc e8ec b43c
00000060: 271e 593c dbfe 8e3b 5978 0ebc 0000 0000
00000070: be5a b13c 471e a63c 5281 06ba 38a7 0d3b
00000080: f45f 993c b8fc afbc 0000 0000 024d 553c
00000090: 0000 0000 0000 0000 2e85 8a3c 18aa d53b
000000a0: 0000 0000 0000 0000 fb32 553c 75d5 59bc
000000b0: cfc3 3abc 61b7 6b3c 0000 0000 b1ad 023d
000000c0: 0000 0000 a032 913c 09d1 153d 815e cf3b
000000d0: 0000 0000 0000 0000 0000 0000 46e2 a3ba
000000e0: 0000 0000 6e88 8f3b 7ce4 d93c 7f9b 93bc
000000f0: 8ea6 103c 248f a7bc f8a2 1b3c 490c 8c3c
00000100: 3ade 563c 3a1d 303c 8791 81bb 27c0 493c
00000110: 3ac6 94bc 7285 393d 0000 0000 1dfb 9d3c
00000120: fc6c 0c3c 22ee 90bc 4490 213c 0000 0000
00000130: e774 ea3a a891 923c 0000 0000 0000 0000
00000140: 7e7c 903b 0000 0000 9148 ae3c 8041 843c
00000150: 5fe0 6fbc f3bf d4bb f93d e53c a174 c8bc
00000160: 75a5 783c 0000 0000 858f 82bc cb4c 5f3c
00000170: 8f33 6d3c 0000 0000 43e9 733b 355d 543c
00000180: 4b95 323d 602c 273b 6ac3 d53b 4e9d b33b
00000190: c846 9d3c 0d4f 803a bad8 0d3d 1768 b8bb
000001a0: 0000 0000 564b 873c 9d50 ad3c 61aa 563c
000001b0: 0000 0000 bf0f 8ebb 0ab3 33ba 0d96 2a3c
000001c0: 6a88 893c ae3b 9abc 9a76 e7bb 18e9 73bb
000001d0: b922 95bc 1a46 a63c 7557 03bc 23fd c4bc
000001e0: b18e 78bc 0000 0000 0000 0000 f7ac b53a
000001f0: 9275 193c 2c9a a1bc 121c ed3b e586 36bc
00000200: 69c8 053c 341b 483c 6853 9b3b 3c50 953b
00000210: 2962 003a 3652 7f3c 0000 0000 0000 0000
00000220: 468b 263c 1763 593b db49 12bc 0000 0000
00000230: 0000 0000 950f 38ba b04f 77bc 2596 47bc
00000240: b029 a63c e273 80bc 0000 0000 760d 813b
00000250: 0000 0000 66b2 ea3a a2b1 983c ccc9 993c
00000260: b9ff a73c 5639 4fbc 0000 0000 b26f 98bb
00000270: 2d4c c3bc 7c40 75bc ff15 853c 4ab9 2bbc
00000280: 7d86 c33b f536 863c 0000 0000 f753 c33b
00000290: 009a 27bc 0000 0000 88c3 7f3c d877 e9bb
000002a0: 0000 0000 027d b23c ec3b 54bc afaf d83b
000002b0: 0977 cb3c 66b3 b0bc 46a0 0b3c 1d65 aebc
000002c0: 4def 633c 19c6 c9bb 131a 86bc 92e9 553c
000002d0: c8ea d33b 81af fdbb 8e4c 023d 0000 0000
000002e0: 0000 0000 0000 0000 356d c23b 1f04 d93b
000002f0: e824 8bbc 80c2 4cbc 56bd 1abc 0000 0000
00000300: 0000 0000 2762 573c 0000 0000 8694 8cbb
00000310: 36a2 bc3c 0000 0000 e88e 4dbc 091d 193c
00000320: 28fb 41bc e86b dbbc 0000 0000 3daa a93c
00000330: c54e 3f3c 64e6 9a3c a43c 1d3c f119 98bc
00000340: 0000 0000 bf87 863c 8036 743c 0000 0000
00000350: c5bf 48bc bde5 063d fbbe c8ba 07dc 523c
00000360: 113e 543c 62dd 6dbb 17ca f43c 7d9c 783c
00000370: a6ce 3c3a 0000 0000 06e1 b13c b0a2 b8ba
00000380: e549 0cbc c13a ffb9 624f 2e3c f38b 91bb
00000390: 51b7 9bbc c6dc 993c 5238 6ebc 3011 57bc
000003a0: c8d0 15ba 1b27 2b3c eb79 b73c 98b8 29bc
000003b0: e144 35bc c903 ea3b df74 2fbc c3bd a5ba
000003c0: 4a0d 62bc c88c 4dbc 990a 5cbc 1443 8c3c
000003d0: 0000 0000 23d0 68bc cac1 ba3b 850f d9bb
000003e0: d018 f63c 0000 0000 c801 623c 0000 0000
000003f0: e255 10bc 2f9a 0039 bfca 98bc dd06 b9bc
0.0035862427 0.0 0.01678116 0.0 -0.019394618 0.0 -0.020378524 0.024629854
0.006924492 -0.012108458 -0.010565131 0.0 0.0 0.014820067 0.020649552 -0.022589942
0.037040837 -0.010404313 0.0016470513 0.019452369 -0.013864894 -0.009280334 -0.018004382 0.022085622
0.013251818 0.0043638772 -0.008695685 0.0 0.021649715 0.02027811 -0.00051309646 0.0021614563
0.018722512 -0.02148281 0.0 0.013018848 0.0 0.0 0.016909208 0.006520521
0.0 0.0 0.013012643 -0.013295521 -0.0113992235 0.014386983 0.0 0.031903926
0.0 0.017724335 0.036576305 0.0063284044 0.0 0.0 0.0 -0.0012503348
0.0 0.0043802774 0.026598208 -0.018018482 0.008828772 -0.020453997 0.009499304 0.017095702
0.013114506 0.010749156 -0.003954116 0.012313879 -0.018160928 0.04529328 0.0 0.01928478
0.008570906 -0.017691676 0.009861056 0.0 0.0017887623 0.01789172 0.0 0.0
0.004409372 0.0 0.021274837 0.016144514 -0.014640897 -0.0064926087 0.027983652 -0.024469675
0.015176167 0.0 -0.015937576 0.013629149 0.014477625 0.0 0.0037217892 0.012961675
0.043599408 0.0025508627 0.0065235393 0.0054813987 0.01919879 0.0009789184 0.034630515 -0.005627643
0.0 0.016515415 0.021156603 0.013102145 0.0 -0.004335373 -0.0006854987 0.010411751
0.01678868 -0.018827286 -0.007063699 -0.0037217792 -0.018205034 0.020297099 -0.008016457 -0.024046486
-0.015170739 0.0 0.0 0.0013860752 0.00936641 -0.019726835 0.0072360123 -0.01114056
0.008165457 0.012213517 0.0047401674 0.004556684 0.00048974395 0.015583565 0.0 0.0
0.010165041 0.0033170634 -0.008928741 0.0 0.0 -0.0007021365 -0.015094683 -0.012181793
0.02028355 -0.015680257 0.0 0.0039383722 0.0 0.001790595 0.01863939 0.018772982
0.02050768 -0.012647947 0.0 -0.004651987 -0.023840034 -0.014968988 0.01624584 -0.010481188
0.00596696 0.016383627 0.0 0.005960937 -0.010229588 0.0 0.015610583 -0.007124882
0.0 0.021788124 -0.01295374 0.00661274 0.024837034 -0.021569919 0.008522099 -0.021288449
0.013912034 -0.0061576483 -0.016369855 0.013056176 0.006467197 -0.007741869 0.03181129 0.0
0.0 0.0 0.0059334286 0.0066228057 -0.016985372 -0.012497544 -0.009444555 0.0
0.0 0.01314596 0.0 -0.0042901663 0.023026567 0.0 -0.012546279 0.009345301
-0.0118396655 -0.026784852 0.0 0.020711059 0.011676495 0.018908687 0.009596977 -0.018567057
0.0 0.01642215 0.014905572 0.0 -0.012252753 0.03293394 -0.0015315706 0.012869841
0.012954251 -0.0036295285 0.02988152 0.015174028 0.0007202424 0.0 0.021713745 -0.0014086571
-0.00856254 -0.00048681165 0.0106390435 -0.004441732 -0.01900831 0.01878203 -0.014539795 -0.013126656
-0.000571501 0.010446335 0.022397002 -0.010358952 -0.011063785 0.0071415645 -0.010709017 -0.0012645054
-0.013797114 -0.012545772 -0.013430261 0.01712183 0.0 -0.01420978 0.005699371 -0.0066241645
0.030041128 0.0 0.01379437 0.0 -0.008809539 0.00012264469 -0.018651364 -0.02258628

sequential_7/dense_50/BiasAdd/ReadVariableOp f4 [128]
00000000: 43eb c0bb e1d7 9f3c 0000 0000 0000 0000
00000010: cf73 6a3c f6f3 e33c cef9 bf3b 0000 0000
00000020: a1f4 0c3c 22a2 b43c 94cd 453b 1e73 913b
00000030: 4740 69bc 2520 8a3c 7fa6 9fbc 022f af3c
00000040: ddaf 973c cc08 6abc 5a45 89bc 23b9 af3c
00000050: 0baf 823c 0000 0000 df0e 85bb 7bd7 4ebb
00000060: f3c0 bb3c a458 173c adb8 683b 2821 bbbc
00000070: a399 bfbb 763c e4ba bd0e 993c 59ae 29bc
00000080: 881e 60bc fad2 ac3c 1551 8f3b 0000 0000
00000090: b713 a6bc 680d 963c 42d2 53bc 3a3c 98bb
000000a0: 0000 0000 89c3 5ebc a4f5 bd3b 2d09 d0bb
000000b0: 492e 913c 0000 0000 831d 7abb 1773 4bbb
000000c0: 0163 9b3c 0000 0000 0000 0000 0000 0000
000000d0: 0000 0000 0000 0000 df19 873b 21ba 9cba
000000e0: a6f2 67bc 0000 0000 0000 0000 4928 36bb
000000f0: 462a 38bc 45a7 b03c 78b9 1dbc 1d2d 59bc
00000100: 0000 0000 3c15 e23c 0a23 b5bb e323 8e3c
00000110: e510 993c b85b 34bc d6f2 a2bc e820 24ba
00000120: 93c3 6a3c 972a 0cbc 2ce0 353c 88e6 cbbb
00000130: abbd 403b 0000 0000 0000 0000 0ae7 77bb
00000140: 2a61 59bb ef33 faba 0000 0000 b522 8ebb
00000150: 4639 33bc 3fab 6b3c 0000 0000 2ad3 15bc
00000160: 009e a63c 4782 06ba d89e 43bc 99e4 5a3c
00000170: 0000 0000 88d8 2fbb 0000 0000 a421 043c
00000180: 32c3 823b 0000 0000 0000 0000 0000 0000
00000190: 3bbe f0ba 0000 0000 d6ba 6d3c 0000 0000
000001a0: 0000 0000 bb8b 843c 9cca fdba bd20 a43c
000001b0: 32d4 46ba 0000 0000 0000 0000 0000 0000
000001c0: 7e54 b63b 0d9e b43c d4fe ab3c 0000 0000
000001d0: 0000 0000 b50a 5f3c bb47 5c3b fb62 60bc
000001e0: 83bd b3bc 35d0 ac3b 0000 0000 d103 44bc
000001f0: f48f 39bc 6b33 21bc 0000 0000 0000 0000
-0.0058874204 0.019512119 0.0 0.0 0.0143098375 0.02782629 0.0058586365 0.0
0.008603246 0.022049967 0.0030182349 0.004438772 -0.014236516 0.01686103 -0.019488571 0.02138472
0.018516475 -0.014284324 -0.016756702 0.021450585 0.015952608 0.0 -0.0040606107 -0.0031561542
0.022919154 0.009237442 0.0035510466 -0.022842959 -0.0058471723 -0.0017413038 0.018683786 -0.010356509
-0.013679154 0.021096695 0.0043736794 0.0 -0.020273073 0.01831694 -0.012928547 -0.0046458514
0.0 -0.013596424 0.005797105 -0.00634875 0.017722266 0.0 -0.0038164563 -0.003104394
0.018968107 0.0 0.0 0.0 0.0 0.0 0.004122957 -0.0011957326
-0.014156973 0.0 0.0 -0.0027795008 -0.0112405475 0.021564135 -0.009626739 -0.013255385
0.0 0.027598016 -0.0055278586 0.017351096 0.018684814 -0.011008196 -0.019891184 -0.0006261007
0.014328855 -0.008555076 0.01110081 -0.00622255 0.0029409926 0.0 0.0 -0.003782692
-0.0033169487 -0.0019088964 0.0 -0.0043376335 -0.010938948 0.01438409 0.0 -0.009144584
0.020339012 -0.0005131107 -0.011939727 0.013360166 0.0 -0.0026831944 0.0 0.008064661
0.0039905543 0.0 0.0 0.0 -0.001836724 0.0 0.014509877 0.0
0.0 0.01617991 -0.001936275 0.020035142 -0.000758472 0.0 0.0 0.0
0.0055642715 0.02204802 0.020995535 0.0 0.0 0.013613393 0.003361209 -0.013695474
-0.021940952 0.0052738436 0.0 -0.0119638005 -0.011325825 -0.009838919 0.0 0.0

sequential_7/dense_51/BiasAdd/ReadVariableOp f4 [64]
00000000: 0000 0000 d88a 813c 230a e93b 52e3 7f3c
00000010: 277f 923c af3f 90ba 59bd a13c 092d 903c
00000020: a1bb 153b 6fce 693c 4a87 d73c 0000 0000
00000030: d00b 29bb 30b3 e0bb ab69 ca39 e6bc a2ba
00000040: 66fd 833c 0000 0000 5df0 a53c 4c24 88bc
00000050: 0000 0000 9ac8 d6ba 4c2b ce3c 0000 0000
00000060: 0000 0000 ada7 5d3b 3283 ee3b c9df 5cbc
00000070: 8894 813c 0000 0000 425b 903c c8a6 2bbb
00000080: d633 0ebc 4e2a 6d3c 98e9 8e3a c96e 8dbc
00000090: fee1 9d3c cc96 88bb e764 8abc 0000 0000
000000a0: 0e9a ad3c 7416 6b3c 093c 12bc 5e4d 22bb
000000b0: 3565 283b 21e1 073c d703 3cbc 2172 943c
000000c0: 5907 c7bc 0000 0000 0000 0000 0000 0000
000000d0: 4787 84bc d7df f739 6b7d 8c3c 0000 0000
000000e0: f745 0e3c 925d 0e3c c018 7fbc 295c 3cbc
000000f0: 98f3 76b8 0441 a0bc a0f3 a33c 4579 b4bb
0.0 0.015813276 0.007111804 0.015618162 0.017882897 -0.0011005307 0.019743608 0.0175996
0.0022847431 0.014270409 0.026309628 0.0 -0.0025794394 -0.0068572983 0.0003860717 -0.0012415915
0.01611204 0.0 0.020256216 -0.01661887 0.0 -0.0016386688 0.02516713 0.0
0.0 0.0033821866 0.0072788233 -0.013481089 0.015817896 0.0 0.01762164 -0.0026191939
-0.008679351 0.014475418 0.0010903357 -0.01726474 0.0192728 -0.004168367 -0.016893817 0.0
0.021191623 0.014348615 -0.008925446 -0.0024765353 0.002569509 0.008293421 -0.011475525 0.018120827
-0.024295496 0.0 0.0 0.0 -0.016177787 0.00047278285 0.017149648 0.0
0.008683673 0.008689301 -0.015569866 -0.011496582 -5.8877835e-05 -0.019562252 0.02001363 -0.0055076205

sequential_7/dense_52/BiasAdd/ReadVariableOp f4 [32]
00000000: 0000 0000 1210 433c 842c a33b 7e83 913c
00000010: 8ce7 acbc 76ba 08bc 6260 2bbb 9e47 e33b
00000020: 166a 39bc cd62 863c 1c5b 16ba 0ce8 0ebc
00000030: a4ab 9d3c 952f 23bc 0000 0000 c281 133c
00000040: 84be 1abc e7a0 5ebc 9f90 22bb f8ae 953c
00000050: b3c2 87bc 8167 853c caa4 7fbb 8e24 883c
00000060: c83d 92bc 0000 0000 e58b 23bc 0c3b 943c
00000070: db41 9abb 8453 c5bc 0000 0000 1eae a03c
0.0 0.011905687 0.004979672 0.017762896 -0.021106504 -0.008345237 -0.0026149978 0.0069360277
-0.011316797 0.016404534 -0.0005735622 -0.0087223165 0.019246884 -0.009960075 0.0 0.009003105
-0.0094448365 -0.013588167 -0.002480544 0.018271908 -0.016572332 0.016284706 -0.0039008134 0.016618993
-0.017851725 0.0 -0.009982084 0.018094562 -0.0047075576 -0.024087675 0.0 0.019614276

sequential_7/dense_53/BiasAdd/ReadVariableOp f4 [16]
00000000: 0000 0000 e84b a03c 0000 0000 4f8b adbc
00000010: d8aa a03c 5a52 95bc a8e8 953c 2547 7bbc
00000020: 4a0f 8b3c 0e52 54bc 71ce 823b 9624 4d3a
00000030: 0000 0000 27b1 363c 2254 4abc 0000 0000
0.0 0.019567445 0.0 -0.021184592 0.019612715 -0.018227745 0.018299416 -0.015336786
0.016975064 -0.0129590165 0.003991895 0.0007825581 0.0 0.011150635 -0.01234916 0.0

sequential_7/dense_54/BiasAdd/ReadVariableOp f4 [8]
00000000: 1927 bc3c de17 aebb c95c 913c 35c9 913c
00000010: 0000 0000 f9f7 a0bc 946b c3bb 9357 98bc
0.022967862 -0.005312904 0.017744439 0.017796138 0.0 -0.019649493 -0.005963752 -0.018596446

sequential_7/dense_49/MatMul f4 [256, 8]
00000000: 84de 3bbd 4788 f03b 8abf 13bd ed56 c73d
00000010: 891b 783d 43a4 973d 1db6 bfbd f1b5 28be
00000020: 0841 bc3c 6fe8 17be 82ef ecbd 8cbc 043e
00000030: 1a24 983d 5b4c 17be b396 0abe 7e0d 0a3e
00000040: eb9d d33d f7b1 bf3d e764 c9bd 91bd 1f3d
00000050: 641e 71bd 9576 3cbd 3b5f 533e 691c b13d
00000060: f8b8 d8bd 6989 11be 283d 4cbd 743b 793d
00000070: a56b 12be 10c9 8bbd 4c6c b33d 00ac ac3a
00000080: 37c9 e33d 31ae ee3d 1eeb 063c 029a 873d
00000090: 6d05 abbd b12f 0abe d94c 8f3c 37dc 403d
000000a0: a80d ffbd 94c9 2bbd 60fb debb d8f4 203d
000000b0: 3f30 a5bd a694 c83d 9587 09be 80ec 9e3c
000000c0: 824c 8bbd ccf0 043e ee05 043e a222 ebbd
000000d0: de3c 1a3d dfed 12be b598 d0bd 8486 97bc
000000e0: d5e4 5c3d 0828 a83c 7c9f 643c 70a7 ff3d
000000f0: a209 1f3d d031 f63d eec4 18be 9cb6 6bbd
00000100: 965b 59be e680 483a a118 04be acdb e73d
00000110: 87cd b03d e3f7 bb3d 1477 473e b085 e93d
00000120: be3d cbbd 019e 9abc a31b 0d3e 2621 d43d
00000130: 02e6 223d f1b2 973d 81e9 383d 6f84 013e
00000140: af04 a2bd 2eeb e4bd 7ab8 513c 4587 893d
00000150: 7321 083e 7915 003e 0a6b 093e e83c 843d
00000160: 803c 3dbb 219f 9cbd 3c1b 673d be7d 13bd
00000170: 50b7 29bc 00d9 8a3d 6c25 bdbd 609f b63c
00000180: 9e53 55bd 10b1 02bc 758f a8bd 009f f03a
00000190: de6c 163e 3644 ffbd 9067 e83d 6865 65bd
000001a0: ec8c 49be ebe0 40bc ed1d 09bd 53a6 b83d
000001b0: 0011 ecbb 13dc 9abd 9aaf 74bd adb9 45be
000001c0: 06d2 67ba 8567 0c3e 072c 363d 3f37 033e
000001d0: e97e d43c 0a0c d5bd b4c4 2d3d 1660 0fbe
000001e0: ce03 e0bd 6f91 db3d 46ed 81bd d21d 94bd
000001f0: 199c 0fbe 375c c23d 628d 86bc 0f42 a13d
00000200: eada b83d 13e2 f3bd 4792 bc3d 8947 ce3d
00000210: 65f6 e63d e633 4e3e 4212 4e3c 7be5 92bd
00000220: 7f46 683d 3036 a83d 8f32 933d 1629 01be
00000230: accf 323c 03d2 9b3c 1119 c2bd dfb3 573e
00000240: 070a 233e 39d4 fa3d 1160 3a3c 8707 7bbd
00000250: 108a 23be 95e9 973d 782f 533b fb81 1e3d
00000260: 47e6 0cbe 038e 9c3d c1a8 05be 3557 163e
00000270: 6d1a 633d 3013 4cbd 5155 4e3e c1ca afbc
00000280: c15c 27bc be95 7d3d 0f0a d93d 0223 e4bd
00000290: 24d8 eebd c5dd 503e f9af 59bd b476 f4bd
000002a0: 9e3b 1a3e 7e92 ae3d 34a8 bf3c 942d 8cbd
000002b0: 0910 84bd 2cca a5bd 3941 65be 6949 323e
000002c0: f5cd 863d 4f1c a83c a91e 1fbe 404d bfbc
000002d0: 94e2 f63c 3d94 7d3d cefa 233e e50e 933a
000002e0: c3ae 1fbd 21f2 2e3c 8073 2e3a 4716 c93b
000002f0: ff95 f93d 7287 75bd 5e04 0f3e 9305 0dbe
00000300: 7f52 13be 3a5c 103e 62d1 b83c 0c5e 51bd
00000310: 15c4 3cbd 505a c43d d982 f7bc e439 4dbc
00000320: 0895 04be b95c 203d 317a b63d 9caa 973d
00000330: b088 1e3d 5c8a 6abc 2eb4 213d ef11 e5bc
00000340: aee1 d43c 5837 42bd 92c3 e0bd 6794 963d
00000350: c2e6 89bc eb3f 9ebd 0b1e 743e b873 5abd
00000360: 583b adbd 462e 8bbd 0366 93bd 56de c4bd
00000370: 186c 40bd 7bf9 97bd a008 50bd 045e fb3d
00000380: 8c6c 42ba 3ea5 9f3d adf6 b9bd 34f6 a7bc
00000390: a81c 0d3e a1f6 84bd da7f 23bc a98d 47be
000003a0: a910 483d ace8 3f3d 30ab 103d 16e9 f33d
000003b0: c641 91bc 8ab5 26bb f5af 7abd 5912 54bd
000003c0: 2d74 3c3d d5fa 09be 9351 0fbd 7960 8f3d
000003d0: 42d5 8d3d cc66 b43d 8886 9ebc 8e02 1fbd
000003e0: 1f49 8a3d 2def 13be 4190 68bd 0157 1ebb
000003f0: 6663 cf3d fca6 fdbc a0f7 14bc 04c8 efbc
-0.045866504 0.0073404643 -0.036071338 0.09733377 0.060573135 0.07404377 -0.09360907 -0.16475655
0.022980228 -0.1483476 -0.1156912 0.1296255 0.07428761 -0.14775221 -0.1353405 0.1348171
0.10332855 0.09360116 -0.09833699 0.038999144 -0.058866873 -0.046011526 0.20641796 0.08647997
-0.10582155 -0.14212574 -0.04986301 0.060847715 -0.14298876 -0.06825459 0.0876089 0.0013173819
0.11122363 0.11654318 0.008234767 0.066211715 -0.08350644 -0.13494755 0.017492699 0.047085013
-0.124537766 -0.041940287 -0.0068048686 0.039296 -0.08065843 0.097939774 -0.13430627 0.019399881
-0.06801702 0.12982482 0.12892887 -0.11481215 0.037655704 -0.14348553 -0.101853766 -0.01849676
0.05392917 0.0205269 0.01395404 0.12483108 0.038827546 0.1202122 -0.14918873 -0.057547197
-0.21226344 0.0007648602 -0.1290002 0.11321196 0.08632951 0.0917814 0.19479018 0.11402452
-0.09923886 -0.01887417 0.13780074 0.10357885 0.039770134 0.07407177 0.04514456 0.12648176
-0.079110496 -0.111776695 0.01280033 0.06715254 0.1329401 0.12508191 0.13419738 0.064569294
-0.0028875172 -0.07647539 0.056422457 -0.03600859 -0.0103586465 0.06779671 -0.09235653 0.022292793
-0.052081697 -0.007976785 -0.08230487 0.0018357933 0.14689967 -0.12464182 0.11347878 -0.05600491
-0.19682664 -0.011772375 -0.033475805 0.09016099 -0.007204175 -0.07561507 -0.05973778 -0.19309111
-0.00088432466 0.13711365 0.04447558 0.12814043 0.025939422 -0.10402687 0.04242392 -0.14001498
-0.10938226 0.10721099 -0.063440844 -0.0723225 -0.1402439 0.09490245 -0.016424838 0.07873928
0.090261295 -0.119083546 0.09207588 0.10072238 0.11277465 0.20136985 0.012577595 -0.07172676
0.056707855 0.082134604 0.07187378 -0.1261333 0.010913771 0.01902104 -0.09477437 0.21064709
0.15921794 0.122475095 0.011375443 -0.061286476 -0.15970635 0.07417599 0.0032224339 0.038698178
-0.13759719 0.07644274 -0.13052656 0.14681704 0.055445123 -0.049822986 0.20149733 -0.021458985
-0.010214985 0.061910383 0.10597622 -0.1113949 -0.11662319 0.20397098 -0.053146336 -0.11936703
0.15061805 0.08524035 0.023395635 -0.06844631 -0.06448371 -0.08095202 -0.22388162 0.17410816
0.06582252 0.020521311 -0.1553904 -0.023352265 0.030137338 0.06190895 0.16013643 0.0011219649
-0.038985025 0.010677845 0.0006654784 0.006136689 0.121868126 -0.059943624 0.1396651 -0.13771658
-0.14386939 0.14097682 0.022560779 -0.05111508 -0.046085436 0.09587538 -0.03021376 -0.012526009
-0.12947476 0.039150927 0.08910025 0.07405588 0.038704574 -0.014315214 0.039478473 -0.027962653
0.025986519 -0.04741606 -0.10974802 0.07352524 -0.016833667 -0.07727035 0.23839585 -0.053333014
-0.084585845 -0.06795935 -0.071971916 -0.0961272 -0.046978086 -0.074206315 -0.050789475 0.122737914
-0.00074166874 0.07795189 -0.09080253 -0.020503141 0.13780463 -0.06492353 -0.009979213 -0.19487633
0.048844013 0.046852753 0.035319507 0.11909692 -0.017731559 -0.0025437796 -0.061202962 -0.05177531
0.04600923 -0.13474591 -0.034989905 0.070008226 0.06925441 0.088086694 -0.019351259 -0.038820796
0.06752228 -0.14446707 -0.056778196 -0.0024160745 0.101263806 -0.030963413 -0.0090922415 -0.02927018

sequential_7/dense_50/MatMul f4 [128, 256]
00000000: ebb4 f43d 745f 933d 7ece 84bc 6045 edbd
00000010: 2eef c23d e095 74bc 853a 99bc f970 853d
00000020: e096 753c b4d1 933c b0a7 74bd 00aa 4a3b
00000030: a031 ee3d cd0d 00bc a7ed b53d 16fa 8f3d
00000040: fd4f 5f3d 2fb4 5eba eab9 bdbd 32cf e2bd
00000050: c3fd ee3d b27f 41bd af32 803d 5218 0a3e
00000060: 64e5 f4bd 3936 773d 8f38 13bc c872 463d
00000070: a75c ca3d 7fc7 8b3c 00af 8d3b 70c5 543d
00000080: e77a 7fbd ec10 4f3c 4030 9ebd 4c89 3dbc
00000090: 80b1 7cbd 801d fdbb cca8 a0bd 95b9 1e3a
000000a0: 5cdc d9bd 6832 473d 884e 8e3d 14da 023d
000000b0: 3517 023e ecbd 1c3d 0007 edbd 451d 1dbd
000000c0: b457 e13d 860f f63d 9de6 863d 45e3 8dbd
000000d0: cc2a c33d 00c1 313d e8d3 693d 0350 5d3d
000000e0: 2874 543d 15e0 67bb 1c60 a1bd 607d c4bd
000000f0: 0f10 89bd 4dca 6fbd 5a95 4bbd 83c9 f9bd
00000100: c0d2 ae3d e01a aebd 16d0 ecbd e62f b4bd
00000110: 6755 b93d 8b7a 813d 1082 dc3d 9908 10bd
00000120: 21f4 ff3c abab 6ebb c406 32bc 9865 9cbd
00000130: 7de2 c13d d406 d2bd 20e3 0f3d 78b5 aabd
00000140: 1fa7 1abd 589d 93bd d453 c1bd 35c4 a93d
00000150: 4188 85bd 8c0d febd 56c0 87bd eb89 b43d
00000160: 7d2d b8bc 800d e73b 5cf9 353d 79dd 87bd
00000170: 14f8 57bd c8e8 283d 9304 8d3d e86c debb
00000180: cf9b b83d 2476 1fbe b45f 043d 3279 a2bd
00000190: 691a b53b cd5b debd 17fc 92bd caed d9bd
000001a0: c8c5 83bd 1676 cc3d 2f9b 93bd 47ec f93d
000001b0: 00a2 a7bb 9722 213d c99e 113d 4bbd 9c3d
000001c0: 1745 f5bd 70b4 e1bc 63d4 7cbc cff9 653d
000001d0: db54 c33c 2ddd fdbd 0750 133d ba63 2c3e
000001e0: 5d6e 5abd 809f 09bd 9863 53bd 97c0 5a3d
000001f0: 4431 be3d 9197 05bd 7121 9b3d 5697 90bd
00000200: 77c6 82bd bc72 efbd 077e 5ebb d5eb dfbb
00000210: 2b95 ffbd 5380 623d e0f5 c6bc 605c 613d
00000220: 5194 20bd cf3f e6bc 37d4 40bb 00e7 d13d
00000230: f809 05bd b0ca 1f3e c1da 37bd bb52 84bd
00000240: c3c1 5fbd a08e efbc e003 c8bd c08d e33c
00000250: 609c fd3d 82e8 e43d 2be0 d93d f6d6 b13d
00000260: 365a e1bd b341 de3d f4e1 d8bd 35f6 9abd
00000270: 3f31 b73d 69d4 b13d db07 263d cfb3 ea3d
00000280: 677b 313d 932b 6c3d 88ff a93d 17cf e4bd
00000290: 29a7 5f3d 00ed d1bd b68c edbd d7fb 8fbc
000002a0: c00b 7bbc f71d 0ebd 356f 5f3b f330 26bd
000002b0: 1d9d a2bd 2fe8 febd a9b4 82bb 699e d4bc
000002c0: 218c d73d 42bf 75bd 5073 b13c a633 bfbd
000002d0: f08e 2b3d 7438 c43d e4a0 8abd a8ae a83d
000002e0: a0c2 223c 70be dbbd d7e4 2dba c0d7 b1bc
000002f0: 8d9b b13c d50f bdbd 248d 84bc e880 6c3d
00000300: 0075 243c bcd1 e83d a070 843c 0e37 d1bc
00000310: 119b e73d 008b fbbc 1154 5b3d 2fbe d23d
00000320: b42d 083e 6f4a a33d 006b ef3c 9311 c3bd
00000330: 0f8b 2bbd 70c0 f53c f7a4 17bd 8653 8f3d
00000340: a097 e63d ddd1 aabd 5900 e7bc 709a eabc
00000350: 064d bb3d fb2d 29bd e014 833d eb3b cfbd
00000360: 0c05 e13c fc7d 393b 1e42 923b f588 df3c
00000370: f5ad b43d 806b 563d e21e bfbd 0960 f2ba
00000380: 139c dbbd b550 a5bd f9d1 033d d49f b9bd
00000390: e614 09bd 03bd c43d d768 043e ce17 78bd
000003a0: 733a 973c d49e f63c 7ea0 633c b712 7a3d
000003b0: 8263 773d b9ec f03d 0b89 d33c 7081 8a3d
000003c0: 2d79 fd3d a6c8 91bb 89bb 463d 823e 1a3d
000003d0: 9c34 bbbd a5f1 dfbd 7e59 02be 88af 923d
000003e0: 1f6d 073d 000d 343d 22f4 aebd f482 a53d
000003f0: ad41 803c 9fc5 cb3d ed3a 4c3d 6320 f5bd
0.1194857 0.071959406 -0.016211744 -0.11585498 0.09518276 -0.014928311 -0.018704662 0.065156884
0.014989585 0.01804433 -0.05973023 0.0030924082 0.11630559 -0.00781579 0.08883219 0.07030122
0.054519642 -0.00084954774 -0.09263976 -0.110746756 0.11669495 -0.04724092 0.06259667 0.1348584
-0.11957815 0.060354445 -0.008985653 0.048449308 0.09880953 0.0170629 0.00432384 0.051946104
-0.06237307 0.012638312 -0.07724047 -0.011568379 -0.061692715 -0.007724464 -0.078446954 0.00060548756
-0.10637733 0.048632056 0.069485724 0.031946257 0.12704165 0.03826706 -0.11573601 -0.03835799
0.11003056 0.120146796 0.06586955 -0.06928114 0.09529647 0.04339695 0.057086855 0.054031383
0.051868588 -0.0035381366 -0.078796595 -0.09594226 -0.06692516 -0.05854254 -0.04970298 -0.121966384
0.08536291 -0.0850122 -0.11563127 -0.087981984 0.09049492 0.06322201 0.10766995 -0.03516445
0.03124434 -0.003641824 -0.010865871 -0.07636565 0.09467027 -0.102552086 0.035128713 -0.08335394
-0.037757035 -0.07207745 -0.09439817 0.08289377 -0.06520129 -0.124049276 -0.06628482 0.08815368
-0.022482628 0.00705117 0.04442726 -0.066340394 -0.05272682 0.041237622 0.06885638 -0.006787885
0.09014093 -0.15572411 0.032317832 -0.079332724 0.00552683 -0.10857353 -0.071769886 -0.10641058
-0.06434208 0.099834606 -0.07207333 0.122032695 -0.0051157475 0.039339628 0.03555182 0.07653292
-0.119760685 -0.02755186 -0.015431496 0.05614644 0.023844173 -0.123957016 0.035964992 0.16834918
-0.053327907 -0.033599377 -0.051608652 0.053406324 0.092867404 -0.032615248 0.07574738 -0.07060115
-0.063855104 -0.11691806 -0.003394963 -0.0068335333 -0.124796234 0.05529816 -0.024287164 0.055019736
-0.039203946 -0.028106598 -0.0029423365 0.10249138 -0.03248021 0.15604663 -0.044886354 -0.06461092
-0.054628145 -0.029242814 -0.09766364 0.027777553 0.12383342 0.1117716 0.1063846 0.08683579
-0.110035345 0.10852375 -0.10589972 -0.075664915 0.0894494 0.08683092 0.040534835 0.11460077
0.043330576 0.057658743 0.08300692 -0.11172312 0.054602776 -0.10250282 -0.11599104 -0.017576141
-0.015322626 -0.034696545 0.0034093384 -0.040574025 -0.07940123 -0.12446629 -0.0039888215 -0.025954442
0.10524774 -0.05999685 0.02166143 -0.09336023 0.041884363 0.0958108 -0.06768969 0.08236438
0.0099340975 -0.107296824 -0.0006633526 -0.021709323 0.021680618 -0.09231535 -0.016180582 0.057740122
0.010037661 0.11368129 0.016166985 -0.025538947 0.113088734 -0.030705929 0.05354697 0.10290181
0.13298684 0.079731815 0.029225826 -0.095248364 -0.041880663 0.029998988 -0.037022557 0.06998353
0.11259389 -0.083408095 -0.028198408 -0.028638095 0.091455504 -0.041303616 0.06400466 -0.1011885
0.027468227 0.0028303852 0.004463448 0.027286986 0.08822242 0.052348614 -0.09332062 -0.0018491755
-0.10723128 -0.08072034 0.032182667 -0.09063688 -0.033467196 0.096063636 0.12930618 -0.060569577
0.018460488 0.030105032 0.013893245 0.061053004 0.060397632 0.11763901 0.025822183 0.067629695
0.12376628 -0.004448968 0.04851869 0.03765727 -0.09140894 -0.10934762 -0.12729451 0.07162386
0.03306305 0.04395771 -0.085426584 0.08081618 0.015656317 0.099498026 0.049860884 -0.11969068

sequential_7/dense_51/MatMul f4 [64, 128]
00000000: 8684 27be e870 e9bd bd9c 003e a27f 983d
00000010: b4af 543d ee74 e93d 4002 0cbe 7a24 dc3d
00000020: d1b1 13be 2259 cf3d 48f6 903c e061 a03c
00000030: 8082 753b 54c5 18bd 5051 353c 94b6 0dbe
00000040: 60e1 93bb 6039 753d 6853 21bd a715 dbbd
00000050: e5ca 8bbd dc4f 673d 5ca5 053d b8e2 0cbe
00000060: 3da0 0f3e 1b30 2d3e 4a20 14be 937e 0d3e
00000070: ba82 9f3d a357 0f3e 9ef8 06be 283d 953d
00000080: 00e1 43bd a025 7cbc 26db 15be c539 0d3e
00000090: 7360 0ebe 40e9 56bb fa62 ac3d 0022 14bd
000000a0: 9c41 1a3d 780c 81bc 26a2 ad3d ca5c a03d
000000b0: 2093 2dbc 3d73 2a3e 3ca4 283d 78e9 ce3c
000000c0: 0df8 8dbd 936c 0dbe c4c2 743d b0ce b13c
000000d0: e482 34bd 4045 ecbd 8031 9cba a4af 3ebd
000000e0: 404c 8cbd 00e2 58bb 9778 8abd 26ee af3d
000000f0: 5cf8 473d 00eb 603d 8fd1 c8bd 103f 5a3d
00000100: 56c8 0ebe e892 013d b88d e1bc 1c3c bcbd
00000110: caf6 cd3d 36d8 6dbd 40da ff3c ed08 053e
00000120: be8b a4bd cda6 1d3e 0017 d53c 7872 093d
00000130: 16c4 2dbe 8f81 06be 3954 89bd 7ffe 2cbe
00000140: 97e0 2f3e 1b26 093e cc0b 45bd f7f1 1b3e
00000150: 28b1 593d 2617 a6bd 6081 1d3c 0f5b babd
00000160: 0026 99ba 1bdc 033e 1970 2fbe f7ef 8dbd
00000170: b370 023e ce81 01be 25e5 2f3e e999 30be
00000180: c0ce 723c dc15 07bd dc73 6e3d a0e7 8dbb
00000190: ae2e 00be 0082 eebb a851 f3bc 905f 0cbe
000001a0: 943a 873d b38a 0e3e e8e0 fabc ce16 a8bd
000001b0: 2231 f23d 040b 09bd 7e58 ca3d 5660 b2bd
000001c0: e984 2b3e e0e4 96bc e6b4 983d 3039 983c
000001d0: 421e 23be 1ef4 803d 135b 2cbe 9dfc dfbd
000001e0: 3811 a53c 5e4f c23d 7908 033e 197d 183e
000001f0: 93d3 1dbe d851 3abd c000 063d e296 b13d
00000200: d298 ea3c 06dd a7bd 76e0 f93d 1054 6c3d
00000210: 1844 f73d e744 4b3d b114 f9bd 80e6 36bb
00000220: 2c70 193c 935a 273d 719d ec3d 30e3 f7bd
00000230: 8596 e73d d579 f6bc 5928 25be d7b5 18bd
00000240: 30eb 05bb b02b c03d 3561 363e 265f 1dbe
00000250: 7ec6 1ebe fa36 b9bd c869 bb3c 67c6 9e3c
00000260: 4564 23be 540b 1c3e a218 033e dca0 bd3b
00000270: d1de 6ebd 540a 24be bb53 9abd fa3d b3bd
00000280: 1d64 8cbd 581c b33d 14ba aabd 5629 b2bd
00000290: d271 f5bd c08c 83bc fb64 323e 1c59 903d
000002a0: 2ca9 22bd e6b2 ccbd e98d ca3c 7a74 613d
000002b0: f92d d03d 2566 ddbd 6938 fd3d b669 fa3d
000002c0: ed25 233e d05a 9dbd 6e23 14be f2b6 cd3d
000002d0: 24f0 543d d3d5 bbbd 0e9b e4bc 284e 003e
000002e0: 2089 cb3d d913 183e 1f38 a9bd 4991 98bd
000002f0: d094 ccbd 7421 193e c945 203e 6f4d 69bd
00000300: 80f5 193b 1e8a 53bd 2c95 d23d 728d 383d
00000310: 5983 f83c 01db 08be 21de d9bd edcc be3d
00000320: 33ec 29bc f50d eabd 5ff4 4dbd 6ca2 d13d
00000330: 29a4 023c 199c 323e 8504 263e 048c 34bc
00000340: a8d0 083c 243d be3d f600 d9bd f5a1 013e
00000350: 7e41 1dbd 7d34 a43d 2583 313e e280 98bd
00000360: a0bd 483d cbcb 1bbe f4ea 9d3d 7ca0 06be
00000370: faf6 c63d a57a 8d3d 4aed 22be a85a 343d
00000380: a2a8 8cbd 4ecc 10be a734 073e dd0a 30be
00000390: 18a1 04bc 90c5 1dbc 18f8 0bbe 033e 1f3e
000003a0: e836 813c 9a3c e33d 88a4 083d e113 04be
000003b0: 3232 d6bd 3c28 2cbd bb59 d8bd a248 63bd
000003c0: 61a4 e63d 99ca fd3d a94c 0cbe a570 153e
000003d0: 48c0 473d 2bbc e93b eae8 c03d 1fa1 a8ba
000003e0: 857b e7bd bdf6 0abe 5b60 ddbd c9e0 623d
000003f0: ea59 edbc 4e5d 85bd 7409 28bd 32b5 8f3d
-0.16359147 -0.11398488 0.12559791 0.07446219 0.051925376 0.11399256 -0.13672733 0.10749145
-0.144233 0.101244226 0.017695561 0.01957792 0.0037461817 -0.03729756 0.01106675 -0.1383918
-0.004512951 0.05986917 -0.039386183 -0.10697489 -0.068258084 0.056472644 0.032628402 -0.13758361
0.1402597 0.16912882 -0.14465442 0.13817815 0.07788606 0.13998275 -0.13180777 0.07287055
-0.047822 -0.01538983 -0.1463438 0.13791569 -0.1390398 -0.0032792836 0.08417316 -0.036165237
0.037660226 -0.015753016 0.08478193 0.07830198 -0.010594159 0.16645522 0.04117225 0.025257811
-0.069320776 -0.13810949 0.059756055 0.021705002 -0.04407014 -0.11536646 -0.0011916608 -0.046554223
-0.06850481 -0.003309369 -0.06761282 0.08590345 0.04882084 0.054911613 -0.09805595 0.053282797
-0.1394361 0.03163424 -0.027533397 -0.091911525 0.10056837 -0.058067523 0.031232 0.12991686
-0.08034466 0.1539566 0.026011944 0.03355643 -0.16969332 -0.1313536 -0.06705517 -0.16893958
0.17175518 0.13393442 -0.048106954 0.15229021 0.053147465 -0.08109884 0.009613365 -0.09099399
-0.0011684299 0.12876932 -0.17132606 -0.06930535 0.12738304 -0.12647173 0.17177255 -0.17246212
0.014819801 -0.03297983 0.05821596 -0.0043305904 -0.12517807 -0.007278681 -0.029702023 -0.13708329
0.0660297 0.13920097 -0.030624822 -0.08207475 0.118257776 -0.03345777 0.0988016 -0.08709781
0.1674992 -0.018419683 0.07456379 0.018581957 -0.15929511 0.06296562 -0.16831617 -0.10936854
0.020149812 0.09487794 0.12796201 0.14891471 -0.1541274 -0.04548821 0.03271556 0.08671357
0.028637324 -0.08196454 0.12201016 0.057697356 0.12073535 0.049626257 -0.1216215 -0.0027908385
0.009365123 0.040857863 0.11553467 -0.121038795 0.11308006 -0.03008739 -0.16128673 -0.03728279
-0.0020434372 0.09383333 0.17810519 -0.15368327 -0.15505406 -0.09043689 0.022877589 0.019381715
-0.15956219 0.15238696 0.12802365 0.005786998 -0.058317963 -0.16019565 -0.075355016 -0.087520555
-0.068550326 0.087456405 -0.08336273 -0.086992905 -0.119846 -0.016058326 0.17421333 0.07048246
-0.039712116 -0.0999506 0.024725871 0.05504272 0.101650186 -0.10810498 0.12364275 0.12227194
0.15932436 -0.07683337 -0.1446664 0.1004466 0.05198683 -0.09171643 -0.027905967 0.12529814
0.09938264 0.14851321 -0.082626574 -0.07449586 -0.09989321 0.14954168 0.15651621 -0.056958612
0.0023492277 -0.05164539 0.102823585 0.045056768 0.030336069 -0.13364793 -0.10638071 0.0931643
-0.010371256 -0.11428443 -0.05028188 0.10236058 0.007973709 0.17442359 0.16212662 -0.01101971
0.008350529 0.092890054 -0.105958864 0.12659438 -0.038392536 0.08017824 0.17335184 -0.074464574
0.049008965 -0.1521446 0.077108294 -0.13147157 0.09715076 0.06908158 -0.15910831 0.04403177
-0.06868102 -0.14140436 0.13203679 -0.17191644 -0.008095048 -0.009629622 -0.13668859 0.15551
0.015773252 0.11095543 0.033360034 -0.12898208 -0.10458793 -0.042030558 -0.1056399 -0.05548919
0.112618215 0.12392158 -0.13701119 0.14593752 0.048767358 0.007133027 0.09419425 -0.0012865401
-0.11302856 -0.13570686 -0.10809394 0.055390153 -0.028973538 -0.06511937 -0.04102464 0.07016982

sequential_7/dense_52/MatMul f4 [32, 64]
00000000: 10e8 573d 548f 1ebe e04b 07be 8089 2a3d
00000010: 8ca7 223e 3841 3e3e dc54 09be 50d5 f93d
00000020: 889f e43d 88c3 debd a460 1cbe 881c d03d
00000030: 586b e63d 60e9 53be b4ae 06be d4e2 67be
00000040: 702e 373e 04bd 55be 30b9 26bd 6046 193d
00000050: 8c7b 5ebe 3c98 3c3e 8861 47be 98da 87bd
00000060: 00c5 053b 000c 7ebe 980c 70be 68bc 58be
00000070: 6880 523e 4cd3 56be ac84 26be 10b1 50bd
00000080: f8cb 91bd 0814 f7bd f8f0 7bbe a489 033e
00000090: 80ae 6dbc 3014 cb3d d07e 66bd c0e7 ed3c
000000a0: 6ce6 1c3e 8028 e2bd 3028 bdbd 2482 7bbe
000000b0: 009b 77bd 9892 3ebe 2c72 63be 48c8 41be
000000c0: c060 2fbd 28da f4bd 0064 f9bb c0ed 7a3e
000000d0: e02f f73c 340a 0bbe 985d 493e 60ff 8f3d
000000e0: 4c6c 463e b898 89bd a036 fd3c 4889 07be
000000f0: e09b cdbd c8d4 84bd e02f 8cbd 8ced 1e3e
00000100: 747a 76be 4002 09bc 6f5d 563e 7c5c e8bc
00000110: 67d9 7b3e e4d7 3cbe 386d 11be 89d8 5e3e
00000120: 74fb 413d 685a 56be 196f 863e 50ad 51be
00000130: 8bd3 693e 743c d23b 00ef 183b c82c 633c
00000140: ed7a 2c3e 8486 61be 8d47 2abe 58bd a2bd
00000150: 909a 7abd 75e8 3d3e d76e 3d3c 5082 6a3e
00000160: e08d eb3d 00f4 27bd fc75 aebd 9238 133e
00000170: c27f ca3d 4434 083e beea 553e 8f0b 2e3d
00000180: 0435 b8bd efe3 df3c 7b61 383e 1a7d 65be
00000190: 6361 ad3d 478e 56be 5308 eabb ac82 3b3e
000001a0: a15a b43b 9c5d adbd fa19 ddbc d8a9 13be
000001b0: 6ea6 053c 8b9e 4bbe ef14 6cbe 17e9 15be
000001c0: d8dc 1a3e c8da cb3d 2c47 39be 505d 96bd
000001d0: 0c2c 743e ab9b 423d 1fea 533e 8096 773d
000001e0: a444 f7bd ee10 a7bd fcea dabd 934e d0bd
000001f0: 036b bbbd 3139 37be 135a 263e 6d1d 733e
00000200: f049 4dbe 60e0 17bd 27a1 50bd 2075 e93d
00000210: a486 133e 8db8 73bd b2c3 94bd d485 a53d
00000220: 4c01 833e 4d0b 673e 39b8 c5bd 00e8 433d
00000230: 56d0 023d ce38 1f3e c04e 303d 19f1 6abe
00000240: e27e 87be 706f d73d b94f 923d 77d2 a8bd
00000250: 4048 583d bfcf 78be 87e4 35bc 0826 dbbd
00000260: 645c 25be e903 1dbe a88d 7d3e a159 28bd
00000270: 8d3b f1bd ac00 2c3e 9720 173e efae a23c
00000280: e2a8 2e3e 0c5e 1bbe 7201 643e 46d5 43be
00000290: 2fed 603d f379 693e 5a9b 9d3d 4046 76be
000002a0: 24fd 4e3e 70d5 6b3e 7770 1f3e ff7a 223e
000002b0: 4d0d c53d 9312 d6bc 2d0b 8cbd 67e0 1e3e
000002c0: 04fe 56be c04a 723e 4028 cbbd ac62 703e
000002d0: b16f 343e 6eca 2ebe af8f 743e 4816 dfbd
000002e0: 389b 5f3e 86fb 0fbd f71d 24be 87bc 32bd
000002f0: 45ab 07be 000b 7a3e c128 9e3d 95d7 253e
00000300: e00e 1cbe 1d20 ba3d 53ab 6abe 5544 263e
00000310: dffe 573e 4b96 2fbe 342e e53d aedb 723e
00000320: bf47 3fbe 58c8 743e ae51 f23c e04d d63d
00000330: f16d 5a3d 7524 fc3c f965 a1bd a41f a5bd
00000340: 754c 683e b822 84bd c939 773e bb2a 40be
00000350: f024 7b3d 1a2e 7abe bf64 ad3c 28f7 00be
00000360: 00b4 db3d d9b1 083d 37a7 073e d798 32bd
00000370: 6db8 e93d 9420 243e cbed 7b3e 1f6f 77be
00000380: 9e81 1dbe 3a00 afbd d33c 563d 7357 4bbe
00000390: 5dfb 29bd fc66 3d3b 9976 303e 50f0 3abe
000003a0: bfe0 873e fdc1 913c 23fd 73be ea64 d5bd
000003b0: f5cb 9cbd 4166 373e 7e47 f0bd 9154 893d
000003c0: f2c0 8ebd 9825 e53d 6870 06be d091 1c3d
000003d0: b4ef 9ebe 9534 083e a38d 00be 00f2 083e
000003e0: df64 2e3e df35 1f3e ebb3 2c3d 7822 ae3d
000003f0: 4b9d 9f3d 8bca 10be 9c55 453e bc84 5e3e
0.052711546 -0.15484363 -0.13212538 0.041635036 0.15884227 0.18579566 -0.13411278 0.12198889
0.11163241 -0.108771384 -0.1527124 0.10161692 0.11250943 -0.20694494 -0.13152581 -0.22645122
0.17888808 -0.20872885 -0.040703952 0.03742063 -0.21726817 0.18417448 -0.19470799 -0.0663349
0.002041161 -0.24809265 -0.23442304 -0.21165621 0.20556796 -0.20979041 -0.16261548 -0.05095011
-0.07118982 -0.120643675 -0.24603641 0.12845474 -0.014506936 0.0991596 -0.05627328 0.029041171
0.15322274 -0.11042881 -0.09236181 -0.24561363 -0.060450554 -0.18610609 -0.22211522 -0.18924057
-0.042816877 -0.119556725 -0.007610798 0.24504757 0.030174196 -0.13578111 0.1966461 0.07031131
0.1937725 -0.06718582 0.030909836 -0.13235962 -0.100394964 -0.06485897 -0.06845069 0.15520304
-0.2407015 -0.008362353 0.2093408 -0.028364412 0.24594651 -0.1844173 -0.1420182 0.21762289
0.047358945 -0.20932925 0.26256636 -0.2047627 0.22834603 0.006415898 0.0023335814 0.013865657
0.16843767 -0.2202397 -0.16628857 -0.07946271 -0.06118256 0.18545707 0.011562071 0.22901273
0.1150167 -0.04100418 -0.085185975 0.14377049 0.09887649 0.13301188 0.20890328 0.042491492
-0.08994487 0.027330367 0.18005936 -0.22411004 0.08465841 -0.20952712 -0.0071421056 0.18311566
0.005503968 -0.0846512 -0.026989926 -0.14420259 0.008157356 -0.19884698 -0.2305486 -0.14639698
0.15123308 0.099538386 -0.18093556 -0.07342017 0.23844928 0.047511738 0.20694779 0.060446262
-0.12073639 -0.08157526 -0.10689351 -0.10171237 -0.0915127 -0.1789291 0.16245298 0.23741694
-0.20047736 -0.037079215 -0.050934937 0.11399293 0.1440683 -0.059502173 -0.072638884 0.08082166
0.25586927 0.22562905 -0.09654278 0.047828674 0.031936966 0.15549013 0.04304385 -0.22943534
-0.2646399 0.10519302 0.07144112 -0.08243268 0.052803278 -0.24297999 -0.011101848 -0.10700613
-0.16148525 -0.15333523 0.24761069 -0.0411011 -0.117789365 0.16797131 0.14758526 0.019858805
0.17056611 -0.15172595 0.22266176 -0.19124326 0.054913696 0.22800426 0.076956466 -0.24050236
0.20213753 0.23030639 0.15570246 0.15867232 0.096216775 -0.026131904 -0.06838069 0.1551529
-0.20995337 0.23661327 -0.099197865 0.2347514 0.17620732 -0.17069408 0.23882936 -0.10892922
0.21836555 -0.03515198 -0.16027056 -0.043636825 -0.13248928 0.24418259 0.07722617 0.1619552
-0.1524005 0.09088156 -0.22916918 0.16237004 0.2109332 -0.17147176 0.11190453 0.23716614
-0.18679713 0.2390455 0.029579964 0.10464072 0.053327505 0.030779103 -0.07880778 -0.080626756
0.22685416 -0.064519346 0.24143137 -0.187663 0.061314523 -0.24431649 0.021166204 -0.12594283
0.10727692 0.033372734 0.13247381 -0.04360279 0.114121296 0.16028053 0.2460243 -0.24163483
-0.15381476 -0.08544965 0.0523041 -0.19857578 -0.041499484 0.0028900495 0.17232741 -0.18255734
0.26538655 0.017792696 -0.23827033 -0.104196385 -0.07656089 0.179101 -0.11732386 0.06705583
-0.06970395 0.11188811 -0.13128817 0.038224995 -0.31042254 0.13301308 -0.1255403 0.13373566
0.17030667 0.15547894 0.04216377 0.08502668 0.07793673 -0.14139764 0.19270939 0.21730322

sequential_7/dense_53/MatMul f4 [16, 32]
00000000: b00e 60be 32b5 39be e9f1 7ebe 11ca a4be
00000010: c39e 90be 1638 393e c3da 0bbe 329b 38be
00000020: 571f 8a3e cd00 12be 15ed a6be d975 38be
00000030: b3a5 a63e 24d3 fd3d e0e1 1c3c 348e 83be
00000040: 8f42 97be 261e 96be e06d 9e3c ea9d 51be
00000050: cc4a 81be f27f a1be b0b5 233d 94ae bb3d
00000060: 1abc 0d3e f3bd aabe 8e5b 5ebe b8cf 0ebe
00000070: 38d7 0f3d 93c5 ae3e 6989 9ebe 90ab a53c
00000080: 9c91 89be 96d8 b03e f87d b13d bc3c 033e
00000090: fc4c 4ebe 4053 8fbd b458 663e 5892 613e
000000a0: 237f 8ebe 16c9 703b 90ca 9a3e 47d4 90be
000000b0: 8004 683e b896 393e 54d0 a8bd cdc9 853e
000000c0: 6404 663e 40c6 d0bd 826e 33be d409 343e
000000d0: c21f 383c 8ec0 22be dc15 22be 0021 a3be
000000e0: f92a 19bc f90f 42be a521 643e 1882 4c3e
000000f0: 2334 9ebd 08f8 8abe 9ec5 b4be f1a3 bbba
00000100: 53f1 9c3e 0b29 09be ac44 0c3e 7821 88be
00000110: 0ba2 34be 95a4 8a3e faf0 413e d67e 24be
00000120: 2c1a 48be 6090 1dbe 983c dd3d f01c 9cbc
00000130: 125c 703e 6e2b 233e 06da 88be 7c23 a0bd
00000140: 98e2 9ebd f8e6 cdbd f516 07be a01f 90be
00000150: b458 77be d8d1 c8bd c777 a2be 1062 fc3d
00000160: a21c 21be 8d29 8a3e bcd9 cc3d f0fb 783d
00000170: e05c 0cbd cde1 aabe 5e98 1e3e e06d be3c
00000180: 6092 8cbe 90ed 6a3d d32e 843d a409 183d
00000190: 6958 9b3e 8a24 81be 6089 fc3c 6a5c 7e3e
000001a0: a13f 1bbe c839 a13e c043 d1bc 84ce f1bd
000001b0: bcf5 393e be0d ad3e f349 69be d004 2abe
000001c0: a057 a7be f01c 8c3e 56c4 7ebe 2bc6 8f3e
000001d0: 41ae 6ebe b639 963e b42a 993e f538 333c
000001e0: 4a32 cdbc d02c b3be c46c 493c f3a0 4dbc
000001f0: f681 b53e 985b 3d3d dab7 703e f36e 3ebe
00000200: c302 a43e 411f 27bd 4bc1 e6bd 5624 81be
00000210: cb0b 87be c071 d5bc abc1 eabd b924 99be
00000220: 163b 39bc c247 c0bd a219 9a3e 26a6 09be
00000230: f996 9ebd b379 b83d 26b2 633e 94eb 0fbe
00000240: 374b 7ebe bd1c 8d3e 050e 7bbd 84bb 643e
00000250: befb 863c 4b22 a33e da45 9abe e0b5 773d
00000260: e9c3 47be dc72 aabd 963d a0be f3c2 5e3e
00000270: 553f a5be db28 dc3d 0175 4ebe dcf7 353e
00000280: 263f 743e d4ab b7be 4903 f73d a878 c2bd
00000290: b8e4 7d3e ab41 0f3e be74 17be 7be1 1b3d
000002a0: 1f9c b03e 36bf 1fbe 661c 5c3e 7366 85bd
000002b0: 143d 913e e3d7 65be fe8c 76be 999b 693e
000002c0: ad80 ce3d 89b5 f7bb 6843 373d d4ad cbbd
000002d0: d073 5f3d c28b 173d 7ebb 823e be80 e7bc
000002e0: e47f 2fbe 2a0a 493e 408c c83b ffbb d93d
000002f0: 6777 71bd 399d 53be 689b f03d 4af1 91bb
00000300: a6b2 463e 8c1b 7a3e 56a9 173e 6082 a33e
00000310: acc9 033d 697f 22bd cd19 16bd fa0a 76be
00000320: d9d7 babc c6f2 903e bb2b aebd fc8f 1dbe
00000330: b083 963e f845 2cbe be0d 89be 1fe6 2cbe
00000340: 130a e4bd f223 153e 1bca 8bbd a495 3d3e
00000350: f1ba 79be 61bb 833e b15a 203e 4ba6 853e
00000360: 1fa2 2cbe 206d fa3d 83c4 3d3e d804 a23e
00000370: 8f4c 9cbe fb87 753d a71f 33be 8836 bd3e
00000380: 92f4 6f3e 6741 243e 55e5 9c3e 6717 8fbe
00000390: a5d1 1abd 216b 603e fed4 5c3d 3887 b3be
000003a0: b2be 7f3e 86fe c93d f06b 603e d39b 21be
000003b0: 37d8 57be a450 173e 0add 453e 9a9a 8bbe
000003c0: 7c3b b53e dfc3 853e 16ea d2bc 7990 593e
000003d0: a71e 763d a4a4 a63d 5be5 233d 4afd 9abe
000003e0: 73f4 3abd 727a 123e 2520 51bd 60e6 283d
000003f0: 3004 233d e5f8 173e 0a8a 07be 2529 043e
-0.21880603 -0.18135527 -0.24896969 -0.32185414 -0.28246126 0.18087801 -0.1365767 -0.18027952
0.26977035 -0.14258118 -0.32602754 -0.18013705 0.32548293 0.123937875 0.009575337 -0.2569443
-0.29542968 -0.29319876 0.019339502 -0.20470396 -0.25252378 -0.31542927 0.039968193 0.091641575
0.13841286 -0.33348045 -0.21714613 -0.13946426 0.035117358 0.34135112 -0.3096421 0.020223409
-0.26868904 0.34540242 0.08666605 0.12816137 -0.20146555 -0.069983006 0.22494775 0.22028482
-0.27831373 0.003674095 0.30232668 -0.28286955 0.22657967 0.18123901 -0.082428604 0.26130524
0.22462612 -0.10194063 -0.17522624 0.17581874 0.01123804 -0.15893766 -0.15828651 -0.31861115
-0.009348624 -0.18951406 0.2227846 0.19971502 -0.07724788 -0.27142358 -0.3530702 -0.0014315826
0.30652866 -0.13394563 0.13698071 -0.26588035 -0.1763994 0.2707869 0.18939582 -0.16064009
-0.19541234 -0.15387106 0.10802573 -0.019056767 0.23472622 0.15934536 -0.2672884 -0.07819268
-0.07758063 -0.100538194 -0.13192351 -0.28149128 -0.24154931 -0.098056495 -0.31732008 0.123233914
-0.15733579 0.26984826 0.10002467 0.06078714 -0.03426826 -0.33375397 0.15487811 0.023245752
-0.27455425 0.057355464 0.064542435 0.03711857 0.3034089 -0.2522319 0.030827224 0.2483994
-0.15160991 0.31489396 -0.025545001 -0.11806968 0.18160146 0.33799547 -0.22782116 -0.16603398
-0.3268404 0.27365828 -0.24879584 0.28080878 -0.2330866 0.29340905 0.29915392 0.010938873
-0.025048394 -0.34995127 0.012293998 -0.01255058 0.35450715 0.04622993 0.23507634 -0.18597011
0.32033357 -0.04080129 -0.112673365 -0.25223035 -0.26376185 -0.026055217 -0.114627205 -0.2991083
-0.011305591 -0.09388687 0.3009768 -0.13442287 -0.077436395 0.09007587 0.22235927 -0.1405471
-0.2483338 0.27560988 -0.061292667 0.22337157 0.016477462 0.318621 -0.30131418 0.060476184
-0.19508328 -0.08322689 -0.31296986 0.21754055 -0.3227488 0.1074998 -0.20161821 0.17770332
0.23852214 -0.35873282 0.120611735 -0.094956696 0.2479428 0.13989894 -0.14790627 0.03805683
0.3449411 -0.15600285 0.21495208 -0.06513681 0.2836691 -0.22445635 -0.24077222 0.22813262
0.10083137 -0.0075594825 0.044742018 -0.099452645 0.054553807 0.036998518 0.2553367 -0.028259631
-0.1713863 0.19632784 0.0061202347 0.106315605 -0.05895176 -0.20665444 0.117483914 -0.0044538127
0.19404086 0.24424571 0.1481069 0.31935406 0.03217475 -0.03967229 -0.0366457 -0.24027625
-0.022808002 0.2831022 -0.08504435 -0.15386957 0.29397345 -0.16823566 -0.26768297 -0.16884659
-0.11134734 0.14564493 -0.06825658 0.18514115 -0.24387719 0.25728896 0.15659596 0.26103434
-0.1685872 0.12227845 0.18531995 0.3164432 -0.3052716 0.059944134 -0.17492543 0.36955667
0.2343314 0.16040574 0.30643716 -0.27947542 -0.03779759 0.21915866 0.053914063 -0.350641
0.24975088 0.098629996 0.21916175 -0.15782098 -0.21078573 0.14776856 0.19322601 -0.2726639
0.35396945 0.26126 -0.025746386 0.21246518 0.060087826 0.081368715 0.040013652 -0.3027137
-0.04564328 0.14304522 -0.051056046 0.041235328 0.039798915 0.1484104 -0.13236251 0.1290632

sequential_7/dense_54/MatMul f4 [8, 16]
00000000: 6c2e a23e 5cd7 f03e 80b0 f43d de4d d4be
00000010: de80 d13e 2b05 4dbe dad2 643e 23ff c03e
00000020: fd6b 663d 470d 1fbe 0ac0 f53e 805f 76be
00000030: 80c7 863c 321a 9cbe df9e fc3d 78f7 6dbe
00000040: a8af 0b3e cd08 c83c 1038 9a3e b097 a43e
00000050: 08eb 2d3e ffeb 7b3d ada5 afbe a479 d33e
00000060: 0f60 97be c336 cbbd 41a4 88bd 8f63 b2be
00000070: e05c 92bd 88dd 18be bed9 963e 3050 fc3e
00000080: d8b3 7d3e 2aba e43e 40bd 4cbe 5fc2 8c3e
00000090: f9ee 043d c218 56be aad1 903e 4327 90be
000000a0: b29a d23e 3b30 063d 2d4f 6c3e fb79 b93e
000000b0: e0ec 263e f95d e0bc 9a23 743e 94d0 99be
000000c0: 68b8 abbe 899f d33e 64bd d0be 2678 adbd
000000d0: 0b34 053f f5a3 a23e 1591 db3e 0281 a0be
000000e0: 9fce e2bd a6a8 21be 4e3b 10bd b0ce e7bd
000000f0: 00f8 253a 63f1 db3d 93a7 97be 006a 89bb
00000100: 6c49 d93e 2824 cd3e 50cd 2cbe 7883 efbe
00000110: 9874 9ebe e0f3 153e 5089 80bd a0b2 a63e
00000120: 7c0d bdbe 0082 32bb 8069 bf3d fc85 e53e
00000130: 84f0 a43e f849 c9be b0df bebe 60ad 95be
00000140: 4c8b 9abe 755a a33d 2cac 9c3e 7c82 edbe
00000150: fa1f b7be bbf3 e83d d23c a43e e3e4 c0bd
00000160: c1ad abbe bf3f 9dbe fa1d 58be 783c 88be
00000170: 5c41 fa3e 97ca a63e 98af db3e 0029 af3d
00000180: f067 093e 677e 00be b87f 2a3e dbe3 443e
00000190: e0d2 e13d 3b10 ce3e 170b 033e dade 38be
000001a0: 9e28 9cbe 0021 06bd 0082 3b3b 7792 f33e
000001b0: 4072 5cbd c552 bfbe 8ca5 0ebd c09b 8a3c
000001c0: 3031 bbbe 68da af3e 68ac b53e ccba a23e
000001d0: b544 693e ead4 143e eb7a f1be a4b3 c83e
000001e0: 0d2c 553e 6778 01be 23fd 833e 8d8f ccbe
000001f0: c068 28be 7ad4 32be bff4 933e 207e c33d
0.31676042 0.47039306 0.11947727 -0.41465658 0.4091863 -0.20021503 0.22346058 0.37694654
0.05625533 -0.15532409 0.47998077 -0.24059868 0.01645255 -0.30488735 0.1233499 -0.23238933
0.13641226 0.024418259 0.30120897 0.32146978 0.16984189 0.06150436 -0.34306088 0.41303742
-0.29565474 -0.09922554 -0.06671954 -0.34841582 -0.07146621 -0.14928257 0.29463 0.49279928
0.24775636 0.44673282 -0.19994068 0.27492043 0.032454465 -0.20907882 0.2828496 -0.28154954
0.41133648 0.03276084 0.23077078 0.36225876 0.16301298 -0.02738856 0.23841706 -0.30041945
-0.33539128 0.41332653 -0.40769494 -0.08470182 0.52032536 0.31765714 0.42884126 -0.31348425
-0.11074566 -0.1578699 -0.035212807 -0.113187194 0.00063312054 0.107394 -0.29620036 -0.0041935444
0.4243883 0.40066648 -0.16875196 -0.4677999 -0.3094833 0.14643812 -0.0627619 0.32558155
-0.3692435 -0.002723813 0.093462944 0.44828784 0.3221475 -0.39314246 -0.37280035 -0.29233837
-0.301844 0.07976238 0.30600107 -0.46388614 -0.35766584 0.11374613 0.32077652 -0.09418657
-0.33531 -0.30712697 -0.21105185 -0.26608634 0.4887799 0.3257644 0.42907405 0.08552742
0.13418555 -0.12548219 0.16650283 0.19227545 0.11026549 0.40246758 0.12797199 -0.18053761
-0.30499738 -0.032746315 0.0028611422 0.4757268 -0.053819895 -0.37367836 -0.034825847 0.01691997
-0.36560965 0.34346318 0.35483098 0.3178314 0.22780116 0.14534345 -0.4716409 0.39199555
0.20817585 -0.12643586 0.25779065 -0.3995327 -0.16446209 -0.17463866 0.28897664 0.09545541

sequential_7/dense_55/MatMul f4 [1, 8]
00000000: 619a cb3e 5818 5abe 94b6 2e3f 6d21 2b3f
00000010: de2d 31bf 2e0a 88be 7827 dbbb 753d 01bf
0.3976622 -0.21298349 0.6824734 0.6684788 -0.6921061 -0.26570266 -0.0066880547 -0.504844
