app/src/main/assets/model22.tflite (tflite, 722616 bytes, 15 tensors)

sequential_5/dense_39/BiasAdd/ReadVariableOp f4 [512]
000000 79 d0 4b bd 7b 7f 03 3e 01 3f 05 3e a5 f5 81 bd
       -0.049759362 0.12841599 0.13012315 -0.06345681
000010 e3 7f 46 bd d4 91 86 bd bb 64 58 3d 81 de 60 bd
       -0.048461806 -0.06570783 0.05283044 -0.054899696
000020 d3 b9 5e 3d 26 ec 01 3e f2 20 6a bd c1 1e 4c bc
       0.054376435 0.1268774 -0.057160325 -0.012458504
000030 00 00 00 00 7f d2 b8 bd 70 d6 56 3d 01 59 1e 3b
       0.0 -0.09024524 0.052450597 0.0024161937
000040 8a 01 ea bd fa 23 ad bd bc 88 6a 3d 0d df 1a bd
       -0.11426075 -0.084541276 0.057259306 -0.037810374
000050 71 c5 61 bd 00 00 00 00 d6 54 c7 bd 71 46 7c 3c
       -0.055119935 0.0 -0.09732978 0.015397654
000060 00 00 00 00 f4 10 2f bd 00 00 00 00 46 82 83 3d
       0.0 -0.042740777 0.0 0.06421332
000070 aa 6e 71 bd 14 50 03 bd 04 ab fe 3b 42 74 6a bc
       -0.058943428 -0.03205879 0.0077718515 -0.014309945
000080 18 a0 22 bd 4f 84 dd 3c e5 c1 28 3d 00 00 00 00
       -0.03970346 0.027040629 0.041200537 0.0
000090 e8 24 72 3d 10 ef c1 bc 7c 06 07 3e 4c f1 59 bd
       0.059117228 -0.023673564 0.13186067 -0.053208634
0000a0 11 3a 93 bd 00 00 00 00 2f b2 e1 bd 92 8d 34 bd
       -0.0718881 0.0 -0.11020314 -0.044080324
0000b0 af 35 03 be 83 86 06 3e d9 f7 b0 3c 13 53 a9 bc
       -0.12813447 0.1313725 0.021602558 -0.020669496
0000c0 b6 20 11 3c 43 45 a4 3c d7 d4 af 3c 17 60 18 bc
       0.008857897 0.020052558 0.021463795 -0.009300253
0000d0 00 00 00 00 00 00 00 00 5e 21 f1 bd 84 35 d8 bc
       0.0 0.0 -0.117739424 -0.026392706
0000e0 00 00 00 00 bb dd a4 bc 37 e5 d6 3c 14 48 b7 3d
       0.0 -0.02012526 0.026232345 0.08949295
0000f0 bb 4e 54 3d 4b 19 71 3c a0 72 dd 3d 00 00 00 00
       0.051832896 0.014715503 0.108128786 0.0
000100 03 b8 cb 3d 32 15 92 3d d2 43 91 bd 58 d8 10 bc
       0.09947207 0.07132949 -0.07093014 -0.008840643
000110 00 00 00 00 c2 c8 b5 3d c2 05 24 3d 25 0f 3d 3d
       0.0 0.08876182 0.040044554 0.04615702
000120 00 00 00 00 35 8a 99 3d 1c c4 85 3d e0 b0 90 3d
       0.0 0.07497064 0.065315455 0.07064986
000130 2a cf f2 ba 8a 70 8d 3d 28 01 77 3c e0 4b 9c 3d
       -0.0018524874 0.06906231 0.015075959 0.076316595
000140 d6 4f 23 3c 00 00 00 00 cc 3c 9f 3d d2 d4 81 3c
       0.009967765 0.0 0.07775268 0.015848551
000150 dc 95 9d 3d 00 00 00 00 d2 1d 19 3d 00 00 00 00
       0.07694599 0.0 0.037381954 0.0
000160 dd 1b ff bd 00 00 00 00 17 73 b3 bd 00 00 00 00
       -0.124564864 0.0 -0.08762186 0.0
000170 cd ae 3f 3d 33 c0 fd 3c 37 0f 6b 3d 32 b9 8b bd
       0.046797562 0.030975437 0.057387557 -0.068224326
000180 00 00 00 00 c5 a4 88 bb 00 00 00 00 ed 56 41 3d
       0.0 -0.0041700327 0.0 0.04720204
000190 ee 15 40 bd 0c aa 18 3d 00 00 00 00 51 41 41 bc
       -0.046895914 0.037271544 0.0 -0.011795358
0001a0 00 00 00 00 b5 9f b0 3a f5 a1 15 3d 0f 55 71 3d
       0.0 0.0013475331 0.036531407 0.05891901
0001b0 b8 2b f9 bb 92 96 4e bd 65 a9 26 bd a9 23 79 3d
       -0.0076040886 -0.050436564 -0.04068889 0.060825024
0001c0 00 00 00 00 49 88 b3 bb 5b e5 4c 3c 1d f3 e0 bc
       0.0 -0.005478893 0.0125058545 -0.027459675
0001d0 6c 6e d7 bd e6 19 83 3d f4 e8 8c 3d 4e 3c 91 3d
       -0.10519108 0.06401424 0.0688037 0.0709158
0001e0 00 00 00 00 09 ed c7 3d 00 00 00 00 46 15 ef bc
       0.0 0.09762008 0.0 -0.029184949
0001f0 de ce 66 3d 83 dd 85 3d 1b e6 89 3d 46 1e e2 3d
       0.056349628 0.06536391 0.06733342 0.110409304
000200 6c e1 75 bd 05 66 6b 3d 80 98 a8 3d 00 00 00 00
       -0.060029432 0.05747034 0.08232212 0.0
000210 70 b7 ee bd fa b1 12 bc 6f bf 55 bd ac e3 fe bd
       -0.11656082 -0.008953566 -0.05218452 -0.12445769
000220 00 00 00 00 1b 12 af bb 83 cb b5 3c fb ee c7 bc
       0.0 -0.0053427345 0.022191769 -0.024405947
000230 e1 d4 a5 bd f4 26 8c bd 56 a1 32 bd 2e 7f 12 bc
       -0.08097244 -0.06843367 -0.043610893 -0.008941455
000240 eb fb 79 bd 00 00 00 00 fa 5d b8 bd c6 8a a6 3d
       -0.061031263 0.0 -0.090022996 0.08131938
000250 00 00 00 00 12 ae 1e 3e 13 cb b0 bd 00 00 00 00
       0.0 0.1549609 -0.08632483 0.0
000260 a0 a6 ce bd b9 a1 e3 bd 5d ff a3 bd 3d 19 8f bd
       -0.10090375 -0.111148305 -0.08007691 -0.06987236
000270 00 00 00 00 00 17 ba bd 89 38 10 3d e8 4f 83 3d
       0.0 -0.09086418 0.035210166 0.06411725
000280 08 79 a2 3d 76 22 54 bb c2 77 46 3c 8f 48 47 3d
       0.07933241 -0.0032369173 0.012113513 0.04865318
000290 00 00 00 00 00 00 00 00 4d 3b dd 3d 41 3e 87 3d
       0.0 0.0 0.10802326 0.06603671
0002a0 96 53 d2 bd 8b 18 a7 3b 53 b9 3e bb 26 75 89 3d
       -0.10269849 0.0050993613 -0.002910216 0.067117974
0002b0 5e 6e 54 3d 00 00 00 00 29 96 e2 bd e3 f5 03 bc
       0.051863067 0.0 -0.11063797 -0.008054229
0002c0 8e 0f ec bd a6 9f c5 3b 6f 53 7b bd 00 00 00 00
       -0.11526404 0.0060309945 -0.061358865 0.0
0002d0 00 00 00 00 c0 2a 26 3c 3e dc d9 3b 9f c4 9f bd
       0.0 0.010142028 0.0066485694 -0.07801174
0002e0 af aa 63 bd 00 00 00 00 74 44 6a bd 00 00 00 00
       -0.0555827 0.0 -0.05719419 0.0
0002f0 7a 30 70 bd ce 45 17 be 12 9b 62 bc 4a d8 cb bd
       -0.05863998 -0.14772722 -0.013830917 -0.09953363
000300 00 00 00 00 f4 d0 40 bd 00 00 00 00 31 ec 5a bd
       0.0 -0.047074273 0.0 -0.053447906
000310 00 00 00 00 62 04 b6 bd b3 10 51 bd f9 9a b3 3d
       0.0 -0.08887555 -0.051041316 0.08769793
000320 00 00 00 00 3c 01 cc 3d 84 88 74 3c ac ff 38 bd
       0.0 0.09961173 0.014925126 -0.045165703
000330 24 b0 28 bd 3f 2b 0d bd ec 8d 8c 3d 18 9a 99 3d
       -0.041183606 -0.03446507 0.06863007 0.07500094
000340 dc 05 b3 bc 65 84 49 3d d6 51 8e 3d 63 a8 8e bd
       -0.02185338 0.049198527 0.06949203 -0.06965711
000350 84 63 b9 3d b8 26 22 3d e6 4e 80 bd 00 00 00 00
       0.09052184 0.039587706 -0.06265049 0.0
000360 a0 02 8f 3d 91 9a a7 3d 44 d1 d4 bc 62 eb b7 3c
       0.069829226 0.08183778 -0.025978692 0.022451106
000370 00 00 00 00 a8 11 91 bb 95 a2 97 bd f5 4e bb 3d
       0.0 -0.0044271536 -0.07404057 0.09145919
000380 20 ad a0 3d 00 00 00 00 b8 aa b5 bd 5b 2a 87 bd
       0.07845521 0.0 -0.08870453 -0.065998755
000390 26 e3 2a 3d e7 e7 92 bb 00 00 00 00 25 43 02 be
       0.041720532 -0.0044832113 0.0 -0.12720926
0003a0 01 7c 89 3d 26 56 1e 3d 83 1b 9f 3d 00 00 00 00
       0.06713105 0.038656376 0.07768919 0.0
0003b0 3a b6 05 bd 11 f2 8d bd 47 8e 94 3d 03 24 43 3d
       -0.032644488 -0.06930936 0.072537 0.047641765
0003c0 be e5 8a bb 82 49 aa bc 6c 08 06 be cb 90 d3 3c
       -0.004238813 -0.020787004 -0.1308915 0.025825879
0003d0 dc fc 8f bd 36 92 8c 3d ca 9f 9c bb 82 f6 7e bd
       -0.07030651 0.06863825 -0.0047797905 -0.062246807
0003e0 18 ba ce 3d 5b cf a1 bd 02 35 42 3d d8 f2 cd 3d
       0.10094088 -0.07900878 0.047413833 0.100560844
0003f0 d3 50 64 3d 08 21 df bb 00 00 00 00 b6 dc f9 bd
       0.055741142 -0.0068093576 0.0 -0.122003004

sequential_5/dense_40/BiasAdd/ReadVariableOp f4 [256]
000000 37 3c b5 bb a6 9a 9d bb ce 92 51 bd 02 fe 44 3d
       -0.00553086 -0.0048096953 -0.051165394 0.048093803
000010 27 b5 86 bb e4 e2 60 bc 28 f5 02 be b3 c2 cb 3d
       -0.0041109505 -0.01372597 -0.12788832 0.09949245
000020 5c 34 93 bb ca 1a b6 bb 6e 94 21 bc 79 f9 16 bd
       -0.0044923257 -0.0055573927 -0.009862049 -0.03685901
000030 e3 e5 18 3c 5b 29 93 3d 9c 23 b6 bb bb 40 98 ba
       0.009332153 0.07185622 -0.005558444 -0.0011615971
000040 32 bd 48 bd d6 f9 34 3d 72 88 c4 bb 63 c0 0e 3e
       -0.049008556 0.044183575 -0.005997711 0.13940577
000050 f2 24 80 3d 00 00 00 00 22 38 c7 bc d0 74 da bb
       0.06257047 0.0 -0.024318758 -0.006666757
000060 a5 1a 03 3e ba 09 31 bc df b9 9b bb eb 37 06 3e
       0.12803133 -0.010805542 -0.004752382 0.13107269
000070 f9 8e 23 bb 1c 14 0a 3e 9a 0a c9 bc 2a b3 e0 bd
       -0.0024957045 0.13484234 -0.024541188 -0.10971673
000080 ce a9 a0 3b 51 bb 5e bc 37 88 c1 3c d4 ee de bc
       0.004903055 -0.013594464 0.023624523 -0.027213491
000090 8e 91 f3 bb dd dc 80 bd a5 df 84 bb 2b cd c3 bc
       -0.007433123 -0.06292126 -0.004054981 -0.023901543
0000a0 cf e5 11 bd 00 00 00 00 2f ca 0e 3e 33 8d 20 bb
       -0.035619553 0.0 0.13944314 -0.0024498224
0000b0 ec 8b 6d 3d ae 26 9e 3d 00 00 00 00 41 85 e4 bc
       0.057994768 0.07722221 0.0 -0.027895572
0000c0 d7 eb d3 bc ee 05 9e bc 8e c8 d5 bb 1a 8f 11 bc
       -0.025869293 -0.019289937 -0.006524152 -0.008884216
0000d0 37 2f 35 3c b5 79 ec bc 89 c4 d9 3d 00 00 00 00
       0.01105862 -0.028866628 0.10633189 0.0
0000e0 36 62 f5 bb 9f 1f fd bc 00 00 00 00 ed 06 a1 bc
       -0.0074885143 -0.030898867 0.0 -0.019656623
0000f0 76 4c ab 3d 3b b8 c4 bb ee ff b5 bc da c7 6c 3d
       0.08364193 -0.0060034073 -0.022216763 0.05780778
000100 ec c7 af bc 99 24 6c 3d 00 00 00 00 00 00 00 00
       -0.021457635 0.05765209 0.0 0.0
000110 da 7e 23 bd 84 14 09 3e e0 89 5c bc 12 83 9d 3d
       -0.039915897 0.13386732 -0.013460606 0.07691015
000120 04 b6 50 bc 01 a9 ea 3d 14 72 8d 3d 4b c8 c4 bb
       -0.012738708 0.11458016 0.06906524 -0.006005322
000130 10 52 29 bc 74 12 32 3c df 2d e1 bc 04 3e d1 3c
       -0.010334507 0.010868657 -0.027487693 0.025542267
000140 71 f7 1b 3e 87 56 51 bd 09 80 b4 bc e0 29 5d 3c
       0.1523111 -0.05110791 -0.022033708 0.013498753
000150 fa 06 06 bc 4a 23 b6 bb 8b 5b 32 bc 45 76 c4 bb
       -0.008180374 -0.005558406 -0.010886083 -0.005995544
000160 c1 e9 97 39 4c b0 fa bc 2b b5 cf bc d1 94 9e 3c
       0.00028975125 -0.030601643 -0.025354942 0.01935807
000170 31 f3 79 bb c6 e5 d6 bd f6 c4 c4 bb 6c ba c4 bc
       -0.0038139338 -0.104930446 -0.006004925 -0.024014674
000180 a5 0c ae bb 7d 6d 9e 3d 45 9a e8 bc be 7e 9b bc
       -0.005311566 0.07735727 -0.028393874 -0.018981334
000190 61 36 6b bc 74 ff ac bc 49 a0 42 bd 69 ea 67 bc
       -0.014356227 -0.021117903 -0.04751614 -0.014155009
0001a0 89 61 d5 bb bd 96 fa bc 51 ff c5 bb 30 c2 b4 3d
       -0.0065118712 -0.030589456 -0.006042399 0.08826101
0001b0 c3 c5 c4 bb 9d 61 1c 3d 0f f1 e9 bc 2a 74 d4 3d
       -0.0060050203 0.03817903 -0.028557329 0.10373719
0001c0 d9 3a 8b bb ce 9f ce 3d b8 de d1 bc 5a 64 d3 bc
       -0.0042489585 0.10089074 -0.025618896 -0.025804687
0001d0 51 14 6c 3c 25 97 0c 3e c4 ab 05 bc fd e8 21 bc
       0.014409141 0.13729532 -0.008158628 -0.009882209
0001e0 a6 32 e1 bc c2 83 7e 3d b6 6f 7c bc 00 00 00 00
       -0.027489971 0.062137373 -0.015407493 0.0
0001f0 21 a1 9f 3d f8 a9 bb 3d 46 51 09 bc 50 8d d7 bc
       0.07794405 0.09163278 -0.0083811935 -0.0263125
000200 d6 26 d0 bc dc 2c 1d bc 00 00 00 00 06 27 c6 3d
       -0.025409143 -0.009593215 0.0 0.09675412
000210 ce 08 06 bc 18 a9 07 3d 69 cd 35 3b f5 9e 46 bd
       -0.00818081 0.033120245 0.0027740842 -0.048491437
000220 82 22 01 3e 21 f0 df bc 50 72 eb bc f1 c4 c6 bc
       0.1261082 -0.027336182 -0.028741032 -0.02426383
000230 4d 77 43 bc b8 2e c0 bc 00 00 00 00 6c 7e 14 3e
       -0.011930299 -0.023459777 0.0 0.14501351
000240 2b b0 35 bc 03 cb e1 3d 64 bc 18 3c 58 8e 9e 3d
       -0.011089365 0.110250495 0.00932226 0.07741994
000250 45 c9 c4 bb 95 c9 78 bd 58 af f7 3d 2e ab 05 3e
       -0.0060054385 -0.06073912 0.12093991 0.13053581
000260 3a 57 e8 3d a3 83 c1 bc 63 b2 67 bc 55 52 42 bb
       0.11344762 -0.02362234 -0.014141652 -0.0029651124
000270 88 07 cd 3c 12 ab c4 bb 7e 0a db 3d df 84 df bb
       0.025028005 -0.0060018385 0.106953606 -0.0068212594
000280 ed 69 2d bc f7 55 9f 3d 90 24 b6 bb e5 a6 03 bc
       -0.010584337 0.07780068 -0.005558558 -0.008035396
000290 9f f7 e8 bc 00 00 00 00 9d d7 6f 3d ba eb fc 3d
       -0.028438387 0.0 0.058555234 0.12349649
0002a0 04 f0 fd 3d c1 1a ba 3c 7a d3 ff bc 6c c6 c4 bb
       0.12399295 0.022717835 -0.03122877 -0.006005099
0002b0 6d c4 02 bc 45 e9 ef bb 57 80 85 bc ed b0 fa bb
       -0.007981402 -0.007321509 -0.016296549 -0.0076504857
0002c0 13 4c ab 3c 55 86 bf bc fd 49 63 3d 48 8a d3 3d
       0.020910298 -0.023379484 0.055490483 0.103291094
0002d0 4f 37 18 bd 00 00 00 00 8e 75 ca 3d ad 0c 27 bd
       -0.03716212 0.0 0.09885703 -0.040783573
0002e0 aa a2 eb bc e7 77 01 3e 39 0e 1f bd b6 c1 88 bb
       -0.028764088 0.12643395 -0.038831923 -0.004173483
0002f0 00 00 00 00 2f 96 06 bc e3 8a 0c bd 73 ee f8 3d
       0.0 -0.0082145175 -0.03431214 0.121548556
000300 a2 68 f8 bc 2d 34 85 3d 38 7f 51 3d 86 8c d9 3d
       -0.03032333 0.06504092 0.051146716 0.10622506
000310 33 af e9 3c ed 79 a8 3b 2a 11 b8 3d a7 a8 4a bd
       0.028525924 0.005141488 0.08987649 -0.049477246
000320 e2 5d 35 bb e7 89 ea bc ed 54 0a bc 49 bc c4 bb
       -0.0027674367 -0.02863021 -0.008443099 -0.0060038907
000330 b7 20 2b bd 81 a0 cc bc 7b 7b 8c bd 01 24 e2 bb
       -0.041779246 -0.024978878 -0.068594895 -0.0069012647
000340 43 9a 7b 3b e2 75 ee bc 59 f3 0d bb 00 00 00 00
       0.0038391508 -0.029108945 -0.002165994 0.0
000350 e3 7f f8 bc d7 22 04 3e b7 ce 24 3e bf ad eb bc
       -0.030334419 0.12903915 0.1609448 -0.028769372
000360 0f 24 b6 bb 72 19 f2 bb 5f 57 cf 3b 93 e5 fd bc
       -0.0055584977 -0.007388287 0.006327554 -0.030993259
000370 47 35 d9 bc 63 29 f3 bc 8b f4 f4 bc 3e 17 01 bc
       -0.026514662 -0.02968282 -0.029901763 -0.0078790765
000380 61 64 1a 3c 00 00 00 00 8f 33 cb bb a1 7c 69 bc
       0.009423346 0.0 -0.0062012146 -0.014250905
000390 4e f2 bc bb 16 d2 38 bd 00 00 00 00 f3 4e 01 bd
       -0.0057661897 -0.04512223 0.0 -0.031569432
0003a0 f5 61 16 3e 13 c2 2c bc ab d7 93 bc 4b 00 fe bc
       0.14685805 -0.010544318 -0.018047174 -0.031006
0003b0 99 cc a7 3d bb 96 1c 3e 58 ae fa bc 14 33 fd ba
       0.08193321 0.15291874 -0.030600712 -0.0019317591
0003c0 fe 99 f4 bc 90 9c 09 3e 9d 25 d0 bb 15 95 23 3d
       -0.029858585 0.1343863 -0.00635214 0.039937098
0003d0 cd b2 ac 3d 10 30 05 3e 1b 2f d6 bc f6 5e f4 bc
       0.08432541 0.13006616 -0.026145509 -0.029830437
0003e0 66 a1 fd bc 3e e5 d4 bc 78 7b ef 3d c6 44 77 3d
       -0.03096075 -0.025988217 0.11693472 0.06036832
0003f0 65 55 b0 3c 25 05 00 bd 90 67 d8 bb ed e9 b7 bc
       0.021525094 -0.031254906 -0.0066041425 -0.022450412

sequential_5/dense_41/BiasAdd/ReadVariableOp f4 [128]
000000 5c 9c 18 bd 00 00 00 00 a0 4b d4 bc 33 43 f0 bb
       -0.03725849 0.0 -0.025914967 -0.0073322295
000010 d8 d4 ed 3d ab e5 72 bd 7f ee 6a bc 33 aa ab 3c
       0.11612862 -0.05930106 -0.014339088 0.02095518
000020 28 2a 20 3e 51 5e 15 3e 83 9d 39 be 09 98 9b bc
       0.15641081 0.1458676 -0.18126492 -0.018993394
000030 5e cf f1 3d c9 13 30 3e 92 b4 ec 3b ee 0f 42 bd
       0.1180713 0.17195047 0.007223674 -0.047378473
000040 9c 32 fa bc b8 55 06 be 59 1f 1f 3e ba ec b3 bd
       -0.03054171 -0.13118637 0.15539302 -0.087853864
000050 e6 5c fd bc 9e 97 58 bc 0b 49 fd bc 24 b8 2d bc
       -0.030928086 -0.013219742 -0.030918619 -0.010602985
000060 b2 83 bf bc fe 4f 9a b8 07 65 d1 bb f0 10 00 3d
       -0.023378227 -7.358192e-05 -0.006390217 0.031266153
000070 57 6b b8 bc 68 85 9c bc b4 5f 60 bc c2 76 7f 3d
       -0.022512121 -0.019106582 -0.013694692 0.062369116
000080 3f d1 d9 bc c9 78 32 bc 50 5f df 3d f1 57 4d bd
       -0.026589034 -0.010893055 0.10906851 -0.050132696
000090 6b 05 90 3d b2 82 65 bc a5 c8 fc bb 62 d1 0d 3e
       0.070322834 -0.014008211 -0.0077143484 0.13849404
0000a0 68 69 fe bc 37 1a 1a bc 3b ca 26 3c dd c2 a5 bd
       -0.031056121 -0.009405664 0.010180051 -0.08093808
0000b0 b8 63 a7 bb c9 3c 2b bc 97 8e f9 bc c2 b1 c1 bc
       -0.005108323 -0.010451504 -0.0304635 -0.023644332
0000c0 7a 58 0a 3e 0f 0e a2 ba 0f c5 1f bc 06 71 18 3e
       0.13510314 -0.0012363809 -0.009751572 0.14886865
0000d0 9e ab 96 3d d2 f6 51 bd 17 a6 c3 bb ac 8f d0 bc
       0.07356952 -0.051260777 -0.005970727 -0.025459133
0000e0 39 9a 0f bd d7 7e 98 bc 2d 91 ce bc e2 6e e5 bc
       -0.035059188 -0.01861517 -0.02521571 -0.028006975
0000f0 7b 00 5d 3d af 6f f2 bc db bf 87 bc 8c d0 1b bc
       0.053955536 -0.02959427 -0.016570976 -0.009510171
000100 d3 84 9b bc 76 1d e2 bd 7c eb e9 bc 94 da 0c bd
       -0.018984234 -0.110407755 -0.02855467 -0.03438814
000110 21 51 c9 bb 27 5b 0e bd ce 5e f0 bc ed f3 22 3e
       -0.0061437045 -0.0347549 -0.029342081 0.15913363
000120 fc 9b 3c bd 8f 4d 81 3b 21 eb 90 bd 74 85 00 be
       -0.046047196 0.0039460133 -0.07076097 -0.12550908
000130 11 ca 03 bd a7 cd 52 bd 54 76 b4 bc e6 19 20 bd
       -0.032175127 -0.051465657 -0.02202908 -0.0390872
000140 f1 4c 07 be 22 be 44 bd b6 02 07 3e b3 f1 11 3e
       -0.13212945 -0.048032887 0.13184628 0.14252357
000150 4a 70 bf 3c 19 59 a7 bb 80 45 c7 3d 7d 77 32 3e
       0.023368973 -0.005107057 0.09730053 0.17428394
000160 9a 3f e0 bc 2f f0 0a bc 9e 1b 01 3e e4 09 d5 bb
       -0.027374078 -0.008480116 0.12608191 -0.006501423
000170 e4 2b ef bc 48 83 d3 bc c1 64 09 bd 30 8b eb bc
       -0.029195733 -0.025819436 -0.033543352 -0.028752893
000180 bc 57 cf bc a2 73 91 bd 25 54 b2 bc fb d3 ab bc
       -0.02531039 -0.07102133 -0.021768639 -0.020975104
000190 74 b6 82 bc 7a 36 b5 bc 16 87 1c 3e 8a 2d f6 3d
       -0.015956141 -0.022120703 0.15285906 0.12020405
0001a0 bb af 09 bc 93 f4 e9 3d 71 ff e8 bc 29 68 07 be
       -0.008403714 0.11423602 -0.028442116 -0.13223328
0001b0 89 88 14 3e a8 4a eb bc 34 f1 7c bc 93 51 cc bb
       0.14505209 -0.028722122 -0.015438367 -0.0062353103
0001c0 7a b2 b0 bd 17 cb dc 3d bb e5 a8 3d 26 fc 43 bd
       -0.08627792 0.10780924 0.082469426 -0.04784789
0001d0 23 29 af 3c 17 d8 8b bd 84 a2 f1 3d 86 71 c1 bc
       0.02138192 -0.06828325 0.117985755 -0.023613703
0001e0 cf b8 c1 bc ed 69 55 bd 11 88 28 bd 32 b6 b6 3d
       -0.023647694 -0.05210297 -0.041145388 0.0892147
0001f0 87 01 ef 3d ab cd e0 bc c3 88 6e bc 1c 26 ff 3d
       0.11670213 -0.02744182 -0.014558974 0.12458441

sequential_5/dense_42/BiasAdd/ReadVariableOp f4 [64]
000000 bc 79 09 bd 18 58 b5 bc 02 1f 1e 3e 28 b3 0a 3e
       -0.03356336 -0.022136733 0.15441516 0.13544905
000010 f6 47 ce bd 53 4c ba 3d 01 34 3a 3e 3d 4e 0a be
       -0.10072319 0.09096589 0.181839 -0.13506408
000020 46 52 91 bc f1 ec 86 3d fb 7c 44 bc b9 94 e9 bc
       -0.017739426 0.06588162 -0.011992688 -0.0285133
000030 98 16 e3 bd 30 46 0f bd b1 d3 75 3d d9 e5 78 bd
       -0.11088294 -0.034979045 0.060016338 -0.060766075
000040 e5 85 c3 ba 2a e9 1b bc a1 ad b7 3d 1a a8 bf bc
       -0.0014917223 -0.00951604 0.08968664 -0.023395587
000050 95 c1 00 bd 60 3a 35 3b d7 67 a4 3c 33 ee 14 bd
       -0.031434614 0.0027653202 0.020069046 -0.036359977
000060 bc c4 3b be d5 38 03 bd 12 26 b3 bb 26 61 4c 3e
       -0.18336767 -0.03203662 -0.005467185 0.19958934
000070 10 80 1c be 56 31 54 bd 61 79 22 bb 00 00 00 00
       -0.15283227 -0.051804863 -0.0024791586 0.0
000080 ed 45 cd bc bc 3f 9a bc c1 9d 43 be 86 d2 d9 3d
       -0.025057757 -0.018829219 -0.19103147 0.10635857
000090 9f e4 06 be 44 38 04 bc a0 ad a9 bd c7 76 62 3a
       -0.1317315 -0.008070055 -0.082850695 0.0008638915
0000a0 2e 8a 1c 3e ef a0 5e bc 6b 7b 02 bd bf 85 11 3e
       0.15287086 -0.013588174 -0.03185598 0.14211176
0000b0 85 6b 51 bd 3d bb e9 bc 57 7a 2c 3e ca d4 3d 3d
       -0.05112793 -0.028531665 0.16843544 0.04634551
0000c0 8b 74 93 bc a4 97 67 bd 76 c3 3b bc 14 64 44 3e
       -0.017999908 -0.0565411 -0.011460176 0.19178802
0000d0 d3 8c 45 bd 7d ac 87 bc f2 d1 d8 bc dd fc e0 bd
       -0.048230004 -0.016561741 -0.026467297 -0.1098573
0000e0 c8 d7 03 bd e0 be e6 bc 73 45 ff bc 41 12 4b 3d
       -0.032188207 -0.028167188 -0.031161046 0.049577955
0000f0 2b 38 22 bd d0 84 d4 3d 43 41 f9 bc 72 7b e5 3d
       -0.039604347 0.103768945 -0.030426627 0.11205186

sequential_5/dense_43/BiasAdd/ReadVariableOp f4 [32]
000000 9f 8d a0 bc a0 fd ed 3c 0a 2b eb bd 71 58 4a 3e
       -0.01959878 0.029051602 -0.114828184 0.197603
000010 87 ac 84 3b 9b 84 43 bd 3c 92 fa 3b ab 87 46 3e
       0.004048887 -0.047733884 0.007646827 0.1938769
000020 62 1a 39 be 0f be 25 3d 6d 79 3e 3e a5 b4 87 ba
       -0.1807647 0.040464457 0.18601008 -0.0010353519
000030 a8 ab 3f 3e 1e a5 01 3e 03 cd 29 3e 89 a8 22 3d
       0.18717825 0.12660643 0.16582112 0.03971151
000040 9a 22 a2 bd ae 63 34 3e 5c 98 72 3d 4d 60 05 bd
       -0.07916756 0.1761615 0.059227332 -0.032562543
000050 5d a9 38 3e fe 85 65 bc 01 f0 0e be 81 f2 46 bd
       0.18033357 -0.014008997 -0.13958742 -0.048571113
000060 d6 5f 1a bc 6b 59 49 3d b1 86 4f 3e 93 c4 b0 bc
       -0.009422263 0.04915754 0.20266224 -0.021578109
000070 ce f2 24 bd de fa 00 bd 76 14 e7 bc bd d6 e5 bd
       -0.04027062 -0.031489246 -0.028207999 -0.11222599

sequential_5/dense_44/BiasAdd/ReadVariableOp f4 [16]
000000 f4 a7 3b 3e 85 98 d6 bd 47 42 36 3e a3 79 38 be
       0.18325788 -0.104783095 0.1779872 -0.1801515
000010 d0 45 6f 3c aa 51 0f 3e a4 bf 33 3e 71 8e 12 bc
       0.014604047 0.13995996 0.17553574 -0.0089450935
000020 1d 0c 45 3e 1f f0 0e bd af ec 6e be 09 eb 36 3e
       0.19242902 -0.034896966 -0.23332475 0.17863096
000030 00 00 00 00 87 28 e7 bc 89 d3 1e bd 52 02 88 3d
       0.0 -0.028217567 -0.038775954 0.066410676

sequential_5/dense_45/BiasAdd/ReadVariableOp f4 [8]
000000 1f 93 3f 3e 0e 73 38 be 11 39 3f 3e 00 00 00 00
       0.18708466 -0.1801264 0.18674113 0.0
000010 95 b2 3f be 6d cd 4e be 8c 5c 3f 3e 8a e9 44 be
       -0.18720467 -0.20195551 0.18687648 -0.19229713

sequential_5/dense_39/MatMul f4 [512, 8]
000000 c6 6d eb 3b f9 f2 3b 3c 65 e8 c7 3c 6e 5c f2 bc
       0.007184717 0.011471503 0.024402807 -0.02958509
000010 01 20 f2 3b c7 f9 74 3e 1a d8 f0 be 50 ad fd bb
       0.007389069 0.23923407 -0.47039872 -0.0077416077
000020 77 2a 0e be d2 c6 e9 bc 92 3b 8e 3d 7a e0 ea 3d
       -0.13883387 -0.028537188 0.06944956 0.11468597
000030 fb 58 07 3e 2f 45 bf 3d cd 72 4c bd 42 9f c7 3d
       0.13217537 0.093393676 -0.04991417 0.09747173
000040 f1 1e 1b be 69 c3 b9 3c 9e d9 58 bc 1b 46 85 3d
       -0.15148522 0.022676187 -0.013235478 0.06507512
000050 43 03 33 3e e1 4b 92 3d e5 92 25 3e 02 bb 38 be
       0.17481713 0.07143379 0.16169317 -0.18040088
000060 9c f3 b5 3d 0a ad c8 bd 4d 2b ec bc c7 1f 6f bd
       0.088843554 -0.097986296 -0.028829241 -0.058379915
000070 cf 5e f9 3d 5d 9a b4 3b b6 65 9c 3e eb 20 91 bd
       0.121762864 0.0055115656 0.3054635 -0.07086357
000080 ee 43 8c 3c 21 68 31 3d bc e0 55 be 20 67 be ba
       0.017122235 0.043312196 -0.2088651 -0.0014526583
000090 65 38 14 3e d9 ed e0 3d e2 03 0c 3e 1e 8d af 3e
       0.14474638 0.10982866 0.13673356 0.3428735
0000a0 ae 62 5e 3d d2 ac fb bc 6f df 78 3d 08 17 07 3d
       0.054293327 -0.030722056 0.060759958 0.03298095
0000b0 33 2c a9 be c6 a9 8e 3e 51 da 80 3d 30 26 01 3e
       -0.33041534 0.27863902 0.062916405 0.12612224
0000c0 ef 74 2f be 43 31 b7 3c 99 ae e2 3b 7b dc 92 3d
       -0.1713445 0.022362357 0.0069177863 0.071709596
0000d0 6c 97 54 3e 31 a7 35 3e 55 fa 3b 3e 1a 49 c5 3d
       0.20760888 0.1773956 0.18357213 0.09633084
0000e0 fe 64 ea 3c a5 a2 61 3d 6f 53 ca be 38 76 19 bd
       0.02861261 0.05508675 -0.3951678 -0.037466258
0000f0 d1 7a 30 bc 7b da 1b 3f 16 68 29 3e d5 fe 13 be
       -0.010771469 0.6088025 0.16543612 -0.1445268
000100 f8 e9 48 be 2c 97 ed 3a c1 1d 79 bc 43 f7 42 3d
       -0.19620502 0.0018126718 -0.015204848 0.04759909
000110 33 99 a3 bd 56 40 3a 3d d9 c1 21 3e 53 5c 74 be
       -0.07988205 0.04547151 0.15796603 -0.23863344
000120 14 9a a5 3d cc fd a2 bd f6 0e 8f 3d e7 24 83 3d
       0.08086029 -0.07958564 0.069852754 0.06403523
000130 11 7c 34 3e e2 2e a6 3e 11 8b 24 3e 87 b8 0c be
       0.17625453 0.32457644 0.16068675 -0.13742267
000140 ba ff 15 3d 58 c9 69 bc ee 4b 93 bd e3 16 39 3d
       0.036620833 -0.0142691955 -0.07192217 0.045187842
000150 44 51 5b be d1 89 4d 3e 37 4a 02 bf 58 d4 a0 bb
       -0.21417719 0.20072104 -0.5089449 -0.004908126
000160 4d 42 ea 3b 12 a7 a8 bb 05 44 7a bd 7e 15 8d 3c
       0.007149017 -0.0051468695 -0.061100025 0.017222162
000170 6a f0 b6 be 8a 5f 08 bd d5 aa 17 be 89 c0 ff 3d
       -0.35730296 -0.03329424 -0.14811261 0.12487895
000180 76 85 22 bd 8a fa d1 bd c2 e6 0c bd 66 51 40 3d
       -0.03967806 -0.10252865 -0.034399755 0.046952628
000190 e1 1e 97 3d 95 42 a9 bd 81 98 89 3d 50 53 57 bc
       0.073789366 -0.08264653 0.06718541 -0.013142422
0001a0 c8 cf 31 3d 6c 5d 0c 3d da b4 95 bd cd 6a c9 bc
       0.043411046 0.03426878 -0.07309885 -0.02458706
0001b0 34 8e 38 3e 80 03 af 3e c8 a5 77 be dc 7b 27 3f
       0.18022996 0.34182358 -0.24184334 0.6542337
0001c0 17 4a 26 be 47 8c 58 bb 2c dc c9 bc 30 f3 e2 3d
       -0.162392 -0.0033042596 -0.024641119 0.110815406
0001d0 98 bb 13 3c c0 f0 c8 3d 62 1b 7b 3e 30 47 37 be
       0.009016894 0.098115444 0.24522164 -0.1789825
0001e0 30 6b a2 3d 72 a7 61 3d b1 ef e2 bd 10 ea 19 3b
       0.07930601 0.05509133 -0.11080874 0.002348546
0001f0 43 2f 56 3c e1 f2 73 bc 1b ab 9f be c5 2b 6c bd
       0.0130727915 -0.01488945 -0.3118523 -0.05765893
000200 7b 02 7c bb dc 92 84 3d 9b 73 07 bd e3 6c ed bd
       -0.0038453627 0.06473324 -0.033069234 -0.11593034
000210 8d 83 eb bd 9b e1 8d 3f 92 70 38 bf 30 8d 1d ba
       -0.11499701 1.1084474 -0.7204677 -0.0006010113
000220 d1 cf a9 3d f8 c2 0e be ce 9e 25 3e 6f f7 29 be
       0.08291591 -0.13941562 0.1617386 -0.16598295
000230 78 59 b0 bc 02 74 59 bc 82 66 76 bd 50 84 4f 3d
       -0.021527037 -0.013272287 -0.060156353 0.050663292
000240 47 cd 4f 3d 12 60 cd bd c1 74 a1 3d 64 1c b1 3d
       0.050732877 -0.100280896 0.07883597 0.08647993
000250 b4 b2 26 3e 16 9c d2 3d 72 df 2a bd 73 78 04 3e
       0.16279107 0.10283677 -0.041717 0.12936573
000260 4d 9d ac 3d 70 49 11 be 31 0e 51 3d 51 a7 04 3e
       0.0842844 -0.1418817 0.051038925 0.12954451
000270 b6 e9 6f be 64 75 bf be 49 b2 2b 3e 75 65 c8 3e
       -0.23428997 -0.3739425 0.16767229 0.39139906
000280 45 ec 94 3d 6b 2e d3 3b 59 ac 0a be ca f1 8d ba
       0.07271627 0.0064447424 -0.13542308 -0.0010829505
000290 13 b2 17 be 2e ed 0c bf 1f eb 81 3f b5 54 21 3e
       -0.14814024 -0.5504941 1.0149878 0.1575497
0002a0 30 c3 62 3c e6 3d 4a bd 2f 51 59 bd ae 20 bd bd
       0.013840482 -0.049375437 -0.05305594 -0.09234749
0002b0 40 d0 db bb 76 af 47 3d 5c 38 2d bd 80 de 86 3b
       -0.006708175 0.048751317 -0.042290077 0.0041158795
0002c0 38 45 0e bd df 23 9b 3d 5d 07 2e 3d 0c fd d4 bd
       -0.03473398 0.07575201 0.04248749 -0.10399827
0002d0 74 5d cf be 2d 60 02 be 1d ca 2d 3b af a1 35 3d
       -0.40500987 -0.12732 0.0026518174 0.044343647
0002e0 33 1d 94 3c c4 09 c9 bc b1 25 da 3d 4d 7b 42 3c
       0.01808033 -0.02454079 0.1065172 0.0118702175
0002f0 51 14 09 bc f5 3e 23 3e 30 67 96 be 57 73 01 be
       -0.00836666 0.15941985 -0.293756 -0.12641655
000300 12 7f 09 3d a6 cd c3 bd 60 e7 32 3c a0 1c a5 bc
       0.03356845 -0.09560709 0.010919422 -0.020155251
000310 e5 54 83 3d db 41 b4 3d 2c c9 b5 3c 41 2a af 3d
       0.06412677 0.088016234 0.022190653 0.08552981
000320 ec d2 27 3d 2d b9 e8 3c 03 14 86 3d d3 62 b3 bd
       0.040972635 0.028408611 0.06546786 -0.087590836
000330 72 e6 04 be b7 1b cd be 71 48 19 3e 3a 68 dd bd
       -0.12978533 -0.40060207 0.1496904 -0.10810895
000340 50 ce 11 bc 22 3a 87 bd a9 fb 83 bd 00 6d e3 bb
       -0.008899286 -0.06602885 -0.06444485 -0.006940484
000350 10 8c 88 bd 63 84 a8 bd 2c 90 b3 bd d2 91 71 3d
       -0.0666734 -0.08228376 -0.08767733 0.058976956
000360 ef fd f1 3c cc d9 4b 3d 0b 56 13 bd 2c 70 67 bd
       0.02954003 0.049768254 -0.03597073 -0.05650346
000370 ff 34 17 3e fe 38 50 be 69 49 ed 3e 95 49 a7 bc
       0.1476631 -0.20334241 0.4634507 -0.020420829
000380 17 e8 83 3d b2 dd 46 3d 7b 05 fc bd 40 47 99 bd
       0.06440752 0.04855127 -0.12305733 -0.07484293
000390 f2 97 aa 3e f0 eb 81 be 18 b7 ce 3e 4e c8 b6 3e
       0.3331905 -0.2537532 0.40374064 0.35699695
0003a0 62 8f fb 3c f5 24 94 bd 3e 6b 99 3d 51 e7 97 3d
       0.030708019 -0.072336115 0.07491158 0.07417167
0003b0 33 3b 4f be 85 46 fe bd 1f f8 9c be 32 57 90 bd
       -0.20237426 -0.12415794 -0.3065805 -0.07047881
0003c0 58 0a be 3d fe c1 85 3c f9 b4 f5 bd 70 7f 24 3d
       0.09279317 0.016327854 -0.119974084 0.040160596
0003d0 b7 d1 21 be 63 b2 85 bd 64 ff 11 be 18 ff b0 3d
       -0.15802656 -0.06528165 -0.1425758 0.08642405
0003e0 3a cd 77 3d 62 52 1b bc 29 cd 75 bd 76 19 27 3c
       0.060498454 -0.009480091 -0.06001011 0.010198941
0003f0 ef 3f b7 bd cc f4 e0 3e db e5 fb bd d5 82 8e be
       -0.08947741 0.43936765 -0.12299701 -0.27834192

sequential_5/dense_40/MatMul f4 [256, 512]
000000 54 6d 33 3d b4 85 a8 3c 94 e5 c1 bc ba c2 95 bd
       0.043805435 0.020571567 -0.023669042 -0.07312532
000010 4c 1c b6 3b 88 7a 86 bd fe ca 9c bd d2 bc f6 bd
       0.0055575725 -0.0656634 -0.07655905 -0.12047733
000020 45 4a c0 3a e4 a1 61 bd ab c7 3b bc 01 32 d2 3b
       0.0014670572 -0.05508603 -0.011461179 0.0064146523
000030 ef 65 24 bd 50 5f 83 3d 49 ad bb 3c 46 f8 41 3d
       -0.040136274 0.06414664 0.022909777 0.047355913
000040 72 3c b8 bb fa 20 e2 3c f2 68 d1 3c 58 72 18 bc
       -0.00562244 0.027603615 0.025562737 -0.009304605
000050 0c fc 5f bd d6 97 2b bd b8 8d 9a bd 42 c9 0d 3d
       -0.05468373 -0.04189285 -0.07546562 0.034615763
000060 f0 b3 92 3c 61 f5 1c bd 11 a0 98 3d 46 13 97 bd
       0.017908067 -0.03831995 0.07452405 -0.07376723
000070 2b 6a 74 3d e7 65 3b bd 0c fc 5c bd bc 75 4f bd
       0.059671562 -0.04575148 -0.053951308 -0.05064939
000080 87 6a e1 3c ae 93 8b bd 34 31 94 3d 32 c0 4b 3d
       0.027516617 -0.06815277 0.07235947 0.04974384
000090 18 6d a8 bc f8 54 79 bd 22 ea 3b bd e5 a6 6d bd
       -0.020559832 -0.06087205 -0.045877583 -0.05802049
0000a0 e2 66 bb bd 10 a0 04 bd ef fd b0 3c 75 37 27 bd
       -0.09150483 -0.03237921 0.02160546 -0.040824372
0000b0 21 65 9e bc 5e b0 ec 3c 0b 1b 49 bd e8 52 0f bd
       -0.019335331 0.028892692 -0.049098056 -0.034991175
0000c0 7e ab 29 bd 69 1c 2a 3c f5 60 4d bc 18 2c 34 bd
       -0.041423313 0.01038275 -0.012535323 -0.043987364
0000d0 9c 03 aa bc 78 f1 63 bc 4b 3b 19 bd 51 f3 62 bd
       -0.020753674 -0.013912551 -0.03741006 -0.055407826
0000e0 97 a8 a0 bd b8 f8 7a bc ac 13 6b 3d 97 19 91 bd
       -0.07844656 -0.015318088 0.057391807 -0.07084959
0000f0 29 0d 83 3c 71 87 33 3c ae 25 75 3c 3e c0 46 bd
       0.015997486 0.010957585 0.014962597 -0.04852318
000100 52 09 4b bb 4f e3 a6 bc c4 0a 64 bd 86 2a 93 3c
       -0.0030980897 -0.020372061 -0.05567433 0.017964613
000110 1c 17 c7 3c 7c b9 24 bd f8 03 6b bc d6 5a 33 3d
       0.024303012 -0.040215954 -0.014344208 0.0437878
000120 e0 59 c5 3b 28 e1 66 39 d7 8d fa 3c 3d be 62 bd
       0.006022677 0.00022018387 0.030585213 -0.055357207
000130 0d d9 b1 bc b9 33 94 3d 61 81 0a 3d b8 30 75 bd
       -0.021709943 0.07236428 0.03381479 -0.059860915
000140 4b ec 84 3d 54 82 b1 bd e2 79 c5 3c e2 88 14 bd
       0.06490382 -0.08667436 0.02410597 -0.036263354
000150 3e 9b b4 bd ee b6 7f bd 02 41 21 3d d2 be 7d 3d
       -0.088186726 -0.062430315 0.039368637 0.06194956
000160 c1 e2 d7 3b a6 c3 78 bd ad b9 35 3d 8c e1 85 bc
       0.0065883105 -0.06073346 0.044366527 -0.0163429
000170 00 3e 5d ba e4 90 a5 3c 2d 8f 8c bd 86 f9 b2 bd
       -0.00084397197 0.02021069 -0.06863246 -0.08738999
000180 20 00 55 bb 50 39 9a bd 72 f2 1c 3d 70 5f 31 3d
       -0.0032501295 -0.07530463 0.03831715 0.043303907
000190 2b 7a 5a 3d d3 4a 2a 3c 65 87 9c 3d 65 41 32 3c
       0.053339165 0.010393816 0.07643012 0.010879849
0001a0 f6 d6 51 3d c1 0f a4 3c b7 1b 12 3d cf 45 a9 3b
       0.051230393 0.020027043 0.035670962 0.0051657925
0001b0 9e a1 95 bd c4 b8 16 bc 43 42 7d bc 54 f3 bf bd
       -0.07306217 -0.009199325 -0.015457693 -0.09372583
0001c0 f9 10 39 bd f6 01 84 bd bf 32 8e 3d 5e 6d f2 3c
       -0.045182202 -0.064456865 0.06943273 0.029593166
0001d0 ac c3 65 3d ac 77 a1 bd bc 1e 83 3d cb 9e c4 bc
       0.05609481 -0.07884154 0.064023465 -0.0240015
0001e0 f8 b6 14 bc fc 25 07 bd ef 5a 83 3d 1c d4 9c 3d
       -0.009076826 -0.03299521 0.064138286 0.07657644
0001f0 d3 48 93 bb 38 1a bd bd 25 57 39 bb da 04 02 3d
       -0.0044947653 -0.092335165 -0.0028280702 0.031742908
000200 af 7f 16 bb a7 ac 34 3d f7 4c 26 3b 30 68 9a bd
       -0.002296429 0.044109967 0.0025375464 -0.075394034
000210 e0 2e 2d 3d 02 df 33 bc 68 6e a5 bd ca 4f a3 bd
       0.04228103 -0.010978462 -0.08077699 -0.07974203
000220 08 78 c2 bc 1d 1e cf 3c 76 cd 54 bd b8 bc 82 bd
       -0.023738876 0.025282914 -0.051953755 -0.063836515
000230 03 6a 3b 3d 82 47 01 3d e2 44 52 bc ae 83 1e 3d
       0.045755398 0.031562336 -0.012833806 0.0386998
000240 20 ef 35 bd a2 d2 7c bd b1 23 32 3b dc e7 89 3d
       -0.0444175 -0.061724313 0.0027181918 0.06733677
000250 66 38 5f 3d 23 0a 9a bc 3f 93 6e 3d 84 c0 12 3d
       0.054497145 -0.018803662 0.058245894 0.03582813
000260 62 39 4b bc c8 db 9c bd 46 9e 5e bd 6b 6b 82 3d
       -0.012403818 -0.076591074 -0.05435016 0.063681446
000270 40 b8 f0 ba 51 c9 29 3d 20 44 a4 bc 90 18 12 3d
       -0.0018365458 0.041451756 -0.020052016 0.035667956
000280 1d f1 4b bd f1 d3 73 bd 43 af ed 3c 5a d2 12 bd
       -0.04979049 -0.059528295 0.029014235 -0.035845138
000290 b1 04 ae 3d de 8e 50 3d 11 64 63 bc 9c b0 41 3d
       0.084969886 0.0509175 -0.013878838 0.04728757
0002a0 77 a9 17 3d 6f b4 75 3d c2 69 e3 3c 2d 35 97 3d
       0.03702685 0.059986528 0.02776039 0.07383189
0002b0 fd ff 91 bd 30 eb 8d 3c de b2 d0 bc 96 88 a0 3d
       -0.07128904 0.01732406 -0.025475916 0.07838552
0002c0 2e 27 9f 3d 65 31 17 3d 5a 33 b4 bd a0 ab 60 3c
       0.07771145 0.03691234 -0.08798857 0.013712794
0002d0 e0 43 2b 3c cb 61 36 3d 72 44 4a 3d b5 79 db 3c
       0.010453194 0.044526856 0.04938168 0.026791433
0002e0 20 15 39 3d 00 00 88 b5 03 4b 22 3b bf dd 8f 3d
       0.045186162 -1.013279e-06 0.0024763949 0.070247166
0002f0 74 88 8d bc 81 14 c1 bd 59 56 7e bd cc 46 23 bb
       -0.01727698 -0.09427739 -0.062094066 -0.0024914024
000300 37 76 53 bd a1 08 c1 bd d3 3f af 3d 58 9b 94 bb
       -0.05162641 -0.09425474 0.085570954 -0.00453512
000310 e0 42 f4 bb 92 d8 8c 3d 3f fa 0d bd 26 1b 68 3d
       -0.007454261 0.06877245 -0.03466248 0.056666516
000320 b6 37 2c 3d 0e af 39 3a 75 38 80 bd 73 ad 4e 3d
       0.042045318 0.0007083275 -0.06260768 0.050458383
000330 64 03 b6 bb 64 be 46 3c 21 66 99 3c d4 e0 0d b8
       -0.0055546034 0.012130354 0.018725457 -3.3826407e-05
000340 a9 e3 44 3d 88 81 33 bd cf f2 29 bd 1e 3d 30 3d
       0.048068676 -0.043824703 -0.041491326 0.043027036
000350 95 6a 41 bc 8c fe be bd 95 9f 99 bd 9f 10 9d 3d
       -0.011805196 -0.09325895 -0.07501141 0.07669186
000360 24 25 60 bc 8c 75 b7 bd 97 2a c8 3c 79 fe 66 3d
       -0.01368073 -0.08957967 0.02443437 0.056395028
000370 1c c9 8e bd fd df a1 bd 2f 7a 2c 3d d2 01 b4 bd
       -0.06971952 -0.079040505 0.04210871 -0.0878941
000380 63 3a 94 bc da ed 20 3d 46 d8 4a 3d 7f 45 c8 3c
       -0.018094247 0.039289333 0.04952266 0.0244472
000390 3a 09 8c bd f6 13 b5 bc af 8a a6 bd f6 0c 0e 3c
       -0.06837697 -0.022104245 -0.081319205 0.008670082
0003a0 78 92 8d bd c4 ee 7d bd dc 6b 9d 3d 40 be cd ba
       -0.06912702 -0.061995283 0.07686588 -0.0015696958
0003b0 bf ef a4 bd c0 55 98 3d ba 39 27 bd 58 07 bf bd
       -0.080535404 0.074382305 -0.040826537 -0.093275726
0003c0 1f 7c 2e 3d 9c 81 6c 3d 8f 2d 56 3d a6 84 a4 bb
       0.04259884 0.057740793 0.05228954 -0.0050206957
0003d0 76 c9 67 bd 3c 13 2e bd 81 c0 17 3d d0 0e 85 3c
       -0.056588612 -0.042498812 0.03704882 0.016242415
0003e0 fb 8b 8a 3d 73 b2 61 bd 7e 22 05 3b ab 82 33 3c
       0.067649804 -0.055101823 0.0020314748 0.010956447
0003f0 3a 7c 9a bd aa 8b 8d bd b4 7c cc bc 07 55 e0 bc
       -0.075432256 -0.069114044 -0.024961807 -0.027384294

sequential_5/dense_41/MatMul f4 [128, 256]
000000 9e 2d 5e bd 6d a4 c9 bc 44 57 50 3d d2 04 bc bd
       -0.054242723 -0.024614537 0.050864473 -0.09180607
000010 30 bc 93 3c 60 9d 1c bc ec 31 50 3d d1 3d 30 3d
       0.01803407 -0.0095590055 0.05082886 0.043027703
000020 60 a8 32 3c 00 0f 7d 3b 36 22 f9 bd 63 c2 8d bc
       0.010904402 0.0038613677 -0.12164728 -0.017304605
000030 d0 d9 a2 3d 84 5d f6 bc 90 57 64 3d c2 75 bf bd
       0.07951701 -0.030073889 0.05574757 -0.093486324
000040 d0 02 5f 3d 6c d0 89 3c bc c0 91 3d 7d e5 4a 3d
       0.05444604 0.016823016 0.07116839 0.049535263
000050 fd ec 95 3d 28 06 df bd 60 ac d1 3d 68 b4 41 3d
       0.073205926 -0.10889846 0.10237956 0.04729119
000060 07 a0 82 bd 91 a0 82 3d 22 13 99 3d 52 ae 28 3c
       -0.06378179 0.06378282 0.074743524 0.010295467
000070 e0 b2 db 3d ad 0d e0 bd e8 77 8a 3d b1 a9 23 bc
       0.10727477 -0.109401084 0.067611516 -0.009989188
000080 43 dc d0 bd 63 3f 9f bd 06 38 a4 bd 30 a2 86 bd
       -0.101982616 -0.07775762 -0.08018498 -0.065739036
000090 3d 5e 95 bd e7 64 f3 bc 00 a9 dd 3d 62 45 ec bd
       -0.07293365 -0.0297112 0.1082325 -0.11536671
0000a0 68 04 1c bc 08 07 50 bd b6 ad a5 3d 68 b1 09 bd
       -0.009522535 -0.050787956 0.08089773 -0.033616453
0000b0 9a c3 a9 bd 61 f6 d0 bd 08 ab 49 3d 58 c6 41 bd
       -0.08289261 -0.10203243 0.049235374 -0.047308296
0000c0 80 c5 ca 3b 20 52 da bd 71 10 57 bd 84 02 f9 3d
       0.0061880946 -0.10660195 -0.052505914 0.12158683
0000d0 7e 79 3d 3d 14 cb 9e 3d bc f1 88 3d c0 10 81 bc
       0.046258442 0.07753578 0.06686732 -0.015755057
0000e0 f6 59 be bd 58 b0 1b 3d d0 39 e5 bd 7c ac ab 3d
       -0.092945024 0.03800997 -0.111926675 0.08382508
0000f0 a2 a6 6e bd 84 7f b8 3d 54 f9 f7 bd 56 44 84 bc
       -0.058264382 0.09008697 -0.121081024 -0.016145866
000100 94 56 96 bd 52 6e 90 3d a0 c4 05 bc 00 73 58 bc
       -0.07340732 0.07052292 -0.008164555 -0.013211012
000110 78 69 40 3d a7 54 18 bd 1d 22 0a 3d b5 64 d6 bd
       0.046975583 -0.037190106 0.03372394 -0.10468427
000120 16 16 49 3d 13 3b f1 bd 7b c3 0a be 80 cc 0c 3c
       0.04909333 -0.11778846 -0.13551132 0.0085936785
000130 4e 54 a3 3d c8 f5 9d bc 20 69 e2 bc 2f 32 48 ba
       0.07975064 -0.019282237 -0.027638018 -0.00076368725
000140 68 46 4a 3d 40 4f 8c bd fc 8b 8a bd f7 1c 5b bd
       0.04938355 -0.06851053 -0.06764981 -0.05349442
000150 19 cd f3 bd b8 b4 74 bd bc 51 bc bd f4 a1 de 3d
       -0.11904354 -0.05974266 -0.09195277 0.10870734
000160 ff 47 af 3d 50 0d d3 3c e3 43 ba 3d 63 3a b9 bd
       0.08558654 0.025763184 0.090949796 -0.090443395
000170 cb d8 bd 3c 74 5c ed bd 00 84 5e 3b 80 94 87 3c
       0.023174664 -0.115899 0.003395319 0.016550303
000180 18 8d d8 bd 49 84 63 bd 81 8d 8c 3d a4 e9 a5 3d
       -0.105737865 -0.05554608 0.06862927 0.08101204
000190 39 1f 20 be 32 7f ec 3b 47 ff 8d bd 00 b6 d6 ba
       -0.1563691 0.0072173113 -0.06933456 -0.0016381145
0001a0 f4 e3 ed bd 8c b6 b7 bd 23 ac ea 3d c2 e8 84 bd
       -0.11615744 -0.08970365 0.11458614 -0.064897075
0001b0 78 a6 4e bd 82 eb ac bd 40 3a 1b 3c e0 e1 92 3d
       -0.050451726 -0.08443357 0.009474337 0.071719885
0001c0 34 d4 6b 3c dc e7 65 3c a0 38 14 bc e8 60 ab bd
       0.014393855 0.01403233 -0.009046704 -0.08368093
0001d0 d8 07 cf 3d a4 94 f9 39 7c 86 64 bd 2c e8 d8 bc
       0.10108918 0.00047603727 -0.055792317 -0.026477896
0001e0 c0 41 f0 3b 6e e5 2b bc 44 e3 f6 bd e0 82 9c bc
       0.0073320568 -0.010491712 -0.12055066 -0.019105375
0001f0 49 e3 11 be 27 63 01 be 43 a0 cd bd f8 67 2c bd
       -0.14246859 -0.1263548 -0.10040333 -0.04209134
000200 c0 2e 18 bc cc 4d a8 bb 3c 58 90 bd 13 68 2b bd
       -0.00928849 -0.0051362272 -0.07048079 -0.0418473
000210 dd 99 a6 3d 91 1e fe 3c f4 50 ee bd 84 80 f6 bd
       0.08134816 0.031020435 -0.11636534 -0.12036231
000220 ab 5e fd bd 00 db 50 bd 80 59 27 3d d0 f2 bf bd
       -0.12371572 -0.050990105 0.04085684 -0.09372485
000230 14 f6 fa 3d a0 e4 07 bc c0 71 44 bc 53 49 dc 3c
       0.12253967 -0.008294255 -0.011990011 0.026890432
000240 7a b9 cb 3d 10 6d a1 bc 1e 7c 52 3d 0a 05 ea bd
       0.09947486 -0.019705325 0.0513879 -0.114267424
000250 dc 14 b8 3d 70 e1 12 3d 74 fd 82 bd 59 c9 97 3d
       0.089883536 0.035859525 -0.063959986 0.07411451
000260 e4 7f 49 bd 4c 56 97 bd 61 f2 d3 3d c7 41 c9 bd
       -0.04919423 -0.07389507 0.103489645 -0.09826999
000270 87 65 45 3d f8 8a 43 3d d8 0e f6 bc b5 e4 6d bd
       0.048192527 0.047739953 -0.030036375 -0.05807944
000280 a8 58 02 be 3a 83 8e 3d 40 a3 d9 3b 10 63 01 be
       -0.12729132 0.06958623 0.0066417754 -0.12635446
000290 a0 6a 34 bd c0 55 33 bc d3 cd 07 be ca 19 a8 bd
       -0.044046998 -0.010945737 -0.1326211 -0.08208044
0002a0 5f d1 cb 3c 11 77 f8 bd 80 b1 48 3b 58 ed 7e 3d
       0.02488011 -0.12132085 0.0030623376 0.062238067
0002b0 ec 2f 72 3c c1 9b a5 bc 80 7b 33 3d d8 1f 00 3d
       0.014781933 -0.02021587 0.04381895 0.03128037
0002c0 a5 0a 0b be 4c 23 c4 bd 26 85 bc bd 90 33 05 be
       -0.1357828 -0.09577045 -0.092050835 -0.13007951
0002d0 d3 a8 b8 3d 00 72 56 bc bb f3 d0 bd 91 a1 71 3d
       0.09016576 -0.013088703 -0.10202738 0.058991972
0002e0 ec ec ea bd 28 df 9d bd a4 b5 c9 bd 60 fc a8 3d
       -0.114709705 -0.07708579 -0.09849098 0.08251262
0002f0 44 54 c3 3d 74 1f f8 bd e8 c5 61 3d b3 e9 61 bd
       0.09537557 -0.12115374 0.05512038 -0.055154514
000300 80 ab ee 3d 02 d2 dc bd 0c a7 5c 3d 06 71 b0 bb
       0.11653805 -0.10782243 0.053870246 -0.005384567
000310 dd 70 af 3c 51 7a e0 bd 48 2e 92 3d a5 5a 16 be
       0.021416122 -0.1096083 0.07137734 -0.14683016
000320 dc 00 ce 3d 90 71 ed bd 76 8d e5 3c fc f0 d0 3d
       0.10058758 -0.11593926 0.028021555 0.10202214
000330 86 e0 b2 3d 38 db 1c bd 5f 4c 46 3d 37 e2 c6 bd
       0.08734231 -0.038295 0.048412677 -0.09711116
000340 8e 98 01 be 40 01 9f bb 61 20 d0 3d 24 c0 ab 3d
       -0.12655851 -0.004852444 0.10162426 0.08386257
000350 88 9d a1 bd 7a e7 b1 3d 28 be c2 bd 3c a0 ce 3d
       -0.07891375 0.08686729 -0.09508926 0.10089156
000360 60 17 eb 3d 01 1d 36 3d 10 33 93 3d a0 f4 ac bd
       0.11479068 0.044461254 0.07187474 -0.08445096
000370 e6 98 bd 3d cc c5 89 3d 0c 95 e5 bd 1a df 16 be
       0.09257679 0.0672718 -0.11210069 -0.14733544
000380 55 ac c3 bd cc 58 f8 3d b6 bc 3a 3d 40 7d 28 bd
       -0.09554354 0.12126312 0.045590125 -0.041135073
000390 e0 9b 8b bd e0 20 dd bc 30 3b b2 bd 38 13 c4 bd
       -0.0681684 -0.026993215 -0.08702695 -0.09573978
0003a0 7c ab 92 3d c0 4e 07 bd 68 7a 59 3d a0 cf 4d bd
       0.07161614 -0.033034086 0.05309525 -0.050246835
0003b0 b3 d6 32 3d bc 33 9c 3c f4 2a b8 3d e8 44 62 bd
       0.043661784 0.019067638 0.08992568 -0.055241495
0003c0 a8 61 ee bd b2 80 ca 3d e8 1f 49 bd 69 ed b5 bd
       -0.1163972 0.09887828 -0.049102694 -0.08883173
0003d0 9a c6 a4 3d 68 04 e3 bd 8c 0c b1 bd d8 a3 09 bd
       0.08045693 -0.11084825 -0.08644971 -0.03360352
0003e0 84 68 8b 3d e4 c1 c2 bd 2f ad ce 3d 61 b8 ec bc
       0.06807044 -0.09509638 0.10091626 -0.028896512
0003f0 e2 c9 02 be f9 c5 61 bd ed 01 04 be 9a ce 5f 3d
       -0.12772325 -0.055120442 -0.1289136 0.05464039

sequential_5/dense_42/MatMul f4 [64, 128]
000000 04 86 28 be 48 e0 e4 bc 8d 70 17 3c 40 c3 b4 3d
       -0.16457373 -0.027938977 0.009243143 0.088263035
000010 2b 35 f3 3d 37 80 5b 3d a3 1c d7 3b fa ad 3d 3e
       0.11875375 0.053589072 0.006564693 0.18523398
000020 06 72 0f be 1e c4 24 3b d6 7f 42 bd e1 c0 d2 3d
       -0.1400834 0.002514131 -0.047485195 0.10290695
000030 96 8b 10 bc 90 2f 7b 3d 71 c4 02 3e 52 b1 00 3e
       -0.008822342 0.061324656 0.12770249 0.12567642
000040 40 e0 30 3d 7a b3 c3 3d ef 1a b6 bd ab 10 a2 3c
       0.04318261 0.09555717 -0.08891856 0.019783339
000050 28 05 ce 3c 39 73 0e 3e b2 e9 9c bc ce 72 38 bd
       0.025148943 0.13911141 -0.019154403 -0.04503136
000060 86 8c 85 bd a3 ef a9 3d bf 52 0b be e5 75 48 be
       -0.06520943 0.0829766 -0.13605784 -0.19576223
000070 2f 5f 59 3d f8 ac 62 3d 1b db 67 bd 1d ef 65 bc
       0.05306929 0.055340737 -0.05660544 -0.01403406
000080 02 f6 7e bd 41 ab fe 3d a6 91 cc bd e5 7a a2 3d
       -0.06224633 0.12435008 -0.09988718 0.079335965
000090 26 77 fd bc 56 67 40 3d 4f ca 2d 3d 12 fc 01 3d
       -0.030940603 0.04697355 0.042429265 0.031734534
0000a0 cc 51 08 3d 36 a2 35 be 12 6c 83 bd 17 5e 7f 3d
       0.033281133 -0.1773766 -0.06417097 0.06234559
0000b0 98 d5 5e bd dc 06 0f be 5d 8e 8a 3d 90 f8 2e bc
       -0.054402918 -0.1396746 0.06765435 -0.010679379
0000c0 e6 e4 ea 3d 9d 25 2c 3e e8 d0 ba bc 0c 48 10 3e
       0.1146944 0.16811223 -0.022804692 0.14089984
0000d0 b6 b1 03 be c1 4e 18 3e 58 dc 10 be 37 b1 15 bc
       -0.1286076 0.14873792 -0.14146554 -0.00913649
0000e0 c7 ce eb bd 3c 3c cb 3d be 99 18 3d 26 99 da bd
       -0.11514049 0.09923598 0.037255995 -0.10673742
0000f0 65 bb ff bd db 86 fd 3d e3 29 ed bb 60 3c 72 bd
       -0.124869145 0.12379237 -0.0072376593 -0.05913961
000100 8d 9a bb bd b2 98 1f 3b 88 2e 0d 3e d2 4c 60 bb
       -0.091603376 0.0024352488 0.13787282 -0.0034225476
000110 21 9a 29 3d 8e 1f b7 3d 97 bd ae bd 4c 7a 23 39
       0.041406754 0.089415655 -0.08532255 0.0001559045
000120 61 26 f2 3d 8a 2e 34 bb 62 4c 06 be 49 55 53 be
       0.118237264 -0.002749356 -0.13115075 -0.20638002
000130 90 1e a8 bd 25 87 a0 bd 02 04 25 3e 3e 7d 4d 3e
       -0.08208954 -0.07838277 0.1611481 0.20067307
000140 85 44 e8 3d 1b 50 7d bd a4 f1 9c 3d a0 de d5 bc
       0.11341194 -0.061843973 0.07663277 -0.026107132
000150 d1 8b d9 bd 8b 71 0b be 7b 08 a6 3d 6e 0e b1 3c
       -0.10622371 -0.13617532 0.08107086 0.021613326
000160 99 f3 0a 3e a8 8c 1d be 71 c1 47 bb c0 84 21 3e
       0.13569488 -0.15385687 -0.003048029 0.15773296
000170 72 8e 58 be 00 b6 25 3c 44 e4 9b bd c3 df b4 bd
       -0.21148089 0.010114193 -0.076118976 -0.08831742
000180 fd a7 f6 bd 99 37 6f 3d de 11 bb 3d ed 2b b9 39
       -0.1204376 0.05840263 0.09134267 0.00035318677
000190 65 e1 06 bd a7 59 c9 3d 21 36 2d 3e 54 95 79 3d
       -0.032929797 0.09831553 0.1691518 0.060933426
0001a0 75 e1 cf 3d d0 4e a8 bd 18 2b c9 3d 1d c2 aa 3d
       0.101504244 -0.08218157 0.098226726 0.083378054
0001b0 06 94 bd bd a9 fe 0b be 8d 7a af 3d cc 45 d8 3d
       -0.09256749 -0.13671364 0.085682966 0.10560188
0001c0 b0 7c a4 bd b4 6f d7 3c 5a 23 ec bd 8d 18 18 3e
       -0.08031595 0.026298381 -0.1153018 0.14853115
0001d0 3c 50 37 bd b9 f1 98 bd ba 38 16 3e a2 52 e4 3d
       -0.04475425 -0.0746798 0.14670077 0.111485735
0001e0 3e ca 34 3e 25 53 d2 bd be 20 e6 bd 61 81 e0 3d
       0.17655274 -0.10269765 -0.11236714 0.10962177
0001f0 33 70 58 bd b0 9f d0 bc a0 69 cf bc f4 c1 6d bd
       -0.052841377 -0.02546677 -0.02531892 -0.058046296
000200 da 76 f1 bd 56 50 e9 3d 14 6b 90 3d 88 15 52 bd
       -0.11790247 0.11392276 0.070516735 -0.051290065
000210 d1 e9 1e 3e 89 b7 d4 3d 06 b4 e3 3d 4b 08 35 be
       0.15518881 0.10386569 0.11118321 -0.17678945
000220 49 ae 46 be 35 3c 12 be e0 8e 99 3b d4 4d 18 bd
       -0.19402422 -0.1428078 0.0046862215 -0.037183598
000230 3f 7b 2f bd 60 7a ee bd 60 d0 30 bc f7 33 06 3e
       -0.042842146 -0.11644435 -0.010791868 0.1310576
000240 4c 1e e3 bd 18 bb dd 3d 44 32 29 3d 08 6e ec 3c
       -0.11089763 0.10826701 0.041307703 0.02886106
000250 45 9a c8 bd 00 d3 45 3a a0 47 2c bd 7d 40 9a bd
       -0.097950496 0.0007546395 -0.042060494 -0.075318314
000260 08 1f cf 3c b3 1a ab bd a1 ba 31 3e 70 08 94 3d
       0.025283352 -0.08354702 0.1735635 0.07228172
000270 f9 7c 23 3e 7c 99 a9 bd 7c 22 7a 3d 44 6e a8 bd
       0.15965642 -0.08281228 0.061068043 -0.082241565
000280 ee d9 d2 3d 1d 35 25 3e 1f 11 0a 3e ec e2 da 3d
       0.10295473 0.16133542 0.13483094 0.10687813
000290 7e 84 f0 bd e3 3f 19 3e eb ce 15 be 6a 5e 5d bc
       -0.11744021 0.14965777 -0.14629714 -0.01351128
0002a0 7d bc 22 be 30 40 0d 3c bc 19 d4 bd 98 3f ba bd
       -0.15892215 0.0086212605 -0.10356471 -0.09094161
0002b0 a9 11 86 bd a0 99 82 3d 3c 14 f7 3d f8 ce 7f 3d
       -0.06546337 0.06376958 0.12064406 0.06245324
0002c0 d5 e7 3e be 84 4e 59 3d 22 8d e8 3d c3 8c 1e be
       -0.18643124 0.053053394 0.11355044 -0.15483384
0002d0 4b 05 21 3d 29 a5 07 3e 45 6a 34 3e 00 df 31 bc
       0.03931169 0.13246597 0.17618664 -0.01085639
0002e0 1c 6c fa bd 0a 11 a4 3d 83 b6 17 3e 4c 4c 29 3d
       -0.122276515 0.080110624 0.14815716 0.041332528
0002f0 9e b2 02 be e0 07 43 3d ba c0 c1 bd eb e9 1b bd
       -0.1276345 0.047614932 -0.09460588 -0.03806488
000300 ad 9d 00 be d7 0f 29 3e 5e 24 18 be b1 c3 0f be
       -0.12560149 0.16509949 -0.14857623 -0.14039494
000310 14 78 57 3d cd a2 18 3e 0f 5a 1b 3e 97 51 b2 3d
       0.05260475 0.14905854 0.15171073 0.08706968
000320 34 c8 06 bd 7e 79 fb 3d 19 d1 a2 bc e5 3d b5 bd
       -0.032905772 0.12279032 -0.019875096 -0.08849696
000330 22 01 b5 3d bc 76 f4 bd c8 53 f0 bc 80 e4 da 3b
       0.08838107 -0.11936709 -0.029336825 0.0066800714
000340 cc ab ec bd e3 d8 19 be e8 24 c7 bd 46 ae 29 be
       -0.11556205 -0.15024142 -0.09723836 -0.16570386
000350 db 00 0e 3e e8 47 10 3d ce 97 2d be 4d 3b 21 3e
       0.13867514 0.035224825 -0.1695244 0.15745278
000360 61 9a 85 bd 40 b6 b2 3c 33 d4 b0 3d 96 8c 2c be
       -0.06523586 0.02181542 0.08634224 -0.16850504
000370 28 7b 85 bd 9a 46 d2 3d 10 93 9f bd e8 0d 1f bd
       -0.06517631 0.102673724 -0.07791722 -0.03883162
000380 0b 8a ad 3c 2c ff 85 3d 6c f9 2c be da 0a e3 bd
       0.021183988 0.06542811 -0.16892022 -0.11086054
000390 2d c9 23 3e e5 46 08 3e 1b b6 2e 3e 35 cf 96 3a
       0.15994711 0.13308294 0.17061655 0.0011505844
0003a0 36 6d c0 bd 60 6a a0 3c ed db a8 3d e0 04 52 3c
       -0.0939583 0.019581974 0.082450725 0.012818545
0003b0 59 6e 6b bd e4 cf 15 bc 36 31 ce bd b4 02 12 be
       -0.057478283 -0.009143803 -0.1006798 -0.14258844
0003c0 ae 16 ef 3d 14 88 4b bd 50 14 5c 3c 60 a1 46 bd
       0.11674248 -0.04969032 0.013432577 -0.048493743
0003d0 39 ee e0 bd e2 73 a2 bd 11 46 8f bd 8a 3a bc 3d
       -0.10982937 -0.07932259 -0.06995786 0.09190853
0003e0 5d 3c cf bd da 95 a5 3c 12 94 0b be 80 6e 2e be
       -0.10118935 0.020213056 -0.13630703 -0.1703434
0003f0 42 50 6e 3d 90 3b f3 bc 83 bc ce bd da 35 1b be
       0.05818201 -0.029691488 -0.100945495 -0.15157261
