app/src/main/assets/model25.tflite (tflite, 722480 bytes, 15 tensors)

sequential/dense/BiasAdd/ReadVariableOp f4 [512]
00000000: 67b6 903b 07b9 36bb 0000 0000 627a 783b
00000010: 93d9 343b c00d 35bb 0000 0000 0000 0000
00000020: 9f00 053b 0d25 beb9 0000 0000 0000 0000
00000030: 2229 fe3b 0000 0000 0000 0000 afc4 fb3b
00000040: 41e5 a33b 0000 0000 c41d b6bb 0c1b 9fb6
00000050: 19b1 513b 0db9 8f3b 0000 0000 2bd0 923b
00000060: 0130 3fba 185e 30bc 6073 483b e5ca d038
00000070: ebad b73b 4c1c 95bb 0000 0000 0000 0000
00000080: 1134 113c 7f70 94bb 0000 0000 ebf1 253c
00000090: b992 6dbb 26cd 953b f4df 2138 0000 0000
000000a0: 5d1f c139 e874 24bb aadd 26bb 32c4 8fbb
000000b0: ee33 faba f0c0 d13b 0000 0000 1223 3ebb
000000c0: 289d 193b 84fe a138 07cd f83b a214 e93b
000000d0: 0bec 953a f254 7e3b bce0 df3a 77ab ae3a
000000e0: 0000 0000 0000 0000 82b7 70bb ea69 f7ba
000000f0: a009 ed3b 5c67 913b f6bc a23b 0308 66ba
00000100: 5dc3 1e3c f33c 0c3c a021 1bbb cc31 e13b
00000110: 0000 0000 40f8 3f3c 3555 b8bb 0000 0000
00000120: 256c 8a3a 0000 0000 2561 be3b 48c6 48ba
00000130: 26f8 073c 0000 0000 7320 673b 229a a83b
00000140: 0000 0000 0082 423c 0000 0000 10b5 c33b
00000150: 34ed 1bbb 0000 0000 4899 a63b e14b 3f3a
00000160: e44c ee3a 522e 02bb 0000 0000 3849 cd3b
00000170: 0000 0000 0398 a139 f9b2 0c3a 93b9 553b
00000180: 0000 0000 0000 0000 33aa 9bb9 019e af3b
00000190: 0000 0000 5847 b73b 0000 0000 3716 05b9
000001a0: 0000 0000 495a d53b 2484 3a3b 2d0b 5f3a
000001b0: 552f e03a 3255 a3bb 0000 0000 0000 0000
000001c0: af0e a939 5799 0e3b 1e4f 573b a54f a43b
000001d0: 78df 003b 0000 0000 3285 743b 8a25 aabb
000001e0: c502 b83b c611 a63b df0e c1bb 2f80 2e3c
000001f0: 1c36 873b 6a2f 733b 0000 0000 0000 0000
00000200: 0000 0000 8e52 afba bd1d 42bb fe99 4dbb
00000210: 4edb 2cb9 74ae 1cbb 38ce cc3b 0000 0000
00000220: 0000 0000 84fe 223b 3733 2d3c 01c8 583b
00000230: 0000 0000 1c2d 8bbb 9e0b 293c 23b9 9abb
00000240: 3884 073c 654a e13b cbe0 143a 05b0 a63b
00000250: a301 813b 1c44 efb9 d8d5 893a 0000 0000
00000260: 1dc5 44bb 0000 0000 bf3a 083b 4405 c93b
00000270: 0000 0000 9ee4 5eba 3786 7d3b 0000 0000
00000280: 0000 0000 8e61 d2b9 5854 243b 0000 0000
00000290: 0000 0000 67c6 1d3c e75b 15bb 4c4e 903b
000002a0: 0000 0000 0000 0000 5abb d13a 8546 a13b
000002b0: bc92 73b9 0000 0000 0000 0000 ef88 7d3b
000002c0: be75 463b a055 3a3b 0000 0000 5b83 f03b
000002d0: c410 373c 6b33 32bb c54c 983b 7358 60bb
000002e0: f892 133c e555 5ebb 545b 4fbb 8495 613a
000002f0: e5ef 7ebb 78d9 babb 4ff5 d33b b06a a3bb
00000300: 7a27 1a3b 0000 0000 3c10 e5b9 7a82 c93b
00000310: 245c bcbb 530b 3d3b 2c74 da3b 0000 0000
00000320: 2b91 9e3b 93d8 723a 6332 303b 0000 0000
00000330: b51f 0a3c 449d 953b ff6e d4ba 65dc 6b3a
00000340: 0000 0000 a6db 593b 0000 0000 a280 e33a
00000350: 0000 0000 49aa 5a3b 0000 0000 cd4c 4dba
00000360: 3755 ed3a 952e bf3a 6c1d 42ba 07a8 663a
00000370: a206 c63b 0000 0000 e483 8c3a 0000 0000
00000380: 0000 0000 83bd c33b 2e49 a43a 0000 0000
00000390: bf64 153c 87a8 d4ba 00c5 233c b4b6 7e3b
000003a0: e2dd aa3a 110c de3b 7d47 4abb 0000 0000
000003b0: 0000 0000 488b dd3b 0000 0000 8a13 f93b
000003c0: 0000 0000 4e81 1b3a 7b57 8a3b 0000 0000
000003d0: 0000 0000 0000 0000 86e2 b93a abed 783b
000003e0: b986 e63a 3e63 e3bb 52d6 d53a 0000 0000
000003f0: 0000 0000 b2a7 28bb 571b 93ba b1b4 5e3b
0.0044162753 -0.002788128 0.0 0.0037914743 0.0027595505 -0.0027626604 0.0 0.0
0.002029456 -0.0003626723 0.0 0.0 0.0077563683 0.0 0.0 0.0076833586
0.0050016944 0.0 -0.0055577476 -4.741718e-06 0.0031996428 0.0043860734 0.0 0.004480382
-0.0007293225 -0.010764621 0.0030586347 9.956005e-05 0.0056054494 -0.0045504924 0.0 0.0
0.008862511 -0.004530012 0.0 0.0101284785 -0.0036250784 0.0045715747 3.8593964e-05 0.0
0.00036835196 -0.0025094096 -0.0025461712 -0.004387402 -0.0019088963 0.006401174 0.0 -0.0029012603
0.002343962 7.7244855e-05 0.0075928005 0.0071130553 0.0011438144 0.0038807956 0.0017080526 0.0013326247
0.0 0.0 -0.0036730473 -0.0018876169 0.0072338134 0.00443737 0.0049663736 -0.00087749976
0.009690133 0.008559453 -0.0023671165 0.0068723913 0.0 0.011716902 -0.005625392 0.0
0.0010560794 0.0 0.0058099204 -0.0007658941 0.008298909 0.0 0.0035267144 0.005145327
0.0 0.011871815 0.0 0.005972512 -0.0023792507 0.0 0.0050841905 0.00072973786
0.0018180874 -0.0019864035 0.0 0.006264832 0.0 0.0003082157 0.0005367245 0.0032611832
0.0 0.0 -0.00029690712 0.0053594117 0.0 0.0055932216 0.0 -0.00012692144
0.0 0.006511007 0.002846011 0.000850844 0.001710395 -0.0049845213 0.0 0.0
0.00032245132 0.0021758878 0.0032853554 0.005014377 0.0019664448 0.0 0.0037310836 -0.0051924633
0.0056155645 0.0050680367 -0.0058916654 0.010650679 0.0041263234 0.0037107118 0.0 0.0
0.0 -0.0013376044 -0.0029619776 -0.0031372304 -0.00016484896 -0.0023907693 0.006250169 0.0
0.0 0.0024870941 0.010571293 0.0033078196 0.0 -0.004247321 0.010317711 -0.004721777
0.0082712695 0.0068753236 0.0005679249 0.005086901 0.0039369627 -0.00045636378 0.0010516001 0.0
-0.0030024715 0.0 0.0020786969 0.006134661 0.0 -0.00085026945 0.0038684735 0.0
0.0 -0.00040127005 0.0025074687 0.0 0.0 0.009629822 -0.0022790374 0.004403865
0.0 0.0 0.001600127 0.0049217367 -0.00023228949 0.0 0.0 0.0038686355
0.0030282582 0.0028432384 0.0 0.0073398775 0.011173431 -0.0027191292 0.0046478235 -0.0034232407
0.009007208 -0.003392571 -0.003164013 0.00086053484 -0.0038900313 -0.005702194 0.006468452 -0.0049870834
0.0023522065 0.0 -0.0004369038 0.006149587 -0.0057482887 0.002884586 0.006666681 0.0
0.0048390827 0.00092638395 0.0026885502 0.0 0.008430411 0.0045658667 -0.0016207396 0.000899738
0.0 0.0033242493 0.0 0.0017357061 0.0 0.0033365658 0.0 -0.00078315736
0.0018107061 0.0014586026 -0.0007404897 0.0008798842 0.006043271 0.0 0.0010720459 0.0
0.0 0.0059735193 0.0012534016 0.0 0.009118258 -0.0016224541 0.009995699 0.0038866224
0.0013036097 0.006776341 -0.0030865364 0.0 0.0 0.0067609884 0.0 0.007601206
0.0 0.00059320487 0.0042218543 0.0 0.0 0.0 0.0014181889 0.0037983458
0.0017587758 -0.006939321 0.0016314483 0.0 0.0 -0.002573472 -0.0011223358 0.0033982212

sequential/dense_1/BiasAdd/ReadVariableOp f4 [256]
00000000: 31cb db3b ea6b 6bbb b335 c33b 65f3 ac3b
00000010: af8c 52ba a8ee 013c f363 0fba bac6 a9b9
00000020: 9281 60bb 3761 13bb 78dd c53b baeb 023c
00000030: c314 61bb 72d5 b03a cd13 baba 07c9 4b3a
00000040: aacd 65bb 0000 0000 0000 0000 414e 853b
00000050: 9725 c4bb c712 1436 fda9 af3b 89de 3cba
00000060: b51d 0439 0000 0000 b2f4 26bb 0000 0000
00000070: f4c8 a73a a17c 603b 6c19 5db9 d9d8 6abb
00000080: 448a 263c f5b4 313a 33f8 2b3b bde5 113b
00000090: 1d76 a53a e328 eb3b 0e22 a6bb 1fb8 e03a
000000a0: eaab 4f3b cbe4 ac3b 2a31 7abb 9714 68ba
000000b0: 0000 0000 0000 0000 0000 0000 9e53 83ba
000000c0: c621 4ebb 0000 0000 7d7f b5ba ef85 21bb
000000d0: 0000 0000 0000 0000 33d5 db3a 4c0d 04bb
000000e0: af19 b2ba 716f 6ab6 0000 0000 0000 0000
000000f0: bc36 eabb 711e 79b9 0000 0000 5101 973a
00000100: c694 013c 1d77 913b 8180 893b 75d6 1ebb
00000110: 0000 0000 e8d7 b5ba c0f1 c0bb a779 713b
00000120: 530f 55ba 0000 0000 c437 0ab9 193c 9b3b
00000130: 2af0 61b9 66de 293c 8c83 e73a dd3f d93b
00000140: 1445 213a 0000 0000 d0a1 8aba a537 923b
00000150: 0000 0000 f50f f53b 3f08 ca38 46a8 62bb
00000160: 4131 b13b 89fd b2b9 bdd2 eab7 0000 0000
00000170: 980d 0f3c 9633 01ba 3146 a6ba 74ed 84bb
00000180: 4b92 3ebb f4aa 17bb 6c7e 0e3c 7a85 183c
00000190: 5c88 bebb 0000 0000 7ad9 023b 1193 023c
000001a0: f75d 34bb e9b3 0f3c 9c91 7dbb b3d7 523c
000001b0: 0000 0000 e9d2 0c3a a783 00bb e770 91bb
000001c0: edc6 153c 5637 e13a b288 703b 55b5 fd3b
000001d0: 97f5 d33a 632f 553b 82c2 003a 3a95 823b
000001e0: 0000 0000 816c 303c ebb0 88b9 cbf0 1bbb
000001f0: 5a96 0dba caaa 0c3c 58f9 8f3b 19e8 23bb
00000200: ad6e c13b 6c37 0abb 0000 0000 0000 0000
00000210: 37ed 9d3b 0000 0000 d664 c83b e4ab 92bb
00000220: 0000 0000 8354 8d3b 4676 e2ba 0000 0000
00000230: bd92 1f3b 2cef 56ba 0000 0000 0000 0000
00000240: 02b5 a0bb b543 9eb9 606e 7e3b 72bb 2a3b
00000250: 0000 0000 0000 0000 0000 0000 30d6 0b3c
00000260: fb59 f4ba 47ca de39 07a8 c53b b3dc f639
00000270: 0000 0000 c21f 553b 479b 13bb 3288 c93a
00000280: 2418 31bb 0000 0000 189d 193c cc90 0dbb
00000290: 0000 0000 e897 84b7 5f75 93bb c069 643a
000002a0: ce09 c63b b2bd b73b d65c 353c 0044 de3a
000002b0: ba4b 87bb c50c 4f3b fead 9db9 ce50 1ebb
000002c0: ea62 ef3b bce4 353b 0000 0000 0000 0000
000002d0: e089 da3b b941 4cbb 6722 02ba 2056 293b
000002e0: 2ba6 2fbb 2552 5b3b 3003 0d3c 5ea2 483b
000002f0: cad2 6c3b a336 2e3b ce77 57b8 8f7a f4ba
00000300: 925e e3ba b6a8 e43a 44b1 7ebb 823c a93b
00000310: 3588 f339 ef00 0b3c 3547 e03b 0000 0000
00000320: 4fa8 8fbb f602 5d3b 3909 fb3b c484 473a
00000330: ca6e 9bb7 deeb 943b 181e adba 29e2 20bb
00000340: 0000 0000 6f2f f63b 0000 0000 0000 0000
00000350: 76db 1f3b 8572 b23b 0000 0000 0000 0000
00000360: e82e 7dbb 411e 333c 0000 0000 65fb a638
00000370: 2c20 edba 13f2 70bb a7ea cbba 6cb5 af3b
00000380: b381 44bb 7492 d93a 35c7 c63a 0000 0000
00000390: 0000 0000 a3d8 fb38 a0b5 ec3b 0000 0000
000003a0: 7fd1 7ab9 0000 0000 4f9c 883b 26f5 053c
000003b0: 0000 0000 0000 0000 1db6 703b f5f1 a73b
000003c0: 0000 0000 0000 0000 e50d b1ba 0000 0000
000003d0: cb19 fcbb c6e6 dc3b ceb1 873a 1a00 a73a
000003e0: 8e2d deb9 8aea e3ba bddc f7b9 0000 0000
000003f0: 0000 0000 0000 0000 1d34 ca3b 0000 0000
0.006707572 -0.0035922476 0.005957329 0.0052780383 -0.0008031828 0.007930435 -0.00054699107 -0.00032382255
-0.0034256917 -0.0022488364 0.006038364 0.007990772 -0.003434465 0.0013491346 -0.0014196575 0.0007773791
-0.0035065212 0.0 0.0 0.0040681665 -0.0059859264 2.2064648e-06 0.0053608404 -0.0007204791
0.00012599568 0.0 -0.002547544 0.0 0.0012800978 0.0034253972 -0.00021085673 -0.0035834818
0.010164801 0.0006778979 0.0026240468 0.0022262179 0.0012623701 0.007176505 -0.0050699776 0.0017144716
0.0031688162 0.0052762977 -0.0038176277 -0.0008853166 0.0 0.0 0.0 -0.0010019427
-0.0031453236 0.0 -0.0013847199 -0.002464648 0.0 0.0 0.0016771912 -0.0020149527
-0.0013587977 -3.4933585e-06 0.0 0.0 -0.007147638 -0.00023757831 0.0 0.0011520778
0.0079090055 0.0044392482 0.004196227 -0.0024236713 0.0 -0.0013873549 -0.005888194 0.0036846192
-0.00081275887 0.0 -0.0001318148 0.004737389 -0.0002154714 0.010367965 0.0017663105 0.0066299275
0.0006151956 0.0 -0.0010576788 0.0044621998 0.0 0.007478709 9.6336466e-05 -0.0034585162
0.005407483 -0.00034139704 -2.7993106e-05 0.0 0.008731268 -0.00049286464 -0.0012685714 -0.004056627
-0.0029078897 -0.0023142667 0.0086971335 0.009309167 -0.005814595 0.0 0.0019966052 0.007969634
-0.0027521828 0.008770921 -0.0038691526 0.0128688095 0.0 0.0005372004 -0.001960972 -0.004438508
0.009141666 0.0017182629 0.003670257 0.0077425637 0.0016171214 0.0032529465 0.00049117964 0.0039850743
0.0 0.010768057 -0.00026071756 -0.0023794647 -0.0005401127 0.008585641 0.0043937378 -0.0025010167
0.005903086 -0.0021090163 0.0 0.0 0.004819538 0.0 0.006115536 -0.0044760574
0.0 0.004313053 -0.001727768 0.0 0.0024348937 -0.00081990915 0.0 0.0
-0.0049043903 -0.00030186554 0.0038823113 0.0026051668 0.0 0.0 0.0 0.008534953
-0.0018642539 0.00042493848 0.0060319933 0.0004708521 0.0 0.003252015 -0.0022522972 0.0015375672
-0.0027022446 0.0 0.009375833 -0.0021601198 0.0 -1.5806363e-05 -0.0045000757 0.0008713268
0.0060436493 0.0056073302 0.011069497 0.0016957521 -0.0041289004 0.0031593305 -0.00030075008 -0.002415705
0.0073054926 0.0027754745 0.0 0.0 0.006669268 -0.0031167103 -0.0004964233 0.0025838688
-0.0026801925 0.003346571 0.008606717 0.0030614357 0.0036136382 0.002658286 -5.137157e-05 -0.0018652248
-0.001734691 0.0017445299 -0.0038862983 0.005164684 0.00046450054 0.008484109 0.006844426 0.0
-0.0043840776 0.0033723689 0.0076610115 0.0007611031 -1.852903e-05 0.004544719 -0.0013207821 -0.0024548864
0.0 0.0075129787 0.0 0.0 0.0024392284 0.0054457807 0.0 0.0
-0.0038632695 0.010932506 0.0 7.962323e-05 -0.0018091253 -0.0036765381 -0.0015557603 0.0053622033
-0.0029984533 0.0016599433 0.001516557 0.0 0.0 0.000120089644 0.0072238 0.0
-0.00023919901 0.0 0.004169024 0.008176124 0.0 0.0 0.0036729642 0.005125279
0.0 0.0 -0.0013508169 0.0 -0.0076935044 0.0067413775 0.0010352673 0.0012741119
-0.0004237708 -0.0017388624 -0.00047275974 0.0 0.0 0.0 0.006170763 0.0

sequential/dense_2/BiasAdd/ReadVariableOp f4 [128]
00000000: b2aa 0c3b 7aa3 843a ae26 e73b c08b b638
00000010: 9b60 64ba 0000 0000 9f17 643b c1b7 0b3c
00000020: 0000 0000 c874 ccba 0000 0000 d73e 39bb
00000030: 3439 fa38 b534 54ba 0000 0000 fc35 90bb
00000040: 7ca2 0d3b fd0a 783b 4623 d9bb 8a25 9fbb
00000050: 0000 0000 c2f6 983b dd01 933a c5dc 54ba
00000060: db1f aab8 3f46 573b 0000 0000 0000 0000
00000070: eaf1 64bb ed8f a73b ce74 013b e2c2 d13b
00000080: d8b0 97ba 27a2 413b 7c04 a5b9 84a4 d33b
00000090: 0000 0000 e8e3 e13b 0000 0000 21f3 17ba
000000a0: b322 983a bd98 823b 0db5 d5b8 2c4f daba
000000b0: ab3a a83b 52ba 69bb f0a7 4db9 0640 7a3b
000000c0: f323 143b 849d b73b 725e 6fbb b753 2839
000000d0: c457 153a 8e1b f53b 51ee 3c3b 1eeb 88ba
000000e0: 6115 10bb a4fd b73b af9a d6bb 7377 d0ba
000000f0: 0000 0000 f340 72ba 0000 0000 f4b7 86bb
00000100: 0000 0000 0110 dfb9 f7bc ffba 5540 d53b
00000110: 1d51 f23b 0000 0000 af3d cbbb 9c18 ab3b
00000120: 0000 0000 0000 0000 025b 2eba 3f07 8bb8
00000130: ffef d13b 091c b539 03cf 49ba adfa bcba
00000140: 0c5c d4ba 3c3b 3cba d54a 823a 18ff a83b
00000150: 0000 0000 ab1e 87ba 4127 70bb b728 67ba
00000160: 238a 813a 0000 0000 6e28 313b 0000 0000
00000170: 0000 0000 c673 0a3c b5db 82bb 7503 86bb
00000180: 413e 9cb9 0000 0000 66e8 85b9 0000 0000
00000190: cd6f a53b 59ed 30ba 0000 0000 0000 0000
000001a0: 0000 0000 2783 013c daff fd3b b6fd 3d3a
000001b0: 5175 e83a 0b77 7f3b 2de8 cc39 1e0c 32ba
000001c0: 795d ed3a f671 a53b 723e ffbb cfda 873b
000001d0: 3286 bebb e8e5 a23b c22d 52ba 0000 0000
000001e0: ff87 023c 0000 0000 812e 96b9 130b cab9
000001f0: 9caa ae3b 09a4 7bbb 36e9 08bb 0063 ba3b
0.0021464047 0.0010119521 0.0070541715 8.704467e-05 -0.0008711905 0.0 0.0034804118 0.008527697
0.0 -0.0015598768 0.0 -0.0028266215 0.00011931584 -0.0008095012 0.0 -0.0044009667
0.002161174 0.0037848346 -0.0066265194 -0.00485677 0.0 0.0046680877 0.0011215765 -0.00081200554
-8.112165e-05 0.0032848266 0.0 0.0 -0.003493423 0.005113593 0.001975346 0.0064014057
-0.0011573089 0.0029546113 -0.00031474594 0.006458821 0.0 0.0068936236 0.0 -0.0005796422
0.0011607021 0.003985493 -0.00010190355 -0.0016655675 0.005133947 -0.0035664034 -0.00019612885 0.0038185134
0.0022604435 0.005603494 -0.00365248 0.00016052915 0.0005696977 0.0074800914 0.002882857 -0.0010446047
-0.00219854 0.005614953 -0.0065492014 -0.0015904739 0.0 -0.00092412456 0.0 -0.0041112844
0.0 -0.00042545798 -0.0019511272 0.006507913 0.0073949234 0.0 -0.0062024216 0.0052214395
0.0 0.0 -0.00066511345 -6.629386e-05 0.0064067836 0.00034543898 -0.00076983887 -0.0014417969
-0.0016201749 -0.00071804575 0.0009940515 0.0051573627 0.0 -0.0010308822 -0.003664449 -0.00088180177
0.0009883087 0.0 0.0027032155 0.0 0.0 0.008450454 -0.0039934763 -0.0040897676
-0.0002980102 0.0 -0.00025540887 0.0 0.005048728 -0.0006749235 0.0 0.0
0.0 0.007904804 0.007751447 0.00072475837 0.0017735158 0.0038980867 0.00039082897 -0.0006791967
0.0018109522 0.0050489856 -0.0077894265 0.004145957 -0.005814337 0.0049712546 -0.00080176827 0.0
0.007966994 0.0 -0.00028644878 -0.00038536693 0.005330397 -0.0038397333 -0.0020890958 0.0056880713

sequential/dense_3/BiasAdd/ReadVariableOp f4 [64]
00000000: ce7e c4bb 0208 53bb e170 103a 128c 6fbb
00000010: 2d7e 7639 0000 0000 7fe6 5b3a cd12 423b
00000020: 0000 0000 81f8 ad3b 835e 9339 1de4 fb3a
00000030: f577 bf39 8d6f ae3b 0000 0000 0000 0000
00000040: c274 ebbb 0000 0000 856c 503b 10e6 1cba
00000050: 943f 60b8 f79e c53a 2a5e 8f39 518f 083b
00000060: dcfa ab3b 9468 b5b9 2c01 633a 2683 3b3b
00000070: ab3f 0fbb 55ed 9e3b 0000 0000 0000 0000
00000080: 7c01 373b 46fd c53a 69ba 97bb 077d ad3b
00000090: a5e4 43ba 0000 0000 5b87 85ba 0000 0000
000000a0: 0000 0000 7d67 63bb cae8 9a3b 6faa 7b3a
000000b0: 9360 7dbb cb7f a93b f2ac ab3b 0000 0000
000000c0: e0be a7bb 0000 0000 723d 2dbb f77b cc3b
000000d0: 24bb adb9 a8d6 603b ea51 d2b8 d8c7 063b
000000e0: 0000 0000 c654 be3a 95ee bf3a ec8a 81ba
000000f0: 022b f63b 5292 013b 3bc5 763b 89a0 2abb
-0.0059965616 -0.0032200818 0.00055099843 -0.0036551994 0.00023507392 0.0 0.00083885336 0.0029613257
0.0 0.005309165 0.00028108442 0.0019217763 0.00036519734 0.0053233565 0.0 0.0
-0.0071855495 0.0 0.0031802964 -0.000598521 -5.3464973e-05 0.0015077282 0.00027345243 0.0020837376
0.0052484106 -0.00034600927 0.00086595374 0.0028612106 -0.0021858017 0.0048500695 0.0 0.0
0.0027924469 0.0015105389 -0.004630376 0.0052944454 -0.00074727304 0.0 -0.0010187434 0.0
0.0 -0.0034699135 0.0047274577 0.0009600287 -0.00386623 0.005172705 0.0052391225 0.0
-0.0051191896 0.0 -0.002643433 0.0062403637 -0.00033136562 0.0034307633 -0.00010028838 0.0020565894
0.0 0.0014521114 0.0014643247 -0.0009883321 0.007512451 0.0019771052 0.003765418 -0.0026035628

sequential/dense_4/BiasAdd/ReadVariableOp f4 [32]
00000000: 0000 0000 78de 573b 4afa ab3b 4322 a9bb
00000010: 0000 0000 d81d d53a 7b91 9b3b 019a 3f39
00000020: 8268 d03b 0000 0000 6786 a83b 2db7 82bb
00000030: a40d d13a 0000 0000 b275 553b 292d 83ba
00000040: e087 77ba a8ca f53a 8b6d 92bb 14a2 72ba
00000050: 74c8 143b d653 31bb 0000 0000 f768 95b9
00000060: 5713 e4bb 056d d03b ec84 a1ba e7d0 d0b9
00000070: 0000 0000 7708 623b 0000 0000 0000 0000
0.0 0.0032938998 0.0052483426 -0.005161555 0.0 0.0016259504 0.004747567 0.0001827255
0.0063601146 0.0 0.005142975 -0.0039891214 0.00159495 0.0 0.0032571373 -0.0010007966
-0.0009442549 0.0018752413 -0.004468625 -0.0009255719 0.0022702487 -0.0027058027 0.0 -0.000284977
-0.0069603133 0.0063606524 -0.0012322939 -0.00039828496 0.0 0.0034489909 0.0 0.0

sequential/dense_5/BiasAdd/ReadVariableOp f4 [16]
00000000: 1eb9 40b9 c8a2 b03b 8ddb b33b 74c0 ee39
00000010: 6514 a7ba 5c5b 8cbb ba38 de3b 028a 88bb
00000020: b303 873b 0000 0000 7943 afbb b2c9 adbb
00000030: 2219 d1ba 0000 0000 2ce4 8dba 781d 973b
-0.00018379508 0.005390499 0.005488819 0.00045538286 -0.0012747167 -0.004283352 0.0067816647 -0.0041668424
0.004120314 0.0 -0.0053486195 -0.005303585 -0.0015952925 0.0 -0.0010825447 0.0046116672

sequential/dense_6/BiasAdd/ReadVariableOp f4 [8]
00000000: 0000 0000 3fec 0b3c 0000 0000 0000 0000
00000010: 015a 9f3b 139f 9f3b 8ed8 9abb 08fd 1ebb
0.0 0.008540212 0.0 0.0 0.004863024 0.004871258 -0.0047255224 -0.0024259705

sequential/dense/MatMul f4 [512, 8]
00000000: e4dc 04bc 1101 0d3d 2729 7abd b30a 3f3d
00000010: da8c cf3d 9b23 8dbd 165e cbbd 3558 303d
00000020: 6833 a03d 8466 9cbd 70a6 82bd 0ce6 e43b
00000030: 91fc a5bc 5b1b 6d3a bab0 cc3c 9bff f73a
00000040: 7781 cbbd 70ea d33b 6e77 04bd 4898 b6bc
00000050: 855f d6bd ec9d cd3c 604b 573b aac5 1d3d
00000060: 1f82 673d 1972 cf3d fa5f 483d 7361 893d
00000070: 1b27 22bd e995 9dbd 9776 a73d 19bb 6dbd
00000080: f9d2 2b3d 3fc9 c83d 9b7a 1d3d 5c95 6ebd
00000090: 73c7 483d 0eda 94bd 7e15 9a3d 5aa4 c13d
000000a0: d7e7 54bd 38f8 3f3d 6a21 b13c af5f a2bc
000000b0: 546a d7bc f0b9 d6bd 3ddd c4bd 74b2 913d
000000c0: 9c92 ae3c b844 4abd 5cdb bdbd b8a1 41bc
000000d0: 69a1 a03d 4a62 a0bd 40fa 573b 3d11 4abd
000000e0: 8331 aebd e4fc fdbc 807b 613b 32b4 d9bd
000000f0: aca8 17bd e0bc 153b d409 e4bc ffe3 b43d
00000100: 900a 823c de1c 7d3d c98d 183d d326 5e3d
00000110: 5307 9ebd 62ff 09bd 92a0 b8bd ef82 ec3c
00000120: 3929 5bbc 9445 85bc acb6 6dbd 7931 8f3d
00000130: d565 3bbd 36a0 04bd fe9d 90bd db2d 2e3c
00000140: d913 3fbd 4440 bcbc a8ba a4bc 009c b63a
00000150: 70f3 eabb 5fd2 883d 0000 30bb 2b7e cebd
00000160: 30e4 35bd 0254 babd d410 f7bc 5c11 b7bd
00000170: 5edb a9bd 6082 143b f8cd c8bc 9c2d b0bd
00000180: a14c b13c bcf1 7a3c 99d0 813d 79b7 8b3c
00000190: 99cf 0b3d 3e04 2d3d 8d49 3e3d 4c10 5e3d
000001a0: f068 73bc b9c2 4cbd a024 cfbd ec51 be3c
000001b0: ca82 003d 7997 d8bd 8025 ac3a ac94 b4bc
000001c0: b60c 8abd bd33 8dbd 2a44 b5bd c08c 353c
000001d0: 7887 313c c863 81bd 77fe a1bd 7a79 1c3d
000001e0: 1c01 b13d 0ee3 78bc ed7e bdbd 8e8b d53d
000001f0: 1739 093d ab95 963d 691a 283d e968 6b3d
00000200: 713d 193d 78c0 cf3d 0c41 aabd 964b d43d
00000210: 30c0 01bd d405 853d ba5f 87bc d5f0 cd3c
00000220: 183f 86bd a09a 913b 6cd2 cabc 94ae b0bd
00000230: 7e79 acbd 3999 b23d ba33 7d3d dc59 81bd
00000240: f79f 2fbd 234f 10bd cef4 283d 29e0 593d
00000250: 6e60 0ebd ec40 9a3d 1ceb 96bd bbeb 1ebd
00000260: 1ff5 b83d 1dd1 a8bc db52 afbd 3650 b7bd
00000270: 25c2 be3d 83e5 dcbd c702 cd3d a979 223d
00000280: c620 613d ee35 df3d 6395 c3bd 936c 8b3d
00000290: 7102 553d 3565 803d 8a3a 9d3b ddb7 823d
000002a0: 5763 9d3d 144c da3d 8cd5 c4bd 5039 bfbd
000002b0: f56b d83d 1d06 33bd 48a8 6b3c a94d b2bd
000002c0: 826e 00bd 2ee1 c0bd b04b 9d3b 300b cbbd
000002d0: 956e a83d d05b 49bc 8cda d0bc 18a6 57bd
000002e0: 3141 cdbd e1a6 343d 6fb8 c23d b00c a73d
000002f0: c8d2 583c cd7e 19bd 4590 9b3d 2020 b03c
00000300: 7dda 883d dba0 8c3d 3e96 f5bc 36e3 81bd
00000310: ba68 e43c 5c01 50bd 4d50 c1bc 8876 e2bc
00000320: 3737 a5bd 13d9 cbbd 8dc8 2f3d 449d 433d
00000330: af06 b93d a65f 28b9 c603 ac3d d357 84bd
00000340: 6a36 4d3d 2d43 873d a01c adbd 624f 8cbd
00000350: 5d5f d4bd 60ad a93d 6b89 90bd 362a 513d
00000360: 53e5 a43b c0e7 6cbc da49 cebd 84bd d33c
00000370: 2979 0e3c 1ef2 7a3d 0a4c 7c3d 65a2 9bbd
00000380: 2de6 cfbd f710 af3d f55f 38bb 9531 b93d
00000390: 45f2 f0bc d496 76bd c149 b2bc e0f1 56bc
000003a0: 3a4e 903d ed30 4c3d d7c5 763d 3fd5 d13a
000003b0: e168 d4bc 78ee 99bd a31a 5dbd 820a 13bb
000003c0: f04e 2bbd 85b7 c3bd 9551 ab3d 78d9 d8bd
000003d0: 34b8 ed3c b4b0 26bd e6be 53bd 1078 a6bb
000003e0: 04ea e03c 4265 9abd 5416 05bd 2cc7 a2bc
000003f0: a0d6 3dbb d02e 80bd b41a d9bc faaf b7bd
-0.008109305 0.034424845 -0.061074402 0.046641063 0.10134287 -0.06891557 -0.09930055 0.04305287
0.07822305 -0.07636741 -0.06379402 0.0069854315 -0.020262035 0.0009044909 0.024986614 0.0018920781
-0.09936803 0.006467156 -0.03234046 -0.02228941 -0.10467438 0.025099717 0.0032851323 0.038518585
0.056520578 0.10129184 0.048919655 0.0670804 -0.039588075 -0.07694609 0.08176916 -0.05803976
0.041949246 0.0980401 0.038447004 -0.05824791 0.049018335 -0.07268153 0.075236306 0.09455176
-0.051978912 0.04686758 0.021622378 -0.019821016 -0.026295818 -0.104846835 -0.0961251 0.07114115
0.021310143 -0.04938194 -0.09270355 -0.011818342 0.078432865 -0.07831247 0.0032955557 -0.049332846
-0.08505537 -0.031004377 0.0034405887 -0.10630073 -0.037026092 0.0022848174 -0.027836718 0.08832549
0.015874177 0.061795108 0.03724459 0.054236244 -0.07716241 -0.033690818 -0.09015001 0.028871028
-0.0133765275 -0.016268529 -0.058035538 0.06991858 -0.04575141 -0.03237935 -0.070613846 0.01063105
-0.046649788 -0.022979863 -0.020108536 0.001393199 -0.0071701333 0.0668075 -0.0026855469 -0.100826584
-0.04440707 -0.090980545 -0.030159391 -0.08938858 -0.08293794 0.0022660717 -0.024512276 -0.08602449
0.021642985 0.015316423 0.06338615 0.01705526 0.034133527 0.042240374 0.046456862 0.05421476
-0.014856562 -0.04999039 -0.101144075 0.023232423 0.03137473 -0.10575766 0.0013133734 -0.022043549
-0.06740706 -0.06894634 -0.08850892 0.011080921 0.010835521 -0.0631786 -0.079098634 0.038201787
0.0864279 -0.015190853 -0.09252725 0.104270086 0.03350171 0.07352766 0.04104081 0.057473097
0.03741211 0.101441324 -0.08313188 0.103659794 -0.031677425 0.06495252 -0.016525138 0.025139252
-0.06555003 0.0044434816 -0.02475854 -0.08627048 -0.0842161 0.08720631 0.06181691 -0.063159674
-0.042877164 -0.03523172 0.04124909 0.05319229 -0.03475993 0.07531914 -0.07369062 -0.03879903
0.09031128 -0.020607525 -0.08560725 -0.08950846 0.09314374 -0.107859634 0.10010295 0.039666805
0.054962896 0.10898958 -0.09549978 0.06807818 0.05200428 0.06269304 0.004798238 0.063827254
0.07684963 0.10659042 -0.09611043 -0.09337103 0.10567466 -0.043707002 0.014383383 -0.08706219
-0.03135539 -0.094179496 0.0048002824 -0.09914243 0.08224217 -0.012289956 -0.025494836 -0.052648634
-0.100222 0.04410446 0.09507834 0.08156717 0.013233848 -0.037474442 0.075958766 0.021499693
0.06682298 0.06866618 -0.029978868 -0.06342165 0.027881969 -0.050782546 -0.02359786 -0.02764441
-0.08067172 -0.09953513 0.04291587 0.047757402 0.09034478 -0.0001605736 0.08399157 -0.06462064
0.05010072 0.0660461 -0.084527254 -0.068510786 -0.103697516 0.08285022 -0.070574604 0.051065646
0.0050322204 -0.01445955 -0.1007268 0.025847204 0.008695879 0.061266057 0.061595954 -0.07599334
-0.101513244 0.08548158 -0.0028133367 0.0904266 -0.029412398 -0.060202435 -0.021763684 -0.013119191
0.070461705 0.049851347 0.06024727 0.0016008987 -0.025928916 -0.075161874 -0.05398048 -0.0022436683
-0.041823328 -0.09556488 0.0836517 -0.10588354 0.029018499 -0.04069586 -0.051695727 -0.0050802305
0.027455337 -0.07538845 -0.032491997 -0.019870363 -0.0028967038 -0.06258929 -0.02650199 -0.08969112

sequential/dense_1/MatMul f4 [256, 512]
00000000: 3ab0 0a3d 8727 833c b012 99bd 160f a0bd
00000010: 172d b03d 238f 5bbd bc53 0d3d 0c3f 9a3c
00000020: 9d6b de3c 470c 60bd c774 8c3d 7841 073d
00000030: c97c 5f3d b6bb 2dbd 654b a0bd 9629 3cbc
00000040: 0041 a83b 2083 d13b ebd2 39bc 82f2 e43c
00000050: 2d86 45bd db37 933d fe92 fcbc 7f6f 913c
00000060: 8b39 29bd 35a0 0dbc f973 d73c 442e 74bc
00000070: c4cb 63bd 7200 8e3d 3091 44bd 69ad 8abd
00000080: 1c6b 953d 0c17 013d b8bb 53bc 435f 8e3d
00000090: 38fb af3d f074 9d3d b758 d6bc acc5 95bc
000000a0: 2115 2fbd 04b0 4dbd 9684 1c3d 04e5 a63d
000000b0: 3e31 d3bb 2733 463d 3e35 05bd a2e0 afbc
000000c0: b0d0 04bd 8141 adbd 4876 ae3d 711f 9bbd
000000d0: f2d2 1dbc bfe1 ae3d 0cf0 853b 9b57 29bd
000000e0: 0f4e 80bd d433 de3c 1e88 483d 303e 723d
000000f0: e5c6 843d 51e0 ec3c 617d 00bd 690b 663d
00000100: c607 54bd d088 f4bc 4afc 99bd f221 83bd
00000110: 8369 943d e089 61bc 03fa 5abd ad1b 853d
00000120: 8a9f b53c 6427 b33c 4bbb 833c 26b9 913d
00000130: b621 993d 250d 9cbd 08b8 1d3d 9dc8 e43c
00000140: f3d1 aebd 542a 823d 0f70 b23d e0da 793d
00000150: ad2d dd3c 7e19 613d 6984 00bd 4d05 5cbd
00000160: 23f6 fcbc 552d 923d 988b 8abd fdb4 363d
00000170: 0b70 ae3d 5a74 4bbc 56d1 7f3d 7a0d 09bd
00000180: 8a70 693d 7c4b 90bc bc6f 04bd 5e84 713d
00000190: 5e58 063d a23c b83d 58c5 973c a74b 3b3d
000001a0: b637 6c3d f21d 953c 4889 aabd 0296 953d
000001b0: 8f7f 743d 9d6c 333c 2c6b 28bd 5fa6 7cbd
000001c0: 0ba2 45bd decc 5f3d 0ef1 4f3c bcf1 8a3d
000001d0: df00 253c fb0e a93d 5aae 8fbd 0ac8 87bd
000001e0: c89c 4c3c 3c4c 50bc 201d 05bd 7485 363c
000001f0: 8b7e 33bd 8a3e 4b3d 3585 863d f093 993c
00000200: 1642 edbc ffd3 3b3a 85c5 f9bb 3cb7 8c3c
00000210: 2f25 ccbc 5116 9ebd bbd6 0f3c 93d0 813d
00000220: 9025 3bbc 3dec 8abd 6bde 043d e7d8 9dbc
00000230: 2a01 b2bd c5f2 803d 19a4 953d 88b7 96bd
00000240: 7823 42bd 340c 06bd 3e78 c3bd b5fa adbc
00000250: 0775 02bb 72e8 533d f4cd ae3c 3403 f33c
00000260: 2542 203d ecae c53c de11 553d d299 b43d
00000270: a8c7 d9bc 05b6 603d 2484 e4bc 4752 923d
00000280: 26db 0d3d 7cdd 913d 8f22 153c 287b e63c
00000290: fa85 4b3d 06ee 93bb 170c b6bd 72b5 a93d
000002a0: a04e 67bc 6aac 083d 2622 9f3d afdd 463d
000002b0: 19d7 093d 5271 563d f476 8abd 4b18 a33d
000002c0: 0990 413d e3ee b63d 5858 8dbd 7542 a93d
000002d0: 6427 febc 4a86 1e3d 67b3 aa3d c1d6 0d3d
000002e0: 19d3 94bb 04b3 75bd f5d6 70bd d667 87bd
000002f0: 1a1c 873d db3b 783d f19a 92bd 807d 3a3c
00000300: 0d61 b63c f51a 68bd ffc0 a93d 8fc4 b43d
00000310: 9bdf 8ebd d564 933d 8ef5 713d d40f 2bbd
00000320: cd52 62bd 1dc1 1b3c 10f8 433d d1de 95bd
00000330: 3e42 74bd d08e 963d 7304 8f3d c4ae 17bd
00000340: 2058 aabd d18f 2d3d 987f b03c c0c3 7ebd
00000350: 869e 543d 5f14 183a a63b 2b3d 10be 533d
00000360: cddf 9a3c 94f5 56bc 1da6 92bc eda7 073d
00000370: ce82 da3c e0bd 5bbb b652 a4bd 65ba 9c3d
00000380: e65c 6e3d a594 233d dfdd 313d 00af d03b
00000390: b5e9 9b3d 6802 8c3c 3286 b63d 277e 79bc
000003a0: 297c c63b 84a3 2d3d 6a10 563d 665b 1bbd
000003b0: 8dd4 963d dc8b 973d cc5f c1bc 04fd 573d
000003c0: 8228 1e3d d7d3 bd3b 8d18 103d e562 ac3d
000003d0: 56ff 1b3d 4743 933d 9d10 0cbd 16d9 e03b
000003e0: e544 c1bd c299 463c 005f 8d3d 106b ca3b
000003f0: 545d 983c 1566 853d 380e c1bb a519 1cbd
0.03385947 0.016010059 -0.074742675 -0.078153774 0.0860235 -0.053603303 0.034503683 0.018828891
0.027150923 -0.05469921 0.06858211 0.03302142 0.054562364 -0.042415343 -0.0782688 -0.011484524
0.0051347017 0.006393805 -0.011341791 0.027947668 -0.048223663 0.07188388 -0.03083181 0.01775336
-0.041314643 -0.008644153 0.026300417 -0.014903609 -0.055614248 0.06933679 -0.047990024 -0.067713566
0.0729582 0.03151612 -0.012923174 0.069517635 0.08592838 0.0768832 -0.02616535 -0.018282734
-0.04274476 -0.05021669 0.03821238 0.0814915 -0.006445079 0.048388626 -0.03252148 -0.021469418
-0.032425582 -0.084597595 0.08518654 -0.07574356 -0.009632813 0.085391514 0.0040874537 -0.041343313
-0.062648885 0.027124323 0.048957936 0.059141338 0.064832486 0.028915556 -0.03136957 0.056163225
-0.051765226 -0.029850394 -0.075188234 -0.06402959 0.07246687 -0.013765782 -0.053461086 0.06499419
0.0221708 0.021869369 0.01608052 0.071153924 0.07477133 -0.076196946 0.038505584 0.027927691
-0.085361384 0.0635573 0.0871278 0.06099975 0.026999319 0.054955952 -0.031376276 -0.053715993
-0.030879086 0.07137553 -0.06764907 0.044606198 0.08517464 -0.012417877 0.062455498 -0.033460118
0.05699209 -0.017614119 -0.03233312 0.058964126 0.032799117 0.0899594 0.018526718 0.045726445
0.057670318 0.018202756 -0.083269656 0.07304002 0.05969196 0.010951188 -0.041117832 -0.0616821
-0.04825024 0.054638736 0.012691749 0.067843884 0.0100710085 0.082548104 -0.07015677 -0.06629951
0.012488551 -0.012713488 -0.03249848 0.011140216 -0.043821853 0.04962019 0.06568376 0.0187473
-0.028962176 0.0007165074 -0.007622423 0.017177217 -0.024920074 -0.077191 0.008779223 0.063386105
-0.01142253 -0.0678334 0.032438677 -0.019268466 -0.08691628 0.062963046 0.0730669 -0.073592246
-0.047397107 -0.03272648 -0.09544419 -0.02123771 -0.001990618 0.05173535 0.02133844 0.029664613
0.03912558 0.02413126 0.052018993 0.088184014 -0.026584461 0.054861087 -0.02789504 0.071445994
0.034632824 0.07122323 0.009102478 0.028134897 0.049688317 -0.0045144586 -0.08889025 0.08286561
-0.014117867 0.033367552 0.07770185 0.048551258 0.0336524 0.052354164 -0.0676097 0.07963618
0.047256503 0.08932283 -0.06901616 0.08264629 -0.031024642 0.038702287 0.083349995 0.034628633
-0.0045417664 -0.059985176 -0.05879875 -0.06611602 0.06597157 0.060603958 -0.07158459 0.011382461
0.022263074 -0.056666333 0.08288764 0.08826553 -0.06976243 0.071969666 0.05907207 -0.04176314
-0.055254746 0.009506491 0.047843993 -0.073178895 -0.059633486 0.07351458 0.069832705 -0.037031904
-0.0831759 0.042373482 0.021545216 -0.0621984 0.051908992 0.00058013754 0.041804932 0.05169493
0.018905545 -0.013120074 -0.017901475 0.03311913 0.0266737 -0.0033529922 -0.08023588 0.076527394
0.058194064 0.03993668 0.043424483 0.006368518 0.076129355 0.017090991 0.089123145 -0.015227831
0.0060572815 0.04239227 0.052261747 -0.03792896 0.073647596 0.07399723 -0.02360525 0.05273153
0.03861285 0.0057930755 0.035179663 0.084173 0.038085304 0.071905665 -0.03419553 0.006861816
-0.09436969 0.01212162 0.069028854 0.0061773136 0.01859919 0.06513611 -0.0058915876 -0.038110394

sequential/dense_2/MatMul f4 [128, 256]
00000000: ae69 023e 19c6 b9bc 416b 4bbd f1fd 5e3c
00000010: 369d 8ebd e750 48bd 6272 943d 76ae 9c3b
00000020: 4761 d13d 7c17 8e3d 58b2 95bc 5ce3 8939
00000030: c437 293d fdbd 6e3d 1ae4 dc3d 92d8 00bb
00000040: 64f6 b43d 00c2 32bc e860 823d 18cf 85bd
00000050: 4c54 113d 459b ee3d cced 3cbd 3499 8c3d
00000060: a6b4 983d 0cb3 dcbd 35e3 9f3d 4086 983d
00000070: d185 c63d 8263 433c 6a7f bfbd dfd5 393d
00000080: a716 64bd 8324 7fbd 4881 89bd 403a bab9
00000090: 6bca dc3c 2d18 c73d 964b 4bbd a177 b53d
000000a0: 5cd7 09bd fb91 d1bd df91 5bbd 1fbe f9bd
000000b0: a05d afbc 88de b73d e08b 36bc 1158 fcbd
000000c0: 5f9e 4b3d 7047 de3d da8d 183d d780 9f3c
000000d0: 0cb1 bb3d c8f8 c1bd 1d89 453b 3217 1dbd
000000e0: b8fe a33d 1578 ef3c 1424 fabd 40cb b8bd
000000f0: cbad f33c 999e 8abd 5cb4 97bd 40d1 4b3d
00000100: 6bd1 97bc 23e3 333d 3597 96bd 0f04 73bd
00000110: 509b 8cbd bd60 64bc 252e 56bb dec1 6a3c
00000120: 375e 7cbd 3870 b63d 884a dbbb eac2 a5bd
00000130: 1fc3 d6bd cbcb b93d 6f63 66bd a832 d7bd
00000140: c70c 07bd c038 7dbd b64b 813d d386 803d
00000150: 387b c3bd 75c0 933c 7173 813d 8b6f 333b
00000160: 292f 7a3b 71e6 e83d 1743 2ebd 1887 fa3d
00000170: c279 eabd 8097 f83c 392c dc3d 92ba a93d
00000180: 31a0 56bd f447 5a3d fdcc 713d be65 f2bc
00000190: 13b8 4f3d b0d2 ce3c 5a80 ac3c 143d 70bd
000001a0: 852e e9bd 4449 d7b9 5641 953d 56dd 713c
000001b0: cc8c e6bd 4290 383d 016f 0bbc 106e 4a3d
000001c0: 976a 8a3c c1ae 8f3d 1bf3 e1bd 895b 093e
000001d0: 3f5a 843d 104c 8d3d 86f8 c8bd 1a40 b73c
000001e0: e03e c23c fe2b 6ebd 5bab 63bd f27b 613c
000001f0: f918 e03c 8542 d4bd e7db 413c 6a4e 0fbd
00000200: 0af3 df3d c28f ecbd ccbe c7bd 4404 b73d
00000210: 8d3c aebd 3067 093d 5c59 d83d 60d6 dc3d
00000220: 406a e6bd 0105 3abd c8e1 b03c f86e 0cbd
00000230: 4197 b8bd c381 f93d b4ae 8cbd f09a 143d
00000240: fd14 85bd 26ba f83d 8456 07bd 2060 413d
00000250: 201b ec3c 008f 36bb 504e aabc cc41 0cbd
00000260: 588e bdbd db5f bcbd 3c91 003e 59f7 f0bd
00000270: fc13 863d ddf9 5f3c 1531 dbbd 9457 0c3c
00000280: 8e46 a7bd 8030 bebd bbff 63bc 7fcb 973d
00000290: 9816 0f3d fd58 d33d e6ed 04bd 99ba bb3d
000002a0: 801e 433d dbad b43c 1c36 203d 757b 953d
000002b0: a65c 923c 1bc0 473d 62ba c03c f125 773d
000002c0: b8e8 f43c 33f1 2d3d cce8 813d 20cb d83c
000002d0: e664 a1bd 5b7f e5bd 189e b5bd 31f7 71bd
000002e0: a869 cfbd c59d 123c c873 203d 38af fd3d
000002f0: 0d83 a23d 555f 69bd 42ca e53d 82f6 3e3d
00000300: 0663 b7ba 6de2 c23d 8841 57bc 5a68 8c3d
00000310: 082e 90bd b592 1e3c 1d5a da3d b0b2 093d
00000320: 67b7 9e3d 75ab d33d 5619 c13c 90e1 d03d
00000330: f981 1cbd bd9c f6bc 737c 3d3d 6e45 97bc
00000340: 8cb9 bf3d 70db 7ebc 98d0 513d c456 e4bd
00000350: 70ff a7bd 165b c5bb c072 00bd 7052 a7bd
00000360: 7e1a 6abd 8160 d03d 8cb7 bb3d 0a55 cc3d
00000370: 5e9f 7abd adb0 cebb 38f5 dc3d 0673 b8bd
00000380: b344 013e 3a4f 2c3d 766c 47bc 6046 2d3d
00000390: 204c f63d 9b60 a63d b879 003e 145a fcbd
000003a0: 6e38 04be 8c18 eabd 4f21 a73c 04e0 3fbd
000003b0: bc88 c7bd f83c 9c3d d98e e13d 2265 82bd
000003c0: b833 2a3d c047 fc3b 5d90 f93d c0dd 58bd
000003d0: 6c6d e23d 56da 093d a5c5 ff3d fe73 e03c
000003e0: 1687 8bbd a3d8 acbd 90ff 80bb 603b eabd
000003f0: e0af 2bbd ec1c 86bd f4e8 dbbc 4889 c53d
0.12735626 -0.022677468 -0.049662832 0.013610349 -0.06963579 -0.04890528 0.07248379 0.0047815396
0.10223632 0.06938073 -0.018273517 0.00026300072 0.041312948 0.058286656 0.107856944 -0.0019660336
0.08836058 -0.010910511 0.0636614 -0.065336406 0.035480782 0.11650709 -0.04612522 0.06865159
0.07456331 -0.10776338 0.07807008 0.07447481 0.09693492 0.01192558 -0.09350474 0.04536998
-0.055685665 -0.06229068 -0.067141116 -0.00035520084 0.02695199 0.09721408 -0.04963263 0.08860708
-0.03365265 -0.10232922 -0.05360591 -0.12194466 -0.021406949 0.08977991 -0.011141747 -0.12321485
0.04971158 0.10853469 0.037244655 0.019470615 0.091646284 -0.094712794 0.003014154 -0.0383522
0.08007568 0.029232064 -0.122139126 -0.09023142 0.029745957 -0.06768531 -0.07407448 0.049760103
-0.018532475 0.043917786 -0.07353059 -0.059330042 -0.06865561 -0.01393908 -0.0032681313 0.014328448
-0.061613288 0.08908123 -0.0066922344 -0.080938175 -0.10486435 0.090720735 -0.05624717 -0.10507709
-0.03297117 -0.0618217 0.06313269 0.06275716 -0.095449865 0.018036107 0.06320847 0.0027379717
0.0038175082 0.11372078 -0.04254445 0.12232798 -0.11449005 0.030345678 0.10750622 0.082875386
-0.052398864 0.053291276 0.059033383 -0.02958953 0.050712656 0.025246948 0.021057297 -0.058652
-0.11385826 -0.00041062583 0.072878525 0.014762243 -0.112573236 0.04505945 -0.008510352 0.04942137
0.01689653 0.070157535 -0.11032697 0.13413824 0.064625256 0.068992734 -0.09813027 0.022369433
0.023711622 -0.058147423 -0.05558334 0.013762461 0.027355658 -0.1036425 0.011832214 -0.03498689
0.10935028 -0.11550857 -0.097531885 0.089363605 -0.08507643 0.033545673 0.10563919 0.10783076
-0.11250734 -0.04541493 0.021592036 -0.034285516 -0.090132244 0.12182953 -0.068692595 0.036280572
-0.06498144 0.1214488 -0.033041492 0.047210813 0.028821528 -0.002785623 -0.020789295 -0.034242436
-0.092556655 -0.091979705 0.12555403 -0.11765928 0.065467805 0.013670412 -0.10702721 0.008565802
-0.08167754 -0.092865944 -0.013915951 0.07411861 0.034933656 0.103197075 -0.03245344 0.0916645
0.04763651 0.022055557 0.039114103 0.07298938 0.017866444 0.04876719 0.023526374 0.060338918
0.029896125 0.042466354 0.063432306 0.026464045 -0.07880573 -0.11205932 -0.088680446 -0.05907363
-0.10127574 0.008948748 0.039172918 0.12386936 0.07935152 -0.05697568 0.11220218 0.046621807
-0.0013991303 0.095158435 -0.013138182 0.06855841 -0.0704003 0.009678532 0.10661719 0.033617675
0.07749825 0.10335437 0.023571651 0.10199273 -0.03820989 -0.030104036 0.046261262 -0.018465724
0.09361562 -0.015555248 0.05122432 -0.11149362 -0.08203018 -0.006022821 -0.031359434 -0.081700206
-0.05715417 0.10174657 0.09165868 0.099771574 -0.06118714 -0.0063076825 0.10788959 -0.09006314
0.12623863 0.042067744 -0.012171855 0.042303443 0.120262384 0.08123895 0.12546432 -0.123218685
-0.12912151 -0.11430463 0.020401625 -0.046844497 -0.09742877 0.07628816 0.11013574 -0.06366946
0.04155323 0.007698983 0.12185738 -0.052945852 0.11056027 0.033655487 0.124888696 0.02739906
-0.06812875 -0.08439758 -0.0039367154 -0.11437106 -0.041915774 -0.06548485 -0.02684448 0.09645325

sequential/dense_3/MatMul f4 [64, 128]
00000000: b24f 753d c1c8 fabd cdcd c0bd 0c96 14be
00000010: 5b17 1abc 718f 1e3e fc0c 903d 11a6 81bc
00000020: 3f32 bebd 6bca 8abd 06e1 c4bd 1fa7 fb3d
00000030: 409d 34bd cab7 e6bd 1e7d b93d 16d4 c4ba
00000040: 883c 29be 12a6 cbbc a888 883d c802 f93a
00000050: c9af 023e 6b12 db3d b080 0b3e b6b7 663d
00000060: 2d01 f1bd ab4e 093e b443 6c3d a013 883b
00000070: ab2b 07be 04b6 4ebc 6fcf fb3d 4506 80bd
00000080: 78ff 203e 070b 1dbe c3c0 0fbe a037 2e3d
00000090: 25d6 d6bd 930d 83bd 5adf 57bd 1c7d 743d
000000a0: efd1 f03d 0baa a83d d726 63bd 2102 acbc
000000b0: b19e adbd 0b54 023e b1eb f83d 13d3 d63d
000000c0: af9b b23d ce63 013d 2eb8 3b3e 8d98 a83d
000000d0: 8004 b9bd c622 0c3e 6501 823d 0f89 35bd
000000e0: a363 293e e3c9 d1bd 0a95 1d3c 19b2 063e
000000f0: 4ce6 743d af7a d8bd efd3 1c3e a050 a9bb
00000100: 1186 223e 5313 1a3d 9516 213e f442 e7bb
00000110: 7602 35be 4aa8 f9bd 3c68 c5bb 2c94 283d
00000120: da64 b83d 68fa 98bc 20a2 753d b0de 0a3e
00000130: 5b9b 323d 6965 0cbe f7b0 1abe 09fa 0b3e
00000140: fcd3 debc 7eac 003e d2ba 033e 86ea 3e3d
00000150: 9040 4abd 7be4 c73d 41fd 813b 78af f03d
00000160: 27d3 b8bc 400e 07be 4a64 9c3c 4ab9 d03d
00000170: 80e4 e2bc 2726 303c d3a6 9e3b 5f80 913d
00000180: 9e45 243e a8a3 ad3c 1c1f 073e a83f 1ebd
00000190: 11cb 9f3d 8a0c 7e3d 0e7c ea3d 988f 93bc
000001a0: 00b7 ec3b bdd6 f1bd af94 10be 0be9 25be
000001b0: 9ca7 f13d f678 f93d d55f 723d 7db7 853c
000001c0: 42e7 87bd c8da 0ebe 6d81 a5bd c947 8abd
000001d0: fab1 8a3c ab53 b43d c3f6 bf38 fdc3 233e
000001e0: 3ed0 833d c0b9 4fbd f9fb 233d e9a0 35bd
000001f0: b076 f7bd d183 39bd 418a ae3c 58e4 463d
00000200: f3c0 a33d 18a9 9e3d 2734 9cbd bd56 c13d
00000210: 5387 9b3d 20f4 5f3d 7d74 143e 9652 0cbe
00000220: 5ec5 bf3d 49cb dd3d f863 853c 4486 ae3d
00000230: 558c 0c3e b497 a93d 4d76 1d3e 48e8 0d3e
00000240: 4837 9abd 9104 a93d 435b 6c3d 9fb3 2c3e
00000250: ee09 b03d 708e 73bd 8e9f b6bd 8cd3 25be
00000260: 5d17 0f3e 85e8 78bc 609f 86bb e838 5e3d
00000270: 9682 41bc 1554 ca3d 7275 a7bc 8961 9dbd
00000280: 2f70 4e3d c1a6 043d 37a8 24be ded9 9dbd
00000290: 1b2e 95bd ac8d b13d 42bf b93d 7889 cfbd
000002a0: 2810 d4bc b9a7 1c3e ac88 823d 3fac 483d
000002b0: 5041 4cbd 6f6e 543d eb6b b73d 3220 97bd
000002c0: 5064 14be 345c 1cbd ed98 c33d 8657 b7bd
000002d0: 8c7d 9e3d 1a04 40be c765 66bd d9fa 1a3e
000002e0: 3920 08bd d265 39bd 6439 c2bd 14e8 0f3e
000002f0: f836 bfbd aa98 bcbc 18b9 0cbd 875d a6bd
00000300: 6ec5 e5bd ef1d 413d af47 1e3e 3314 1c3e
00000310: e25d 17be 8a60 a13d cd80 073e dd13 96bd
00000320: 608d adbc ecb2 0abd 6620 92bc 666a 13be
00000330: a29b e5bd 7a2e 093d 5d0a 1abe f5dd 043c
00000340: a98d 59bd b79c 73bd ed3f 413e 77b9 eaba
00000350: 7ef1 fe3d b49d 7b3d dfb2 e4ba cb9b c9bd
00000360: 8625 4f3d 7537 84bd 79e9 ce3d 8c92 22be
00000370: 363d a73d 619f 993d 159a 15be 3276 2b3d
00000380: b8dd e6bd b621 ab3d fa3c b7bc f085 16be
00000390: 4347 1fbe e6bc 833d 0069 abbc 5278 863d
000003a0: bea8 bd3d ff34 873d 501b 0d3e 8bad d93d
000003b0: da92 80bd 1abc b0bd 7dc1 49bc 9bf9 b53d
000003c0: 3794 5b3d 4c60 83bd b72b e73d 7b29 33bd
000003d0: 6fa8 b8bd ab21 0c3d 6e3f e63c 187a 05bd
000003e0: 6f07 33be 3bd6 023e 9634 04be 46f3 49bd
000003f0: 03e1 0b3e 7586 e5bd cde5 1dbc e2a3 46bd
0.059890456 -0.12245322 -0.094142534 -0.14510363 -0.009404982 0.15484406 0.070337266 -0.015826257
-0.092869274 -0.067768894 -0.09613232 0.12287735 -0.044095278 -0.11265524 0.09057067 -0.001501682
-0.16526997 -0.024859462 0.0666669 0.0018998021 0.12762369 0.10696872 0.13623309 0.056327544
-0.117678024 0.13408916 0.057681754 0.00415273 -0.13200252 -0.012616638 0.12295424 -0.06251196
0.15722454 -0.15336238 -0.14038377 0.042533517 -0.104900636 -0.063990735 -0.05270324 0.059689626
0.11758792 0.08235558 -0.055456962 -0.020997109 -0.084775336 0.12727372 0.121543296 0.10489478
0.087211005 0.03158932 0.18331978 0.08232222 -0.090340614 0.1368514 0.06347922 -0.044320162
0.16541915 -0.10243585 0.009618053 0.13153876 0.05978994 -0.10570275 0.15315221 -0.005167082
0.15871455 0.037616085 0.1573127 -0.007057542 -0.1767672 -0.12190302 -0.0060243886 0.041156933
0.09003611 -0.01867409 0.059969068 0.13561511 0.04360519 -0.1371056 -0.15106569 0.136696
-0.027200691 0.125658 0.12864235 0.046610378 -0.049377978 0.09760376 0.003966958 0.11752218
-0.022561623 -0.1318903 0.01909079 0.10191591 -0.027696848 0.010751284 0.0048416643 0.07104563
0.16042182 0.021196201 0.13195461 -0.038634926 0.07802404 0.062023677 0.11449443 -0.018012807
0.0072239637 -0.11808536 -0.14119218 -0.1620218 0.11799547 0.121812746 0.059173424 0.016322846
-0.06635906 -0.13950646 -0.08081327 -0.06751973 0.016930569 0.08805021 9.153553e-05 0.15992732
0.064362034 -0.050714254 0.04003522 -0.04434291 -0.12083185 -0.045291726 0.021306159 0.04855761
0.079957865 0.07747096 -0.07627135 0.09440372 0.075941704 0.054676175 0.14497562 -0.13703379
0.09363817 0.10829789 0.01628302 0.08521703 0.13725407 0.08280888 0.1537716 0.1385814
-0.07530075 0.08252824 0.05770422 0.16865395 0.08595644 -0.05946201 -0.089171514 -0.1619398
0.13973756 -0.015192156 -0.0041083544 0.05425349 -0.011810919 0.098793186 -0.020441744 -0.07684619
0.050399955 0.03238559 -0.16079794 -0.077075705 -0.072841845 0.086696 0.09069683 -0.10133642
-0.02588661 0.15298356 0.06373724 0.04899239 -0.049866974 0.05186313 0.089561306 -0.07379188
-0.14491391 -0.03817387 0.09550653 -0.08952241 0.0773879 -0.18751565 -0.056249406 0.15134753
-0.033233855 -0.04526312 -0.09483603 0.14053375 -0.09336656 -0.023022015 -0.034356207 -0.08123308
-0.11219297 0.047147688 0.15457033 0.1524208 -0.14781907 0.078797415 0.13232727 -0.07328007
-0.021185577 -0.03386204 -0.017837714 -0.14396057 -0.11211325 0.03349159 -0.15043016 0.008109559
-0.053113613 -0.059475627 0.18872042 -0.0017908056 0.12448405 0.061429694 -0.0017448327 -0.09844168
0.050572895 -0.0645589 0.10103125 -0.15876216 0.08165972 0.07501102 -0.14609559 0.041860767
-0.11272758 0.08356039 -0.022367943 -0.1469953 -0.15554528 0.06432514 -0.020924091 0.06565918
0.09260701 0.06601905 0.1377995 0.10628804 -0.0627801 -0.086296275 -0.012314198 0.08885499
0.053608146 -0.064148515 0.11287635 -0.04374073 -0.09016501 0.034211796 0.028106418 -0.03258714
-0.17483304 0.12777035 -0.12910685 -0.04930427 0.13660054 -0.11207286 -0.009637308 -0.048496135

sequential/dense_4/MatMul f4 [32, 64]
00000000: 44f4 41be 58c6 493e 8092 25bc 3877 04be
00000010: 0090 dbb9 5c7e 763e a885 473e b0b3 f1bd
00000020: 30c5 a3bd 7097 ad3d c00e 4ebd c816 203e
00000030: 2085 243e c0f5 a93c 709a 023e d020 4abd
00000040: b43e 56be b054 693e 54d8 3dbe 8063 b93c
00000050: 444f 243e 90bb bebd 0003 dcbd 009f a43b
00000060: 909a f5bd 28b8 d9bd b806 b0bd d0b3 babd
00000070: e013 27bd aceb 4e3e c0b7 e6bd 0050 56ba
00000080: d07e ccbd 4ca1 1dbe 787c e2bd 38dc 223e
00000090: d029 6cbe b489 4f3e 401a 3fbe 307a 4fbd
000000a0: 9832 99bd a872 0e3e 4041 4dbc 38c0 653e
000000b0: a842 c7bd 3038 1a3e b410 0f3e 2c76 0a3e
000000c0: 2495 37be e46f 4abe 806b 003e 007f 433e
000000d0: 287b 77be f4df 22be a077 a0bd f001 27be
000000e0: 601e 023d c0ce e93d 1014 72bd 0043 71bd
000000f0: dc41 4c3e a82d f8bd b863 883d 0ca3 6b3e
00000100: e129 84bd 0050 ee3d 4f48 023e e5d0 193e
00000110: bfbf 173e 2cd3 7f3e 086b c73d ed90 f43d
00000120: 0018 043c 0d78 4d3d cdb2 623e d7fa 60be
00000130: 40b2 ccbd ec36 5b3e 6c3e 5e3e 2008 79be
00000140: d4d8 d1bd 3802 a83d 6c03 6dbe 2265 62bc
00000150: 76a7 23be a1f2 27be 526e 18be bdb1 4f3e
00000160: 24ae 24be bc20 493e 6785 61be 36fa f93d
00000170: f7ce c7bc b0ef 57be d474 55be d85a ccbd
00000180: 595c 093e c2bb 10be 5f5c 1abe b713 d9bd
00000190: a6fe 0cbe d08d 443e c60e 4b3d 4069 5c3d
000001a0: 20e5 dc3d b412 09be d224 b73c 146c 60be
000001b0: d583 263e 3dcd 273e 2ea3 153e 0036 e13d
000001c0: a93f e4bd 3090 b53d d4a4 293c 89a1 c3bd
000001d0: 2f53 07bc 3724 16be b8bb 37be 423f 693b
000001e0: 68d8 4c3e 2986 6dbd 28ed 5c3e 333f 143e
000001f0: 7c2a 533e 2a0e 813e f9d9 403d 1b53 ea3d
00000200: 4163 58be fe99 09be dd7f 45bd 596a e8bc
00000210: fadc 173e b830 6e3e 4d07 043e 76b5 e4bc
00000220: b8e6 af3d fc23 853e b18f dd3d a219 613e
00000230: 4d5b 293d 982c a9bd e0da ec3d cced 07be
00000240: 3441 c03d 1819 153e f1b4 15bd 1e79 b8bd
00000250: aa2c 133e f23e 133e 547d f7bd 22ae 91bb
00000260: 7081 233e a5a2 903c ce33 71be d198 543e
00000270: 7b63 c4bd 9ca7 a43c 709c 153d 30df 1bbe
00000280: 5f2b 66bd 2123 493d 79c6 1dbd c014 483e
00000290: 3df7 233d 7098 573e e5a5 de3d 2013 8cbc
000002a0: c0f8 973c 3522 a33d 615b 6d3d bf28 923d
000002b0: 4a1e 0abe 7b4a 813e b3be 3a3e 24c7 7c3e
000002c0: 2ea2 65be f493 2ebe 2ad6 0b3d b573 9f3d
000002d0: 4116 553e 3fbe 633e e382 cb3d 3e23 233e
000002e0: f834 f23d 7adc 7bbe d07a a93d 816f 723e
000002f0: d7d3 283e fb0b 513e 6c6e 6f3e 7010 2abe
00000300: 88e4 88bd 84f6 273e 1862 193e 9c6d 44bc
00000310: 98a7 48be 2c5c 70be 28cf 32be 16e6 2dbe
00000320: e04a 1fbe b9bf 5f3e 66fe 6abe d22f a4bd
00000330: 008f 75bc 2836 2a3e 3094 6bbd a00b 373d
00000340: 33bf d13d 9ce7 6bbe d96a 93bd 1968 ec3d
00000350: ac79 5f3e 7c40 45bc b040 d33d 025b 42be
00000360: 90d6 5b3e 21a4 51be d8cf 91bd 5d5a 82be
00000370: b9bd 01bd c0ea 293e 60f8 943d 78ae dcbd
00000380: 74fe 783d be3b 3d3e ef46 e83b b4df 873d
00000390: 300f 613c 90c0 123e 48bf 04be 50ad 0dbd
000003a0: 00c0 3dbd df7a 40be 617a b83d 3c81 203e
000003b0: 9188 9fbd 6bf9 54be 87f6 77be c86a 89bd
000003c0: 1e8f 123e c0b9 763d 80ee 7bbc b4dc 193e
000003d0: a076 2b3e 3b55 8cbd 9090 34bd 45c7 85bc
000003e0: 90e5 133d 2c47 533e e804 143e 24b0 1bbe
000003f0: ae3a 65be c74d 083d 6b0d 46be 78a7 cbbb
-0.18940836 0.19704568 -0.010105729 -0.12936103 -0.00041878223 0.2407164 0.1948458 -0.11801851
-0.07996595 0.0847615 -0.050307035 0.1563369 0.16066408 0.020747066 0.12754226 -0.0493477
-0.20922357 0.22786212 -0.18539554 0.022630453 0.16045862 -0.093131185 -0.1074276 0.005023837
-0.11992371 -0.10630828 -0.085950315 -0.09116328 -0.04079044 0.20207089 -0.11265516 -0.0008175373
-0.09985125 -0.15393561 -0.11058897 0.1590432 -0.23062825 0.20267373 -0.18662357 -0.050653636
-0.07480353 0.13910925 -0.012527764 0.22436607 -0.097295105 0.15060496 0.13971215 0.13521641
-0.17927986 -0.19769245 0.12541008 0.19091415 -0.24168074 -0.15905744 -0.07835317 -0.16309333
0.03176725 0.114163876 -0.059101164 -0.058901787 0.19946998 -0.12118083 0.06659645 0.23011416
-0.064533 0.116363525 0.12722896 0.15021093 0.14819239 0.249829 0.097372115 0.11941705
0.008062363 0.050163317 0.2213852 -0.21970688 -0.09994936 0.2140767 0.217035 -0.24319506
-0.10246435 0.08203548 -0.23145837 -0.013818057 -0.1598185 -0.1640115 -0.14885834 0.20282646
-0.16082054 0.19641393 -0.22023545 0.12205927 -0.02439068 -0.21087527 -0.20845348 -0.099782646
0.13414134 -0.14134124 -0.150743 -0.105994634 -0.13769016 0.19194722 0.049574636 0.05381131
0.107858896 -0.13386041 0.022356424 -0.21916229 0.16261227 0.16386886 0.1461303 0.10996628
-0.11144955 0.08865392 0.0103542395 -0.09552295 -0.008259579 -0.14662252 -0.17942703 0.0035590683
0.20004427 -0.057989273 0.21574843 0.14477234 0.20621675 0.2520612 0.047082875 0.11441632
-0.21131612 -0.1343765 -0.048217643 -0.028371023 0.1483039 0.23260772 0.1289341 -0.027918559
0.08588928 0.26004016 0.108184226 0.21982434 0.041346837 -0.08260459 0.115651846 -0.13274306
0.093874365 0.14560354 -0.036549512 -0.09007476 0.14372507 0.1437948 -0.12084451 -0.004445807
0.15967345 0.01765568 -0.23554918 0.2076142 -0.09589287 0.020099454 0.036526144 -0.15221858
-0.056193706 0.049105767 -0.038519356 0.19539165 0.040030707 0.21054244 0.108714856 -0.017098963
0.01855123 0.07965509 0.057948474 0.07136678 -0.13488117 0.25252137 0.18236808 0.24685341
-0.22425148 -0.17048627 0.03413979 0.07785741 0.2080927 0.22240542 0.09937074 0.15931413
0.11826509 -0.24595824 0.08275378 0.23675348 0.1648706 0.20414726 0.23381966 -0.16607833
-0.06684214 0.16402632 0.14978826 -0.011989024 -0.19595182 -0.23472661 -0.17461836 -0.16982302
-0.15555906 0.2185048 -0.22948608 -0.080169335 -0.014987707 0.16622221 -0.05751437 0.04468882
0.102415465 -0.2303757 -0.07198114 0.115432926 0.21823758 -0.0120393 0.103150725 -0.18980029
0.21468568 -0.20472766 -0.07119721 -0.25459567 -0.031675074 0.16593456 0.07273936 -0.10775465
0.06078954 0.18479821 0.007088534 0.06634465 0.013736531 0.1433127 -0.12963593 -0.03458911
-0.046325684 -0.18796872 0.09007717 0.15674299 -0.0778972 -0.2079827 -0.24215136 -0.0670982
0.14312407 0.06023574 -0.015376687 0.15025598 0.1674447 -0.06852194 -0.044083178 -0.01633037
0.0361076 0.20632619 0.14454997 -0.15203911 -0.22385666 0.0332773 -0.19341056 -0.006215032
