app/src/main/assets/model23.tflite (tflite, 722616 bytes, 15 tensors)

sequential_6/dense_47/BiasAdd/ReadVariableOp f4 [512]
0	0x3b0dfd82	0.0021665995
1	0x3caa5674	0.020793177
2	0x00000000	0.0
3	0x3cc79c20	0.024366438
4	0xbb233c6b	-0.0024907838
5	0x3d081218	0.03322038
6	0xbb50c9b9	-0.0031858517
7	0x3d3f614d	0.046723653
8	0x3bc7cb12	0.006097206
9	0x3cb3ffff	0.021972654
10	0x3ce1e05d	0.027572805
11	0x3d4be87c	0.04978226
12	0x3c7cb584	0.015424136
13	0x00000000	0.0
14	0x3bcdcbe9	0.0062804115
15	0x00000000	0.0
16	0x3d0f2bee	0.034954004
17	0x3d5937a2	0.05303157
18	0xbcd6b77b	-0.026210537
19	0x00000000	0.0
20	0xbca321a3	-0.0199135
21	0x3d867a94	0.06566349
22	0x3d048321	0.032351617
23	0x3b293475	0.002581862
24	0xbac99fb5	-0.0015382679
25	0x3c910ea5	0.017707178
26	0x3bb111d8	0.0054037385
27	0x00000000	0.0
28	0x3bfcf5d7	0.007719736
29	0x3c9d13c5	0.019174466
30	0xbce491c7	-0.027901543
31	0xbc95d997	-0.018292231
32	0x3c568905	0.013094191
33	0xbcb0f167	-0.021599485
34	0xbb5e8fa8	-0.0033960138
35	0x00000000	0.0
36	0x3b34276b	0.0027489315
37	0xbd15e9ab	-0.036599796
38	0x00000000	0.0
39	0x00000000	0.0
40	0x3b2d06c2	0.0026401733
41	0xbc020fa1	-0.0079382965
42	0x3a680a99	0.0008851677
43	0xbb1515b9	-0.0022748543
44	0x3b84c901	0.004052282
45	0x3d5ddcb5	0.05416556
46	0xbc490dce	-0.012271358
47	0xbcd585a7	-0.026064707
48	0x3ce9e6ef	0.0285525
49	0x3d66caee	0.056345873
50	0xbbcbb372	-0.00621646
51	0x3cc2c185	0.023773918
52	0x00000000	0.0
53	0x00000000	0.0
54	0xbb9b8598	-0.00474615
55	0x3ba55f7c	0.005046783
56	0xbac0e10b	-0.0014715506
57	0x3cf2c56c	0.029635154
58	0x3c96c8cd	0.018406296
59	0x3bed4c02	0.007241727
60	0xbbd37d7d	-0.0064541684
61	0x3d348b3d	0.0440781
62	0x3cadfbc9	0.021238225
63	0x3c37d2a6	0.011219656
64	0x3b16c38b	0.0023004736
65	0x3cb99f0b	0.022658845
66	0xbb2f9b6b	-0.0026795517
67	0x3d0d40ad	0.034485508
68	0x3cff56f7	0.031169398
69	0xb9a5864b	-0.00031571309
70	0x3d41514b	0.047196668
71	0x3cc3fbfd	0.023923868
72	0x3d01bf97	0.031676855
73	0x00000000	0.0
74	0xbc119601	-0.008885861
75	0xba8bb698	-0.0010659276
76	0x3c993107	0.018700136
77	0xbafc1dea	-0.0019234989
78	0x3bc5ef34	0.006040478
79	0x3c15419c	0.009109881
80	0xbc795f0e	-0.015220417
81	0xbad5ed64	-0.0016321358
82	0x3bbfec9f	0.005857065
83	0x3ba4ad49	0.00502554
84	0xbbce5638	-0.006296899
85	0x3b1df931	0.0024104828
86	0x3c827cfc	0.015928738
87	0x3c17fc90	0.009276524
88	0x3d4fe6ca	0.050757207
89	0x3bead5ed	0.007166615
90	0x3cbd574b	0.023112914
91	0xbbda887a	-0.0066691013
92	0x3cd83023	0.02639014
93	0x3d865bb4	0.0656046
94	0x3d259311	0.040423457
95	0x3c3e2d47	0.011607475
96	0x00000000	0.0
97	0xbb442f91	-0.0029935578
98	0xba9ad5a0	-0.0011812933
99	0x3d0a3878	0.03374526
100	0x3ad0d53b	0.0015932688
101	0xb90fe01b	-0.00013721029
102	0x3d631bac	0.05544631
103	0x00000000	0.0
104	0x3ca4037e	0.020021196
105	0x00000000	0.0
106	0x3d291801	0.041282658
107	0xba31d2a6	-0.0006783403
108	0x00000000	0.0
109	0x00000000	0.0
110	0x3b6889a3	0.0035482429
111	0x3b09b6a3	0.00210134
112	0x3cecb932	0.028896902
113	0x00000000	0.0
114	0x00000000	0.0
115	0x3b41877a	0.0029530213
116	0x3b8238ea	0.00397407
117	0xbc84cb34	-0.016210176
118	0x3c8ac449	0.0169393
119	0x00000000	0.0
120	0xbc8dbce7	-0.01730199
121	0x3c2373b2	0.009976314
122	0x3baddea0	0.00530608
123	0x00000000	0.0
124	0xbac985af	-0.0015374924
125	0x3c06105b	0.00818261
126	0x00000000	0.0
127	0x3d4c19cc	0.04982929
128	0x3cfaae0c	0.03060057
129	0x3d0df7c2	0.03466011
130	0xbc5c1b87	-0.013434297
131	0x00000000	0.0
132	0x3bbcfa2e	0.0057671284
133	0x3a840301	0.0010071696
134	0x3b611fa3	0.0034351132
135	0x3ccc8a06	0.024968158
136	0x3c2d4904	0.01057649
137	0x00000000	0.0
138	0x3bec0a4f	0.0072033773
139	0x00000000	0.0
140	0xbc1ad08a	-0.009449134
141	0x3cff860c	0.031191848
142	0x3c8c696a	0.01714011
143	0x3cac42b0	0.021027893
144	0x3c4d5101	0.01253152
145	0x00000000	0.0
146	0x00000000	0.0
147	0x3d862744	0.06550458
148	0xbcb377a8	-0.021907642
149	0x3d5a9ce4	0.05337228
150	0x3b969ff3	0.004596704
151	0xbc9b8c95	-0.018987933
152	0x3c9241e2	0.017853681
153	0x3d16f8c9	0.036858354
154	0x00000000	0.0
155	0x3d53306e	0.051559858
156	0x3c2dc1a4	0.01060525
157	0xbac99ebf	-0.0015382393
158	0x00000000	0.0
159	0x3d292889	0.041298423
160	0x3c18749e	0.009305147
161	0x3cd989dc	0.026554994
162	0x3cf79842	0.03022397
163	0xbafc7ca1	-0.0019263217
164	0xbc44ed0a	-0.012019405
165	0x3c1492f3	0.009068239
166	0xba16151d	-0.0005725192
167	0x3c9f898c	0.019474767
168	0x00000000	0.0
169	0x00000000	0.0
170	0x3c11806f	0.008880719
171	0xbb911ef8	-0.0044287406
172	0x389a23d3	7.349965e-05
173	0xbc274f0f	-0.01021172
174	0x3c9ae6de	0.018908914
175	0x3caa94e3	0.020822948
176	0x00000000	0.0
177	0x3cfb63d5	0.030687252
178	0x3d2234d2	0.039601155
179	0x00000000	0.0
180	0x3b216a64	0.0024630064
181	0xbbd1d27d	-0.006403266
182	0xbc3ccb62	-0.0115231
183	0xbc3a8ab8	-0.011385612
184	0x00000000	0.0
185	0x00000000	0.0
186	0xbc0fc9eb	-0.008776168
187	0x3c37860c	0.011201393
188	0x3c918fb7	0.017768724
189	0x3d11fc6d	0.035641123
190	0x00000000	0.0
191	0xbb95de4b	-0.0045736185
192	0x3c6a6cca	0.014308164
193	0x3c871026	0.016487192
194	0xbadfe67c	-0.001708224
195	0x3ce3b9ad	0.027798498
196	0x3d2d86b8	0.042364806
197	0x00000000	0.0
198	0x3c9e9f02	0.01936293
199	0x3cb7807e	0.022400137
200	0x3d806b65	0.06270484
201	0xbcc21ec4	-0.02369631
202	0x00000000	0.0
203	0x3cd8f45f	0.026483713
204	0xbc13b8a2	-0.009016188
205	0x3c8c0846	0.017093789
206	0x3d026a80	0.031839848
207	0x3c4ab8c1	0.01237315
208	0x3d51a528	0.051182896
209	0x00000000	0.0
210	0xbb9b2262	-0.0047343234
211	0x3d3f189c	0.04665433
212	0x3c9fe8bc	0.019520156
213	0xbc93872d	-0.018008793
214	0x3c905635	0.017619232
215	0x00000000	0.0
216	0x3c8f7de5	0.017516086
217	0x3c0429c9	0.008066603
218	0x3cd72e7b	0.02626728
219	0x3c32b9c6	0.01090855
220	0xbbbdebeb	-0.005795946
221	0x00000000	0.0
222	0x3d49f679	0.04930732
223	0x00000000	0.0
224	0x3d53b3e9	0.051685248
225	0x3ca4e30e	0.0201278
226	0x3a1dc58b	0.0006018511
227	0x3bca092f	0.0061656456
228	0x3d2ae034	0.041717723
229	0x3d7e0d54	0.06202443
230	0x00000000	0.0
231	0x3d442312	0.04788501
232	0x00000000	0.0
233	0xbc12c444	-0.008957926
234	0x3ce3d868	0.027813151
235	0x3cc30f2d	0.023810947
236	0x00000000	0.0
237	0x00000000	0.0
238	0x3bf6a805	0.0075273537
239	0x00000000	0.0
240	0x00000000	0.0
241	0x00000000	0.0
242	0xbce44108	-0.02786304
243	0xbc9649a4	-0.018345661
244	0xbbf97420	-0.00761272
245	0x39c8e978	0.0003832092
246	0xbc53a210	-0.012917057
247	0x00000000	0.0
248	0x3caaf9bc	0.020871036
249	0x3bdf4cae	0.006814561
250	0x00000000	0.0
251	0x00000000	0.0
252	0x00000000	0.0
253	0x3d1fc3e2	0.039005168
254	0x3d63af11	0.05558688
255	0xbc50de11	-0.012748257

sequential_6/dense_48/BiasAdd/ReadVariableOp f4 [256]
0	0x00000000	0.0
1	0x3c8bab6c	0.017049514
2	0x3cbc5d3d	0.022993678
3	0x3b9da924	0.004811423
4	0x00000000	0.0
5	0x00000000	0.0
6	0xba7b530d	-0.00095872657
7	0x3c661a03	0.014044288
8	0x3d0ba862	0.03409613
9	0xbb4a6696	-0.00308839
10	0xbc974cf4	-0.018469311
11	0x3ce96ebf	0.02849519
12	0x3d2d3045	0.04228236
13	0x3c44adaa	0.012004295
14	0x00000000	0.0
15	0xbb261c9c	-0.0025346642
16	0x00000000	0.0
17	0x3d204b5d	0.039134372
18	0xbb397e44	-0.002830402
19	0x3c50efbd	0.012752471
20	0xba5cea4c	-0.0008427247
21	0xbc62be9d	-0.013839391
22	0xba4f56ba	-0.00079093466
23	0xbc8764fc	-0.016527645
24	0x3c9b1ffe	0.018936154
25	0xbab9f45f	-0.0014187208
26	0xbb2e591e	-0.002660341
27	0x3cd59c97	0.026075644
28	0xbca4d36a	-0.020120341
29	0xbd17ca39	-0.03705809
30	0x3c4e487c	0.012590524
31	0xbce1c7f8	-0.027561173
32	0x3d016822	0.03159345
33	0x00000000	0.0
34	0x3b85d81f	0.0040846015
35	0xbc01ef42	-0.007930579
36	0x00000000	0.0
37	0x00000000	0.0
38	0x00000000	0.0
39	0x3c670d62	0.014102312
40	0xbb3e24b7	-0.0029013583
41	0x00000000	0.0
42	0xbbec9173	-0.0072194873
43	0x00000000	0.0
44	0x3c811158	0.01575534
45	0x00000000	0.0
46	0xba49ee60	-0.0007703062
47	0x00000000	0.0
48	0xbb10c193	-0.0022088035
49	0x3c584b37	0.013201526
50	0xbc1b763a	-0.009488637
51	0x3cafd3f0	0.021463364
52	0xba660b38	-0.00087754754
53	0x3c174b78	0.009234302
54	0x00000000	0.0
55	0xbaa420a0	-0.001252193
56	0x00000000	0.0
57	0xbc1f9e43	-0.009742322
58	0xbc77202f	-0.015083357
59	0x3d2ea3ea	0.04263679
60	0x3ca4e3d0	0.02012816
61	0x3c474c17	0.012164137
62	0x3bc06f35	0.005872632
63	0xbbeadb37	-0.0071672457
64	0x3c85a31c	0.016313128
65	0xba9bf1cf	-0.0011897626
66	0x3c8d1a70	0.01722452
67	0x00000000	0.0
68	0x3bfee6ad	0.0077789635
69	0x00000000	0.0
70	0x00000000	0.0
71	0x00000000	0.0
72	0x3d1c5d92	0.038175173
73	0xbc885e45	-0.016646514
74	0x00000000	0.0
75	0x00000000	0.0
76	0x00000000	0.0
77	0x3c23dafd	0.010000941
78	0xbc24f406	-0.010067945
79	0x00000000	0.0
80	0x00000000	0.0
81	0x3cdb65f5	0.026782015
82	0xbb12f45c	-0.0022423482
83	0xbbaa62bd	-0.005199759
84	0x3b62179b	0.0034498933
85	0x3c285094	0.010273118
86	0x3d18194e	0.037133507
87	0x3c0079d6	0.007841548
88	0xbacfbed3	-0.0015849717
89	0xbcab2ecb	-0.020896336
90	0x3c5ca06c	0.013465982
91	0x3ca21c54	0.019788899
92	0xbb1207bb	-0.002228244
93	0xbaac22bc	-0.001313291
94	0x00000000	0.0
95	0x00000000	0.0
96	0x3c8b1179	0.016976105
97	0x3bfd0af2	0.007722252
98	0x3cb014d1	0.021494301
99	0x3d423b96	0.047420107
100	0x3cc0ea01	0.023549082
101	0xbaa2add1	-0.001241142
102	0xbcbb2244	-0.022843488
103	0x00000000	0.0
104	0x3cb184f2	0.021669839
105	0x00000000	0.0
106	0xba861f08	-0.0010232637
107	0x00000000	0.0
108	0x3c71760e	0.014737619
109	0xbac8d7fb	-0.0015323156
110	0xbc17e89c	-0.009271767
111	0xbccf181c	-0.025280051
112	0x3c8a23a1	0.016862692
113	0xbc2edd9a	-0.010672951
114	0x3cd202e0	0.025636137
115	0x3bb6e2c5	0.0055812323
116	0x3cb37b5f	0.021909414
117	0x3c0d5ed6	0.008628568
118	0xbaca68d6	-0.001544262
119	0x3c8bcd57	0.017065687
120	0xbc0ddedd	-0.008659092
121	0x00000000	0.0
122	0x3c1df6a6	0.009641325
123	0x3c359b93	0.011084455
124	0x00000000	0.0
125	0x00000000	0.0
126	0x00000000	0.0
127	0x00000000	0.0
128	0x00000000	0.0
129	0xbab5ba42	-0.0013864713
130	0x3d0dddaf	0.034635242
131	0xbb747c45	-0.0037305516
132	0x00000000	0.0
133	0xbbd43039	-0.006475475
134	0xbc1b59d4	-0.009481866
135	0x3d4843c7	0.048892763
136	0x00000000	0.0
137	0x3d51928c	0.05116515
138	0xba33dddb	-0.0006861367
139	0x00000000	0.0
140	0x3bb69b44	0.0055727083
141	0x3c4133b0	0.011792108
142	0x00000000	0.0
143	0xbc2a8514	-0.010407705
144	0x00000000	0.0
145	0xbb39633f	-0.0028287915
146	0x3d1ae07e	0.03781175
147	0xbc07e4fc	-0.00829434
148	0x3ba4e465	0.0050321096
149	0x3bb9b039	0.0056667593
150	0x3c39840b	0.011322985
151	0xbaf66b3c	-0.0018800269
152	0x3d46e3b1	0.048556987
153	0x3c00776b	0.007840971
154	0x3c9fa985	0.019490013
155	0x3c19d4f3	0.00938915
156	0x3bc3552b	0.0059610805
157	0x00000000	0.0
158	0x3c8a3147	0.0168692
159	0x3c627aa8	0.013823189
160	0x3cb52293	0.022111213
161	0xba78419a	-0.00094702246
162	0x00000000	0.0
163	0xbb21b9d5	-0.0024677415
164	0x00000000	0.0
165	0x3cf11665	0.029429624
166	0x00000000	0.0
167	0x3c82778a	0.015926141
168	0xbbf53310	-0.0074828938
169	0x00000000	0.0
170	0x00000000	0.0
171	0x00000000	0.0
172	0xbabc0c1b	-0.001434687
173	0xbc02e3ec	-0.007988911
174	0x3cf0d9b5	0.029400686
175	0x00000000	0.0
176	0xbae39dd6	-0.0017365764
177	0x3cc54ece	0.024085429
178	0xbbf8a720	-0.007588282
179	0x3cae4df2	0.021277402
180	0xbb180af2	-0.0023199883
181	0x3bd5b6e3	0.006522046
182	0xbc2e7aa7	-0.01064936
183	0x3beec176	0.007286246
184	0xba72e612	-0.00092658505
185	0x3c695902	0.0142424125
186	0x00000000	0.0
187	0x3c213e79	0.009841555
188	0xba8e6d82	-0.0010866376
189	0x00000000	0.0
190	0xba6bc6f1	-0.0008994183
191	0x00000000	0.0
192	0x00000000	0.0
193	0x3be3151f	0.006930008
194	0x00000000	0.0
195	0x3c629e2f	0.013831659
196	0xbc91a667	-0.017779542
197	0x3c9d10af	0.019172994
198	0xba404fe8	-0.0007336126
199	0x3cb4f327	0.0220886
200	0x3d06c9c6	0.03290727
201	0x3d23bea3	0.039976727
202	0x3c437070	0.011928663
203	0x3b3366e3	0.0027374558
204	0x3ca20597	0.019778056
205	0xbc9069b5	-0.01762853
206	0x00000000	0.0
207	0x3d2564d8	0.040379375
208	0x3cfbfc30	0.0307599
209	0xbaed81db	-0.0018120365
210	0x00000000	0.0
211	0x00000000	0.0
212	0x00000000	0.0
213	0x00000000	0.0
214	0xbc47a428	-0.012185134
215	0x3c2af749	0.010434934
216	0xba2a1326	-0.00064878387
217	0xbc23ea60	-0.01000461
218	0x3cedc900	0.029026508
219	0xbba3cdf7	-0.004998918
220	0x00000000	0.0
221	0xbca90078	-0.020630106
222	0x00000000	0.0
223	0x00000000	0.0
224	0xbb00d41f	-0.0019657684
225	0x00000000	0.0
226	0xbad5149a	-0.001625675
227	0x3d4662e5	0.048434157
228	0x3cda8fcb	0.026679894
229	0x00000000	0.0
230	0x00000000	0.0
231	0x3d248651	0.040167157
232	0xba2d9027	-0.00066209066
233	0x3c8a7c8a	0.016905088
234	0xb99a55ff	-0.0002943724
235	0xbcc41ecc	-0.023940466
236	0x3cbb142f	0.022836773
237	0x00000000	0.0
238	0x3c23c33d	0.009995279
239	0x00000000	0.0
240	0x3cd16b66	0.025563907
241	0x3a73d8bf	0.0009302012
242	0x3b0edc81	0.002179891
243	0x00000000	0.0
244	0xbcd1617e	-0.025559183
245	0x00000000	0.0
246	0x3c8f11bd	0.017464513
247	0xbd2d8d9e	-0.042371385
248	0x3bcbc585	0.0062186145
249	0x3bf1e01e	0.007381453
250	0x00000000	0.0
251	0xbb2423c5	-0.0025045734
252	0xbc1a441d	-0.0094156535
253	0x3900e614	0.00012292742
254	0xbc64d43d	-0.013966617
255	0xbac7f051	-0.0015254115

sequential_6/dense_49/BiasAdd/ReadVariableOp f4 [128]
0	0x3bfeb57a	0.0077730985
1	0xbc81c2c2	-0.015839938
2	0xba2efa25	-0.00066748477
3	0xbae9b8a4	-0.0017831516
4	0x00000000	0.0
5	0xba4054cc	-0.00073368545
6	0x3c0d21a3	0.008613977
7	0x3a245a51	0.00062695617
8	0x3c9fffe2	0.019531194
9	0x00000000	0.0
10	0xbd09749d	-0.033558477
11	0x00000000	0.0
12	0x3c55b78a	0.013044247
13	0x3b80f3c7	0.0039353105
14	0x3d41346a	0.047169127
15	0x3c2fa603	0.010720733
16	0x3b1df221	0.002410062
17	0xbb79ddb9	-0.0038126542
18	0xba76ec3c	-0.0009419357
19	0xbb4a5600	-0.0030874014
20	0xbb1c47f5	-0.00238466
21	0x3d22c7d1	0.03974134
22	0x00000000	0.0
23	0x00000000	0.0
24	0x3a9211e6	0.001114425
25	0x00000000	0.0
26	0xbd1dddd1	-0.03854162
27	0xbac18725	-0.0014765008
28	0xbb33675f	-0.0027374846
29	0x3ce9ec43	0.028555041
30	0x3bb93c84	0.005652966
31	0xba70fb99	-0.00091927644
32	0xbae60765	-0.0017549811
33	0x3d1d7f46	0.038451456
34	0xbb29fc45	-0.0025937718
35	0x3d20593f	0.03914761
36	0x3b68823f	0.0035478023
37	0x3a0f02ce	0.0005455435
38	0xbd050287	-0.032473113
39	0xbb87e79e	-0.004147484
40	0x3c177d9f	0.009246259
41	0x00000000	0.0
42	0xbae84ff7	-0.0017724027
43	0x3c09c916	0.008409759
44	0x00000000	0.0
45	0xba9d570e	-0.0012004094
46	0x3c2b3245	0.010448997
47	0x3c08977e	0.0083369
48	0x00000000	0.0
49	0x3c46f4e7	0.01214335
50	0x3d1e51a5	0.03865208
51	0xbd107fb8	-0.035278052
52	0xbcc3e544	-0.023913033
53	0x3c29c2fe	0.010361431
54	0xbbe6ea10	-0.0070469454
55	0x00000000	0.0
56	0x3b97b7a5	0.0046300464
57	0x00000000	0.0
58	0x3aa47066	0.0012545704
59	0x00000000	0.0
60	0x3b5d99b3	0.0033813536
61	0xbb292af1	-0.0025812949
62	0xbbbc48a5	-0.0057459646
63	0x3b6a7395	0.0035774459
64	0x3b800d46	0.0039078323
65	0xba5d5a1d	-0.0008443909
66	0x3c529dd8	0.012855016
67	0x3cf5396a	0.029934604
68	0xbae9121e	-0.0017781889
69	0x3caaf0be	0.020866748
70	0x3c9d205d	0.019180471
71	0x3bbb808d	0.0057221116
72	0xbc1dccf2	-0.009631382
73	0xbabbdccd	-0.0014332772
74	0x00000000	0.0
75	0x3c68b239	0.014202648
76	0xba783b15	-0.0009469253
77	0xbadebf7c	-0.0016994323
78	0xbced6ba3	-0.02898199
79	0x3b901d7c	0.004398046
80	0xbab341eb	-0.0013676261
81	0x3960f466	0.0002145335
82	0x00000000	0.0
83	0xbce66a43	-0.028126841
84	0x3c1761ef	0.009239658
85	0x3c0adbb1	0.00847523
86	0xbabaaa78	-0.0014241477
87	0x00000000	0.0
88	0xbad9390d	-0.0016572789
89	0x3a2b92cd	0.00065450073
90	0xbb98b220	-0.004659906
91	0xbb508d79	-0.0031822606
92	0x3ca9d315	0.020730535
93	0x3d17fe38	0.037107676
94	0xb825ca82	-3.9527666e-05
95	0x3c957f4f	0.018249182
96	0xbab04b1d	-0.001345012
97	0x3c9f35a3	0.019434756
98	0xbab26e1f	-0.0013613141
99	0xbae16737	-0.0017196898
100	0x3c15663d	0.009118614
101	0x3a4185b8	0.00073822914
102	0x00000000	0.0
103	0x3bf62a5d	0.0075123743
104	0x3c79ee8a	0.015254626
105	0xbabf9e1d	-0.0014619265
106	0x3c5671df	0.013088672
107	0x3c6e645f	0.0145502975
108	0x3cdcaf94	0.02693919
109	0x00000000	0.0
110	0xbadd4dca	-0.0016884145
111	0xbb0e2bd3	-0.0021693602
112	0xbad7d0b2	-0.0016465394
113	0x3d513a89	0.051081214
114	0x3d274c35	0.04084416
115	0x00000000	0.0
116	0xba0e6f04	-0.0005433413
117	0x00000000	0.0
118	0xbb0119e4	-0.001969927
119	0xbc25249f	-0.010079532
120	0x00000000	0.0
121	0x3d307d62	0.043088324
122	0xba8adc3a	-0.0010594197
123	0x3c9b65ba	0.018969405
124	0x3b8e783a	0.004347828
125	0x00000000	0.0
126	0xbc493f2d	-0.012283129
127	0xbb742c3e	-0.0037257816

sequential_6/dense_50/BiasAdd/ReadVariableOp f4 [64]
0	0x3c442310	0.01197125
1	0x00000000	0.0
2	0xbaf580a6	-0.0018730357
3	0x00000000	0.0
4	0xbb6b204a	-0.00358774
5	0x3c24fce2	0.010070058
6	0x3bdc8380	0.006729543
7	0x3abe8ebd	0.0014538389
8	0x3b40fbe5	0.0029447016
9	0x3ba5856b	0.005051305
10	0xbb1ea880	-0.002420932
11	0x3aa711c7	0.0012746387
12	0x3ba007de	0.0048837503
13	0x00000000	0.0
14	0x3c670506	0.014100319
15	0xbd1352c6	-0.03596761
16	0xbadd5c5a	-0.0016888485
17	0x3a21fa91	0.0006179
18	0x3ae210ac	0.00172474
19	0x3c4136dc	0.011792865
20	0xbc2a412d	-0.010391516
21	0xba9d0810	-0.0011980552
22	0xbd18c02a	-0.037292637
23	0xbb049df8	-0.0020235758
24	0xbc11a003	-0.008888247
25	0xbace47b3	-0.0015737921
26	0x3aaaa730	0.0013019796
27	0xbadc36b7	-0.0016800974
28	0xbc198d5e	-0.0093720835
29	0xbb9c74c3	-0.0047746613
30	0x3b05aeaa	0.0020398297
31	0xbb9009ac	-0.004395684
32	0xbb6c80ee	-0.003608759
33	0xba2b1ada	-0.00065271335
34	0x3b987ddd	0.004653676
35	0xba3103a1	-0.0006752555
36	0x3aaf80e6	0.0013389855
37	0x3bc41a7e	0.0059846034
38	0x00000000	0.0
39	0x00000000	0.0
40	0x00000000	0.0
41	0x3a11b815	0.00055587414
42	0xba526b8d	-0.00080268906
43	0x3c8ed118	0.017433688
44	0xbb9081ca	-0.0044100033
45	0x3b39689f	0.0028291119
46	0x00000000	0.0
47	0xbc52006a	-0.0128174815
48	0x3d0d965e	0.03456723
49	0xba868084	-0.0010261689
50	0x3bd29668	0.006426621
51	0x3c9531fd	0.018212313
52	0x3c9a0db6	0.018805366
53	0x39f401f8	0.00046540773
54	0xbb63a945	-0.0034738344
55	0x3b8971b1	0.0041944613
56	0x3bea79d9	0.0071556387
57	0xb997f518	-0.00028983573
58	0xbaefc096	-0.0018291648
59	0x3b71942d	0.0036862001
60	0x3bcae0d5	0.006191353
61	0xbb79d4a9	-0.003812114
62	0x3b837eb7	0.0040129083
63	0x3cc22664	0.023699947

sequential_6/dense_51/BiasAdd/ReadVariableOp f4 [32]
0	0xbbe37060	-0.0069408864
1	0x00000000	0.0
2	0xbb5067b4	-0.0031800093
3	0x3b4e5111	0.0031481425
4	0x3bbded5e	0.0057961186
5	0xbc5fee1b	-0.013667609
6	0xba3d41d5	-0.00072195876
7	0xba9fb511	-0.0012184699
8	0xbb3c4c09	-0.0028731844
9	0x00000000	0.0
10	0x3cbb3d6c	0.022856437
11	0xb8c74353	-9.5015996e-05
12	0x3cbee004	0.023300178
13	0x3a416996	0.0007378099
14	0x3be6b12f	0.007040165
15	0x3bacdd93	0.005275437
16	0x00000000	0.0
17	0x3b469813	0.0030303046
18	0xbb9443c7	-0.0045246813
19	0x3cd8eb6c	0.026479445
20	0x3bcde829	0.006283779
21	0x3b6328cf	0.0034661775
22	0xbb132560	-0.0022452697
23	0x3c1e23da	0.009652102
24	0x3b5da344	0.0033819238
25	0xba11b8b6	-0.0005558835
26	0x3c095f87	0.008384592
27	0x3b350e9d	0.0027627118
28	0x3c02059f	0.0079359105
29	0x3c640f4c	0.013919663
30	0x3bad5a3d	0.0052902983
31	0xbab7865a	-0.0014001832

sequential_6/dense_52/BiasAdd/ReadVariableOp f4 [16]
0	0x3b89f4ca	0.0042100893
1	0xbaea05e7	-0.0017854542
2	0xbb348bf7	-0.0027549246
3	0x3bd3cfa1	0.0064639603
4	0xba1a739b	-0.00058918603
5	0xbad5673d	-0.0016281378
6	0xbb182c7b	-0.0023219872
7	0x3cc6a542	0.024248723
8	0xba4361c4	-0.0007453228
9	0xbb0b7466	-0.0021279096
10	0xbb23071b	-0.0024876061
11	0xbcd111ec	-0.025521241
12	0xbb18369a	-0.0023225904
13	0x00000000	0.0
14	0x3a2cb7ab	0.0006588648
15	0xbae1a4db	-0.0017215268

sequential_6/dense_53/BiasAdd/ReadVariableOp f4 [8]
0	0xbb775a68	-0.0037743095
1	0xbb9fc69c	-0.004875971
2	0x00000000	0.0
3	0xbb7f741b	-0.0038979116
4	0x3af30708	0.0018541524
5	0xbab1feba	-0.0013579943
6	0xbb533ed1	-0.0032233486
7	0x3d0635f5	0.0327663

sequential_6/dense_47/MatMul f4 [512, 8]
0	0x3dcdc1d7	0.10046738
1	0xbd117754	-0.03551419
2	0x3c166014	0.00917818
3	0xbd339323	-0.043841492
4	0x3e226dd3	0.15862207
5	0xbd6951c0	-0.05696273
6	0xbe13e1c0	-0.14441586
7	0x3d9f5937	0.07780688
8	0xbdcc5a85	-0.09978203
9	0x3d54b8a5	0.051933903
10	0xbde739c4	-0.11290315
11	0x3d572509	0.052525554
12	0x3c78b369	0.015179493
13	0xbbb2b9e2	-0.005454288
14	0x3dd8b11c	0.10580656
15	0xbe043412	-0.12910488
16	0x3c61acf8	0.013774149
17	0xbdc04b3d	-0.093893506
18	0xbd384a97	-0.04499301
19	0xbc2f5fb0	-0.010703966
20	0x3dd33c51	0.10314239
21	0xbc9560e8	-0.018234685
22	0xbdaca887	-0.084305815
23	0x3dbc130d	0.09183321
24	0xbd5507f2	-0.05200953
25	0x3d99c6c1	0.075086124
26	0xbd8c1cc2	-0.068414226
27	0x3d5c5af0	0.053797662
28	0x3e0181dd	0.12647195
29	0x3a8becc6	0.0010675422
30	0x3e465585	0.1936856
31	0x3cd0592a	0.025433142
32	0x3d6c2e33	0.057661247
33	0x3d214dcd	0.039380837
34	0x3d9fa7d6	0.07795684
35	0xbd85543d	-0.06510208
36	0xbc734956	-0.014849028
37	0xbd00dc43	-0.031460058
38	0xbd409364	-0.047015563
39	0x3dfe49bd	0.12416408
40	0x3dace213	0.08441558
41	0x3dd446b9	0.10365052
42	0xbd9961fd	-0.07489393
43	0x3dbaf89e	0.09129451
44	0x3a45d4e5	0.00075466774
45	0x3e070d56	0.13188681
46	0xbcbd3ef0	-0.0231013
47	0xbd8219ff	-0.063526146
48	0xbd400a53	-0.046884846
49	0xbda73764	-0.08164862
50	0xbdca9b5b	-0.09892913
51	0x3dc7d6d8	0.09757775
52	0x3d974167	0.073855214
53	0xbdc378b2	-0.09544505
54	0x3dd1e6ea	0.102491215
55	0xbd0f97bc	-0.035056815
56	0xbd944fd6	-0.0724179
57	0xbc7bcd4a	-0.015368769
58	0x3d774dd3	0.060376953
59	0x3df8fd2c	0.12157664
60	0x3dfd6dd5	0.123744644
61	0xbc212a59	-0.009836757
62	0x3cecb365	0.028894136
63	0xbcca2aa6	-0.02467854
64	0x3db25595	0.0870773
65	0xbdcf93db	-0.10135623
66	0xbce3b98b	-0.027798435
67	0x3d572b55	0.05253156
68	0xbdfff4d5	-0.1249787
69	0xbd985766	-0.07438545
70	0xbb7337cb	-0.0037112113
71	0xbd593e3e	-0.053037874
72	0x3d98d026	0.07461576
73	0x3ddf2a56	0.10896747
74	0x3aa4e16d	0.0012579389
75	0x3c795ebb	0.015220339
76	0x3dd234e1	0.10263992
77	0xbd2e323c	-0.042528376
78	0x3d92ee7e	0.07174395
79	0xbd9c8db0	-0.07644212
80	0xbd31d985	-0.043420333
81	0x3db04eb6	0.08608763
82	0x3c3975d2	0.011319594
83	0x3d89673c	0.067091435
84	0xbd1e4aa0	-0.038645387
85	0x3c9400ad	0.018066728
86	0x3cfa1783	0.03052879
87	0x3d70d68f	0.05879837
88	0xbd92b07a	-0.071625665
89	0xbd883cf8	-0.06652254
90	0x3dcf8c50	0.10134184
91	0x3d9122bd	0.07086704
92	0x3d06a1d9	0.032869194
93	0x3aff0909	0.0019457649
94	0x3e076d03	0.13225178
95	0xbe181ce5	-0.14854772
96	0x3dab34ec	0.083597034
97	0xbd124330	-0.035708606
98	0xbd880ea6	-0.06643419
99	0xbcf256f4	-0.029582478
100	0xbb68d3a9	-0.003552655
101	0x3de642ce	0.11243211
102	0x3d30e762	0.043189414
103	0x3ddf8b80	0.109152794
104	0xbd3551a6	-0.04426732
105	0xbbadd200	-0.005304575
106	0xbc9d2218	-0.019181296
107	0xbd41c29f	-0.047304746
108	0xbcaf7000	-0.02141571
109	0x3ca3182c	0.019908987
110	0x3cf3e024	0.029769965
111	0x3d660c72	0.056164213
112	0x3d9c5e62	0.076351896
113	0xbc32dec9	-0.010917374
114	0x3da9e1c5	0.08295015
115	0xbce93b01	-0.028470518
116	0x3d0b2208	0.033968
117	0xbcaa5fec	-0.020797692
118	0xbc6f9f5b	-0.014625396
119	0x3d3b96c3	0.045798074
120	0xbd7c9aae	-0.06167095
121	0x3ba037c0	0.0048894584
122	0xbd311b78	-0.043239087
123	0xbad68d80	-0.0016369075
124	0xbbb0e370	-0.0053982064
125	0x3d0d935a	0.034564354
126	0x3d78a6de	0.060706012
127	0xbc849e74	-0.016188838
128	0x3d6d284c	0.05789976
129	0x3dce476d	0.10072217
130	0xbd8ee586	-0.06977372
131	0x3da849b2	0.08217181
132	0xbcdd3b37	-0.027005775
133	0xbd91c3b3	-0.07117405
134	0x3c9a4f36	0.018836599
135	0xbe299a01	-0.16562654
136	0xbd9edf31	-0.07757414
137	0x3c3c30a0	0.0114862025
138	0xbd6014bc	-0.054707274
139	0x3d885ae9	0.06657965
140	0x3bfa4c48	0.007638488
141	0x3cbea0e3	0.023270076
142	0x3d184da2	0.03718341
143	0xbdf7dac1	-0.12102271
144	0x3db0ac5f	0.08626627
145	0x3ced6fe5	0.02898402
146	0x3da798d7	0.08183449
147	0x3d839485	0.06424812
148	0xbdb5c56e	-0.08875547
149	0x3c02d569	0.007985451
150	0x3b88d02a	0.0041752057
151	0xbda793cd	-0.08182488
152	0xbb6b7120	-0.0035925582
153	0xbd2ffc28	-0.042965084
154	0x3c650488	0.013978131
155	0xbd78c63a	-0.06073592
156	0x3ba46790	0.0050172284
157	0x3d2e5826	0.042564534
158	0x3ca08d0c	0.019598506
159	0x3d406a8a	0.046976604
160	0x3b98d9a9	0.004664619
161	0xbc010a75	-0.007876028
162	0x3d51bd52	0.05120594
163	0x3ce1a388	0.027543798
164	0xbdf283a1	-0.118415125
165	0x3ccbf85a	0.024898697
166	0xbd138b33	-0.036021423
167	0x3c892e09	0.016745584
168	0x3c5d5233	0.013508367
169	0xbd16db02	-0.036829956
170	0xbc155249	-0.009113857
171	0x3dcbbeb4	0.09948483
172	0xbce5e4a8	-0.028063133
173	0xbd23ded8	-0.040007442
174	0x3e18df04	0.14928824
175	0xbe1bc277	-0.15210901
176	0x3a3ac659	0.0007124893
177	0xbc646cd4	-0.013941962
178	0x3e01879a	0.12649384
179	0xbd94c18f	-0.07263481
180	0xbd2d10a5	-0.0422522
181	0x3d9c2bfd	0.076255776
182	0x3c3606c8	0.011110015
183	0xbe3cbc5f	-0.18431233
184	0x3d9ac998	0.07557982
185	0xbd92974d	-0.071577646
186	0x3d1b87ff	0.037971493
187	0x3c3692f7	0.011143438
188	0xbd8b00ab	-0.06787237
189	0xbbc797ec	-0.0060911085
190	0x3b52b821	0.0032153206
191	0xbd8303c9	-0.06397206
192	0xbd0cbf9c	-0.03436242
193	0x3ced728c	0.028985284
194	0x3dae2c69	0.08504564
195	0xbbfa4fd9	-0.007638913
196	0xbdabd037	-0.08389323
197	0xbd6cc76a	-0.057807364
198	0xbdd33072	-0.103119746
199	0x3d713405	0.0588875
200	0x3dda7c59	0.10668249
201	0x3dd00126	0.10156469
202	0xbc99d65e	-0.018778976
203	0x3cec4084	0.028839357
204	0x3d4d3b4d	0.05010538
205	0x3d6ba38e	0.057529025
206	0xbdb9fe4a	-0.09081705
207	0x3d4c6aaa	0.04990641
208	0x3dc07858	0.09397954
209	0x3d49c3f0	0.049259126
210	0xbd941da3	-0.07232215
211	0xbc3f64a3	-0.0116817085
212	0x3e118d40	0.14214039
213	0xbbfb6ce3	-0.0076728924
214	0xbcf07a4b	-0.029355189
215	0xbd3bf3ac	-0.04588668
216	0x3d15c936	0.036568843
217	0xbdd8b9e7	-0.10582333
218	0xbd8cf774	-0.068831354
219	0x3d614fd6	0.055007778
220	0x3d89598d	0.067065336
221	0xbd91f3b7	-0.07126563
222	0xbd475fe4	-0.048675433
223	0xbd55810f	-0.052125033
224	0x3d3b8a85	0.0457864
225	0xbb9a320d	-0.0047056735
226	0xbce1ce47	-0.027564181
227	0x3d8f224c	0.069889635
228	0xbe3f7e1f	-0.18700455
229	0x3cc2e2d0	0.023789793
230	0xbda02d4d	-0.078211404
231	0xbd214095	-0.03936823
232	0xbd8e686f	-0.06953513
233	0xbcac7450	-0.021051556
234	0x3db86d13	0.09005179
235	0x3cc85ed7	0.024459286
236	0x3de1b2a3	0.110204004
237	0x3dc5e815	0.09663407
238	0x3e67f2ec	0.22651261
239	0x3d7056f3	0.05867667
240	0x3d7857d2	0.060630627
241	0x3d809ba9	0.0627969
242	0xbcc04551	-0.023470553
243	0xbce2fb02	-0.02770758
244	0x3d291d6c	0.041287825
245	0x3ceb0377	0.028688176
246	0xbdf6052d	-0.12012706
247	0x3ddcc313	0.10779395
248	0x3d7ec064	0.062195197
249	0x3dcda388	0.10040957
250	0xbd727aac	-0.05919902
251	0xbd377ece	-0.044798665
252	0x3d01de72	0.03170628
253	0xbda78ef1	-0.08181561
254	0xbccdcced	-0.02512213
255	0x3dcd46b2	0.1002325

sequential_6/dense_48/MatMul f4 [256, 512]
0	0xbd56e570	-0.052464902
1	0xbc01ddf0	-0.007926449
2	0x3d67581a	0.056480505
3	0xbcf274f2	-0.02959678
4	0xbd439e62	-0.047758467
5	0xbda8be23	-0.08239391
6	0x3d7d74b6	0.061878882
7	0xbd0d7c2d	-0.03454225
8	0xbd18d4bf	-0.037312265
9	0xbce5f6ec	-0.028071843
10	0x3cac4d68	0.021033004
11	0xbd9551e8	-0.07291013
12	0xbd417de4	-0.0472392
13	0x3d82fdd7	0.06396072
14	0xbba3bad0	-0.004996635
15	0x3d8102b5	0.062993445
16	0x3d84140b	0.064491354
17	0xbdb4c569	-0.088267155
18	0xbbf29900	-0.007403493
19	0x3d026b2c	0.03184049
20	0xbc389548	-0.01126606
21	0xbcc7d608	-0.02439405
22	0x3d054efc	0.03254603
23	0x3a4ee800	0.0007892847
24	0x3d029a22	0.031885274
25	0xbc399aa8	-0.011328377
26	0x3d47ae56	0.048750244
27	0xbd75f60c	-0.0600491
28	0x3d8dc0c3	0.06921532
29	0x3d983647	0.074322276
30	0xbb104c00	-0.0022017956
31	0x3d820f91	0.06350625
32	0xbd13759a	-0.036000825
33	0xbca62538	-0.02028142
34	0xbc4c5c00	-0.012473106
35	0xbd058766	-0.03259983
36	0xbc03cf50	-0.008045033
37	0x3b56eec0	0.0032796115
38	0xbc89a578	-0.016802534
39	0x3ced655c	0.028978996
40	0xbdb24fda	-0.08706637
41	0xbdaa6ac9	-0.08321149
42	0xbd70b746	-0.058768533
43	0x3b9d0d90	0.0047928765
44	0x3db2c479	0.087288804
45	0x3d55fb3a	0.05224154
46	0xbd756ddc	-0.059919223
47	0xbd251541	-0.040303472
48	0xbcac979c	-0.021068387
49	0xbd4917e4	-0.04909505
50	0xbc84f1fc	-0.016228668
51	0x3d925fe3	0.07147195
52	0xbcb5430c	-0.022126697
53	0xbc8d0008	-0.017211929
54	0xbda187d9	-0.07887239
55	0xbdb21e33	-0.08697166
56	0xbd36596c	-0.044518873
57	0x3a120780	0.00055705756
58	0xbd1dbd03	-0.038510334
59	0xbc227d98	-0.009917639
60	0x3d4012c6	0.046892904
61	0x3d89f335	0.06735841
62	0xbdb2414d	-0.087038614
63	0x3d7c2346	0.061557077
64	0x3d3c3cd6	0.045956455
65	0x3c465d80	0.012107253
66	0xbd0ed4c2	-0.03487087
67	0xbd26a4a8	-0.040684372
68	0xbca05284	-0.019570597
69	0x3d2ab92e	0.041680507
70	0x3d44e61a	0.048071004
71	0x3d411806	0.04714205
72	0x3c77e6c0	0.015130699
73	0xbd49898a	-0.049203433
74	0x3cbc0e4c	0.022956036
75	0xbdaca29b	-0.08429452
76	0xbb6ff360	-0.0036613569
77	0x3da7543b	0.081703626
78	0xbd028353	-0.03186352
79	0x3d327f7e	0.043578617
80	0x3d74719e	0.059678666
81	0x3c28ffe0	0.010314912
82	0x3cc5d3bc	0.024148814
83	0x3cf36d04	0.029715069
84	0x3d011ea8	0.031523377
85	0xbda5e30e	-0.08099948
86	0xbadfdd00	-0.0017079413
87	0xbd575a6b	-0.052576464
88	0x3d975265	0.073887624
89	0xbd2c62dd	-0.04208647
90	0xbdb1dc32	-0.08684577
91	0x3dade93b	0.08491751
92	0xbd8586cd	-0.06519852
93	0xbdb26d71	-0.087122805
94	0x3d942daf	0.07235276
95	0xbd302e74	-0.04301305
96	0xbd822c82	-0.063561454
97	0x3db01b43	0.0859895
98	0xbd8bd1ae	-0.068271026
99	0xbc97ba4c	-0.01852145
100	0xbd14636f	-0.03622764
101	0x3d92a287	0.07159906
102	0x3d8846e5	0.06654147
103	0x3c4735b0	0.012158796
104	0x3ce9a908	0.028522983
105	0x3d2f6a26	0.04282584
106	0xbdaa86bd	-0.083264805
107	0x3abce880	0.0014412552
108	0xbd0571fc	-0.032579407
109	0x3db13fb9	0.08654732
110	0x3d6353e6	0.055499934
111	0x3c994434	0.01870928
112	0x3cde4634	0.027133085
113	0x3d7301ba	0.05932782
114	0xbd09562b	-0.03352944
115	0xbc069810	-0.008214965
116	0xba7ba880	-0.00095999986
117	0xbcff2a92	-0.031148229
118	0xbda4db31	-0.0804962
119	0xbd4eb77f	-0.050467964
120	0x3cbdff7c	0.023193114
121	0xbd42e64b	-0.047582906
122	0xbd40e714	-0.047095373
123	0x3d844487	0.06458383
124	0xbda9ed5d	-0.082972266
125	0x3cb91598	0.022593305
126	0x3d7586ca	0.059942998
127	0xbd58231b	-0.052767854
128	0xbd4c6822	-0.049903996
129	0x3d3212a6	0.043474816
130	0xbcbf78f4	-0.023373105
131	0x3cc37dc0	0.023863673
132	0x3da47ebb	0.080319844
133	0xbd00cad8	-0.031443447
134	0x3d9282e7	0.07153874
135	0x3cf858ac	0.03031572
136	0xbd88ad12	-0.066736355
137	0xbd952068	-0.072815716
138	0xbc8c6374	-0.017137267
139	0x3d4b8baa	0.04969374
140	0xbc26ee00	-0.01018858
141	0x3ce34b34	0.02774582
142	0x3da71a89	0.08159358
143	0xbd5d75cf	-0.05406743
144	0x3d8108db	0.06300517
145	0x3cadd53c	0.021219842
146	0xbbe32cb0	-0.0069328174
147	0x3c390988	0.011293776
148	0xbcdb4d02	-0.026770119
149	0xbd7618c2	-0.060082205
150	0x3d906b83	0.07051756
151	0xbc6fa150	-0.014625862
152	0xbd67b9fe	-0.05657386
153	0xbda6613a	-0.08124013
154	0x3c3a6d78	0.011378638
155	0x3d7bdc4a	0.06148938
156	0xbd296adc	-0.041361675
157	0xbd65455a	-0.055974342
158	0x3d93c555	0.072153725
159	0xbb267460	-0.0025398955
160	0x3cfdfadc	0.031003408
161	0x3da15dc9	0.07879216
162	0xbda173f0	-0.078834414
163	0xbc7b9210	-0.015354648
164	0xbd8c78ca	-0.06858976
165	0xbcaaf8c4	-0.020870574
166	0xbcfe3aa4	-0.031033821
167	0x3d66fb02	0.056391723
168	0xbcb1f2a4	-0.021722145
169	0xbd97baf7	-0.074087076
170	0xbb9581c0	-0.0045625865
171	0x3d4dd36e	0.050250463
172	0x3dad6065	0.084656514
173	0xbd011e64	-0.031523123
174	0x3bf8c120	0.0075913817
175	0x3d97dc97	0.07415121
176	0xbd35af24	-0.04435648
177	0x3c808bb0	0.015691608
178	0x3d7dd97a	0.06197498
179	0x3d0924b0	0.033482254
180	0xbd665975	-0.056237657
181	0x3cb73ea8	0.022368744
182	0x3d93d719	0.07218761
183	0xbd7fcee2	-0.06245316
184	0xbc80a8fc	-0.015705578
185	0x3d06ec50	0.03294021
186	0x3d05cd66	0.032666586
187	0x3d2453c6	0.040118955
188	0xbd9cf034	-0.076630026
189	0xbdb44f42	-0.0880418
190	0x3d64dbe2	0.05587376
191	0xbd3d4bcb	-0.04621486
192	0xbd41fb5b	-0.047358852
193	0xbd7e38ce	-0.062065892
194	0x3cefc7e4	0.02927012
195	0xbd173662	-0.036917098
196	0xbd2fcfec	-0.0429229
197	0x3d57abbe	0.05265402
198	0xbc9100e4	-0.01770062
199	0x3c1697b8	0.009191446
200	0xbd1bda53	-0.038050007
201	0x3d2c2322	0.042025693
202	0x3d41253e	0.047154658
203	0x3d9515d9	0.07279558
204	0xbd019db7	-0.03164455
205	0x3cfcfad8	0.03088133
206	0x3da9c6ab	0.08289846
207	0x3c08c3b0	0.008347437
208	0x3da5f9af	0.08104264
209	0x3d1ab052	0.03776581
210	0x3d84eb7b	0.06490227
211	0xbd6e7432	-0.05821628
212	0xbd68fa12	-0.05687911
213	0x3cf8916c	0.03034278
214	0x3cd26b94	0.025686063
215	0xbd89d9ad	-0.067309715
216	0x3d5dd3b2	0.054156967
217	0x3d0040a6	0.031311654
218	0xbd28f602	-0.041250236
219	0x3a371600	0.0006984174
220	0xbc655578	-0.013997428
221	0x3c9475d8	0.018122599
222	0xbd15e474	-0.036594823
223	0xbb1619a0	-0.0022903457
224	0xbd638698	-0.05554828
225	0x3d837997	0.06419676
226	0xbcb2a94c	-0.021809243
227	0xbd0507be	-0.032478087
228	0xbd817d03	-0.06322672
229	0xbd886678	-0.06660169
230	0x3d930d01	0.07180215
231	0x3d54f4ca	0.05199126
232	0xb8a19400	-7.7046454e-05
233	0x3d741d5a	0.059598304
234	0xbdaf7569	-0.08567316
235	0x3cc0b528	0.023523882
236	0x3d4ecede	0.050490253
237	0xbd339661	-0.043844584
238	0xbd9bd697	-0.07609289
239	0xbd2b10f5	-0.04176422
240	0x3cb53428	0.022119597
241	0x3d226926	0.03965106
242	0xbc6b62c0	-0.014366806
243	0xbbac29d0	-0.005254008
244	0xbbc96760	-0.0061463565
245	0x3d23b946	0.039971612
246	0x3cb3ada8	0.021933392
247	0xbd88754e	-0.06662999
248	0xbd3daa2c	-0.046304867
249	0x3a90c500	0.0011045039
250	0x3d9967a9	0.07490475
251	0xbd9a6f6f	-0.075407855
252	0x3d13f9be	0.036126845
253	0xbcaaaeb0	-0.02083525
254	0x3da299d5	0.079394974
255	0xbd1cb0f9	-0.03825471

sequential_6/dense_49/MatMul f4 [128, 256]
0	0xbd068f00	-0.03285122
1	0x3dc9226a	0.09821017
2	0x3d6d83c2	0.057986982
3	0xbc2dae5f	-0.010600655
4	0x3d412cb0	0.047161758
5	0xbd4b0b98	-0.049571604
6	0xbde26213	-0.110538624
7	0x3dc6c6a0	0.097058535
8	0x3c0ee0fe	0.0087206345
9	0xbd248022	-0.04016126
10	0xbddbc1a3	-0.10730293
11	0xbd97d5a6	-0.07413797
12	0xbdb1a040	-0.086731434
13	0x3da65f1f	0.08123612
14	0xbc240320	-0.010010511
15	0x3dfc1f39	0.12310643
16	0x3dd80740	0.10548258
17	0x3d0e606d	0.034759928
18	0xb8f15882	-0.000115082614
19	0x3dd0acec	0.10189232
20	0xbc08e4a7	-0.008355296
21	0xbdf43d40	-0.11925745
22	0xbdb3d56e	-0.08780943
23	0xbd246d00	-0.040143013
24	0x3d6a7cc8	0.057247907
25	0xbb9ab2c1	-0.004721016
26	0x3d17d693	0.03706987
27	0x3def2ab2	0.11678065
28	0x3c15179f	0.00909987
29	0x3de443e5	0.11145762
30	0xbc092493	-0.008370536
31	0x3dc0a556	0.09406535
32	0xbccec67a	-0.025241125
33	0x3d0ff9a0	0.03515017
34	0xbd6a26c6	-0.057165883
35	0x3d3dd10a	0.046341933
36	0xbd369528	-0.04457584
37	0xbda96cb0	-0.082726836
38	0x3de54580	0.11194897
39	0x3dec5e0b	0.11541375
40	0x3d40eeb5	0.04710265
41	0x3d511c68	0.05105248
42	0xbe0aad05	-0.13542564
43	0x3dd0de9c	0.10198709
44	0x3da17f80	0.07885647
45	0x3df3061c	0.118664
46	0x3b07eed4	0.0020741718
47	0xb9f14800	-0.00046020746
48	0x3cff251d	0.031145627
49	0xba206e6a	-0.00061199686
50	0xbc3ffdd4	-0.011718232
51	0x3ddd6be0	0.10811591
52	0x3c4af972	0.012388574
53	0x3d634db9	0.055494044
54	0xbdb0350c	-0.08603868
55	0x3d666f04	0.056258217
56	0x3da84b60	0.08217502
57	0x3d0fc1b3	0.035096835
58	0xbd8d087c	-0.06886384
59	0xbd276e85	-0.040876884
60	0xbd96f1f4	-0.07370368
61	0x3db61c0b	0.088920675
62	0x3d84b834	0.064804465
63	0x3dd6dd80	0.104914665
64	0x3dc62f28	0.09676963
65	0xbdab33e7	-0.08359509
66	0xbd22ec68	-0.039776236
67	0x3dac858c	0.084239095
68	0xbd9c77c3	-0.0764003
69	0xbdea2c38	-0.11434215
70	0x3dcf9938	0.10136646
71	0xbd367518	-0.044545263
72	0x3cc99b8c	0.024610303
73	0xbd513285	-0.05107357
74	0xbdcf5d10	-0.10125172
75	0x3ddacb84	0.10683349
76	0xbd809178	-0.06277746
77	0xbdba4f9d	-0.09097216
78	0xbdaf5983	-0.08561995
79	0xbd551e50	-0.05203086
80	0xbddd4ac4	-0.10805276
81	0x3e058db4	0.13042337
82	0xbd879099	-0.06619377
83	0xbdc238b1	-0.09483469
84	0xbd91995c	-0.07109329
85	0x3d33a77c	0.043860897
86	0x3d7fa83c	0.0624163
87	0x3db3b304	0.08774379
88	0xbdbb6422	-0.09149958
89	0x3ccd4280	0.025056124
90	0xbc7614b4	-0.015019584
91	0x3dfd41b7	0.1236605
92	0x3d58e204	0.05294992
93	0x3d84afef	0.06478869
94	0xbc887cd0	-0.016661078
95	0xbd340180	-0.043946743
96	0x3db299b2	0.08720721
97	0x3d97ea59	0.07417745
98	0xbc33d054	-0.010974962
99	0x3cd68fc6	0.026191603
100	0xbd675e74	-0.056486562
101	0xbd5d83bc	-0.05408071
102	0x3cbca3ac	0.023027264
103	0xbd9d4114	-0.07678428
104	0xbd831ce3	-0.06401994
105	0x3d9f3250	0.07773268
106	0x3d82ae1e	0.063808665
107	0x3ca32e30	0.019919485
108	0x3e0899f2	0.13339975
109	0xbd647597	-0.055776205
110	0xbc4f8062	-0.012664886
111	0xbdadf149	-0.08493287
112	0x3dfcbbaf	0.12340485
113	0xbd8a56f2	-0.06754865
114	0x3e04c34a	0.12965122
115	0x3c194cce	0.009356691
116	0x3c14f3bb	0.009091313
117	0xbd2e281d	-0.042518724
118	0xbd70ecc5	-0.05881955
119	0xbdb64b44	-0.089010745
120	0x3dbd6279	0.09247298
121	0x3d570238	0.05249235
122	0x3df81a7b	0.12114426
123	0xbc03de15	-0.008048554
124	0x3d97f958	0.074206054
125	0x3de93ac0	0.11388159
126	0x3dc6edf8	0.09713358
127	0x3c927670	0.017878741
128	0x3d098cb0	0.033581436
129	0xbc88fa8f	-0.016721038
130	0xbce63438	-0.028101072
131	0x3df98c86	0.12185006
132	0x3d7987a8	0.060920388
133	0xbdb634d1	-0.08896793
134	0xbc9d9f1c	-0.019240908
135	0x3ae5f161	0.001754325
136	0x3dc7639c	0.09735796
137	0xbd487563	-0.048940074
138	0xbd33c83c	-0.04389213
139	0xbdf2b15c	-0.11850235
140	0xbdc08b19	-0.09401531
141	0xbcbb2cf6	-0.022848587
142	0x38f29000	0.00011566281
143	0xbce07a5e	-0.0274021
144	0xbdc83b3c	-0.09776923
145	0xbdfa4e9b	-0.12222024
146	0xbce52dc1	-0.027975919
147	0x3d1e62a3	0.038668286
148	0xbdd146f6	-0.10218613
149	0x3daf2e20	0.085537195
150	0x3cd48d61	0.025946321
151	0x3d9570cc	0.07296905
152	0x3d65f61f	0.056142922
153	0xbd89bbfa	-0.06725307
154	0x3b8eebc1	0.0043616
155	0x3d32f3ee	0.04368966
156	0xbd37f67c	-0.0449128
157	0x3da8d90c	0.082445234
158	0xbcee00bf	-0.02905309
159	0xbd30fe28	-0.043211132
160	0x3ddb36b6	0.10703795
161	0x3d92303b	0.071381055
162	0xbb533480	-0.0032227337
163	0xbdb3526b	-0.08755954
164	0x3d9c65b0	0.07636583
165	0x3dd7a037	0.105286054
166	0x3dacce70	0.08437812
167	0xbd4f2045	-0.050567884
168	0xbdcd1cd4	-0.10015264
169	0xbcc58dc0	-0.024115443
170	0x3ddabbe0	0.106803656
171	0xbcd230c0	-0.025658011
172	0xbd8506f2	-0.06495465
173	0x3d924607	0.07142263
174	0xbdc9023d	-0.0981488
175	0xbdd22084	-0.10260108
176	0xbd426e61	-0.047468547
177	0xbddfb29f	-0.10922741
178	0x3dd3879c	0.103286
179	0xbd804f48	-0.06265122
180	0x3d4a9b8e	0.049464755
181	0x3dd98e9a	0.10622902
182	0xbdcd5ba0	-0.10027242
183	0xbd36a17f	-0.04458761
184	0xbd86a751	-0.06574882
185	0xbdc2984d	-0.09501705
186	0xbda8ffcc	-0.082519144
187	0xbd471cb2	-0.04861135
188	0xbcf09e67	-0.029372407
189	0xbddfcce4	-0.10927752
190	0xbd7cb2d0	-0.061693966
191	0x3de2d2f0	0.110753894
192	0xbd9130c8	-0.070893824
193	0x3dc73f1e	0.097288355
194	0x3d831b88	0.064017355
195	0x3c6a7aeb	0.0143115325
196	0xbcf97416	-0.030450862
197	0x3dd12ce2	0.10213639
198	0x3dc22e31	0.094814666
199	0xbcd63fc5	-0.026153455
200	0x3c471377	0.012150637
201	0xbd40363c	-0.046926722
202	0xbce81779	-0.028331505
203	0x3c16cc28	0.009203948
204	0x3de3893c	0.1111016
205	0xbd59d694	-0.053183153
206	0xbd934f78	-0.07192892
207	0x3de9d65e	0.114178404
208	0xbd6eb618	-0.058279127
209	0xbd83174d	-0.06400929
210	0x3d107ea8	0.03527704
211	0xbdafdbac	-0.08586821
212	0x3caa1fd0	0.020767123
213	0x3bdd9dc0	0.00676319
214	0xbc491b7f	-0.012274622
215	0xbd50dc86	-0.050991558
216	0xbd78db65	-0.060756106
217	0x3d64307d	0.055710305
218	0x3d128075	0.035767037
219	0xbd8592b5	-0.06522123
220	0x3cb26cc0	0.021780372
221	0x3cc47e06	0.023985874
222	0xbda06f60	-0.07833743
223	0xbd0db4f8	-0.034596413
224	0x3d9969cf	0.074908845
225	0x3b0acb00	0.0021178126
226	0xbd10495d	-0.035226215
227	0x3de21812	0.11039747
228	0xbdb5b1ad	-0.088717796
229	0x3c0df540	0.008664429
230	0xbd377620	-0.044790387
231	0x3c6e2818	0.014535926
232	0xbdb99854	-0.090622574
233	0x3d1c84cc	0.038212582
234	0xbaa22300	-0.001237005
235	0x3c3c454e	0.011491133
236	0xbcc5fffe	-0.024169918
237	0x3cbfe4c0	0.023424506
238	0x3de1d9f2	0.11027898
239	0x3dac239c	0.084052294
240	0xbd0aefdd	-0.033920158
241	0xbd8672d3	-0.0656487
242	0x3d42754a	0.047475137
243	0xbddfc694	-0.10926548
244	0xbcff652d	-0.031176174
245	0x3dff4a30	0.12465322
246	0xbcf5645d	-0.029955084
247	0x3d3cd4af	0.04610127
248	0xbdeb3dae	-0.11486374
249	0x3d2ad9ee	0.04171174
250	0x3ddd6bd4	0.10811582
251	0x3dbce537	0.09223407
252	0xbd728a76	-0.059214078
253	0x3dd2ea6b	0.10298618
254	0x3ddfa4a5	0.10920075
255	0x3d4af17a	0.049546696

sequential_6/dense_50/MatMul f4 [64, 128]
0	0x3dded417	0.10880297
1	0x3dd25b46	0.10271315
2	0x3dab5453	0.08365693
3	0xbe31c864	-0.17361599
4	0xbda7e9f3	-0.08198919
5	0xbe0a7ac4	-0.13523394
6	0x3d5be3eb	0.053684156
7	0xbd8395b0	-0.06425035
8	0x3def591c	0.11686918
9	0xbe344bf1	-0.17607094
10	0xbdf63ac6	-0.12022929
11	0x3e103f39	0.14086618
12	0x3e486e8c	0.1957342
13	0x3e12dbba	0.14341632
14	0x3d11674d	0.035498906
15	0x3d9d4cf2	0.07680692
16	0x3d913a36	0.07091181
17	0xbcc24d51	-0.023718508
18	0xbcb6f367	-0.02233286
19	0xbd5609fc	-0.052255616
20	0x3d8fa50b	0.07013901
21	0x3dd6cfcd	0.104888536
22	0x3df5ff0a	0.120115355
23	0x3e14bc81	0.14525034
24	0xbe2c8929	-0.16849197
25	0x3c6f1b10	0.014593855
26	0x3ca0b76e	0.019618716
27	0x3d053d15	0.032528955
28	0xbdb4a5f8	-0.088207185
29	0xbdca0f73	-0.09866228
30	0xbd9e901a	-0.07742329
31	0xbd519e28	-0.05117622
32	0x3d22e215	0.03976639
33	0x3df998ea	0.12187369
34	0xbe02f2ab	-0.12787883
35	0x3e2bb5c7	0.16768561
36	0xbd1ea924	-0.038735524
37	0xbe00bfd3	-0.12573175
38	0x3caad6d0	0.020854384
39	0xbda76ec5	-0.081754245
40	0x3da011eb	0.078159176
41	0xbdfae764	-0.122511655
42	0xbdf1400a	-0.117797926
43	0x3e2dc477	0.16969477
44	0xbdcd7886	-0.10032754
45	0x3e298389	0.16554083
46	0x3d3c26fe	0.045935623
47	0xbc1db6ea	-0.00962613
48	0x3d87e5b8	0.06635612
49	0xbc5fb463	-0.013653847
50	0x3d45d479	0.048298333
51	0x3d2e4830	0.042549312
52	0x3d7e6eea	0.062117495
53	0xba9caef0	-0.0011953991
54	0xbe21a9cc	-0.15787429
55	0xbce7f158	-0.028313324
56	0x3dd90e7a	0.10598464
57	0xbe2a4df6	-0.16631302
58	0xbde39399	-0.111121364
59	0x3e09c4e7	0.13454019
60	0x3d75ebaf	0.06003922
61	0xbbcac2b1	-0.00618776
62	0xbe146542	-0.14491752
63	0xbd72010a	-0.059083022
64	0x3df32948	0.11873108
65	0x3d939424	0.0720599
66	0x3e0edfca	0.13952556
67	0xb8dfb6f8	-0.00010667549
68	0xbde1248c	-0.10993299
69	0x3d950b8b	0.07277592
70	0x3ddbecf8	0.107385576
71	0xbdf1e23f	-0.11810731
72	0xbe1525e4	-0.14565235
73	0xbd96b873	-0.073594
74	0xbe314fae	-0.17315552
75	0x3a2ff534	0.00067122583
76	0xbc9c2d8b	-0.019064685
77	0xbcf8b70b	-0.03036072
78	0xbdf4f0ca	-0.11959989
79	0x3e308198	0.17236936
80	0xbe1f1fa1	-0.15539409
81	0xbe207c9a	-0.15672532
82	0x3d86713a	0.06564565
83	0xbdfa096a	-0.12208827
84	0x3df486bb	0.1193976
85	0x3d124b0c	0.0357161
86	0xbda88f38	-0.08230442
87	0xbdeaf3d4	-0.11472288
88	0xbd5801bb	-0.052736025
89	0xbe1b0a40	-0.15140629
90	0xbd0139b5	-0.031549174
91	0x3badcfb2	0.0053043
92	0xbd33c1db	-0.043886047
93	0x3e584605	0.2112046
94	0x3e38822a	0.18018404
95	0xbdc40b33	-0.095724486
96	0x3cd215e2	0.0256452
97	0x3c878059	0.016540693
98	0xbe2a7ead	-0.16649885
99	0xbdd4ff0b	-0.10400208
100	0x3e44eb07	0.19230281
101	0xbddbb3f5	-0.107276835
102	0xbd9796cb	-0.07401808
103	0xbdc37f93	-0.09545817
104	0xbcb8c14b	-0.022553107
105	0xbe1e6846	-0.15469465
106	0x3dec05a6	0.11524515
107	0xbcf0532f	-0.02933654
108	0xbd193893	-0.03740747
109	0x3d6b7c14	0.057491377
110	0x3d98238c	0.07428655
111	0xbe23fef0	-0.1601522
112	0x3d0392b9	0.032122348
113	0x3dc96dad	0.09835372
114	0x3e10ed72	0.14153078
115	0xbe27de23	-0.16393332
116	0xbe165c6e	-0.14683697
117	0x3cdcb5a0	0.026942074
118	0xbdbc22c9	-0.09186322
119	0x3c725c16	0.014792463
120	0x3e1a094b	0.15042607
121	0x3dd393b7	0.10330909
122	0x3e3c08f9	0.18362798
123	0x3e2d9a25	0.16953333
124	0xbdabb5f1	-0.08384312
125	0x3e22ed99	0.15910949
126	0xbdb4faeb	-0.08836921
127	0x3cda4fc0	0.026649356
128	0x3d721634	0.059103206
129	0xbdf03ade	-0.11729978
130	0x3db5a8ea	0.088701084
131	0x3d77d308	0.06050399
132	0xbc71cfb0	-0.014758989
133	0xbbeb39e0	-0.00717853
134	0xbe1930af	-0.14959978
135	0x3cdd83c0	0.027040362
136	0xba934180	-0.001123473
137	0x3d91026c	0.0708054
138	0xbda5f266	-0.081028745
139	0xbd1c08b0	-0.038094223
140	0xbdf377a9	-0.11888058
141	0xbd396c20	-0.04526913
142	0x3df7e742	0.12104656
143	0x3da7d5d6	0.08195083
144	0x3d78c570	0.060735166
145	0xbe19e7b1	-0.1502979
146	0x3e2f1b0f	0.17100166
147	0xbd8a7b6b	-0.06761821
148	0x3e0b81f3	0.1362379
149	0xbe1a84b6	-0.15089688
150	0x3b05eb40	0.002043441
151	0x3cd72d78	0.026266798
152	0xbda0e043	-0.078552745
153	0xbde9ca94	-0.11415592
154	0xbddefa90	-0.10887635
155	0xbdd9bbdb	-0.10631534
156	0x3e049685	0.12948044
157	0x3d304a20	0.04303944
158	0xb9af9000	-0.0003348589
159	0x3d85ee8c	0.0653964
160	0x3e315831	0.17318799
161	0xbe2aa895	-0.16665871
162	0x3e0657e3	0.13119464
163	0xbd9edaed	-0.077566005
164	0x3b27e900	0.0025621057
165	0xbd166ecc	-0.036726758
166	0xbe1d9452	-0.15388611
167	0xbca0f8c8	-0.019649878
168	0xbe12ef30	-0.14349055
169	0xbd7aa07c	-0.061188206
170	0xbd07d0e0	-0.033158183
171	0xbd4743f8	-0.048648804
172	0xbde833a3	-0.11337974
173	0xbe245001	-0.16046144
174	0xbd01107c	-0.03150986
175	0x3dbdeb3e	0.092733845
176	0x3d635054	0.05549653
177	0x3d96dfe6	0.07366924
178	0x3df7142e	0.12064396
179	0x3e025fa7	0.12731801
180	0x3d52a8bc	0.05143045
181	0x3b7bc140	0.0038414747
182	0x3d198478	0.037479848
183	0x3d5053ac	0.050861046
184	0xbdf7216b	-0.12066921
185	0xbdb14f10	-0.08657658
186	0x3bd4d3a0	0.006494954
187	0x3e150527	0.14552747
188	0x3e22f8a5	0.15915163
189	0x3c255e20	0.010093242
190	0xbe1fa000	-0.15588379
191	0xbd43f2a4	-0.047838822
192	0xbd1443c4	-0.03619744
193	0x3dbfb912	0.09361471
194	0xbc871920	-0.016491473
195	0xbd00a134	-0.031403735
196	0x3daaed66	0.083460614
197	0x3e0837c1	0.13302518
198	0xbd5e2b4c	-0.05424051
199	0xbdbf7cc6	-0.093499705
200	0xbd0b8dd0	-0.03407079
201	0x3d120320	0.03564751
202	0xbe1624c7	-0.14662467
203	0xbe25c7f9	-0.16189565
204	0xbe226a2a	-0.15860811
205	0x3c1519d0	0.009100392
206	0x3dcecd26	0.10097723
207	0xbe0784f2	-0.13234308
208	0xbdade218	-0.084903896
209	0x3e310057	0.17285286
210	0xbd8f765a	-0.07004996
211	0xbc0962a0	-0.00838533
212	0xbdbea6da	-0.09309168
213	0x3d6739fc	0.056451783
214	0x3d13906c	0.036026403
215	0xbe0b5f0a	-0.13610473
216	0xbd632466	-0.055454634
217	0x3b9aa2a0	0.0047190934
218	0x3d4e7b3c	0.050410494
219	0xbca953c8	-0.020669833
220	0x3e143b35	0.1447571
221	0xbca1d9a0	-0.019757092
222	0x3dc615ca	0.09672125
223	0xbdcf0ad8	-0.1010949
224	0x3d91ef80	0.07125759
225	0x3dc04ee6	0.09390049
226	0xbd3f3370	-0.046679914
227	0xbdb09f09	-0.086240835
228	0xbd37cd50	-0.044873536
229	0xbe2ba4e0	-0.16762114
230	0x3db5fd72	0.088862315
231	0xbe21ccd0	-0.15800786
232	0xbe01c3b3	-0.1267231
233	0xbdf5d585	-0.12003616
234	0x3d304e68	0.043043524
235	0xbd08eff8	-0.033431977
236	0xbe0f619d	-0.1400208
237	0xbd0a28dc	-0.033730373
238	0x3e2868eb	0.16446273
239	0xbe019195	-0.12653191
240	0xbbf11560	-0.0073572844
241	0xbe081151	-0.13287856
242	0x3e128415	0.14308198
243	0xbcb3b118	-0.02193503
244	0xbe09be74	-0.13451558
245	0xbe2c81b1	-0.16846348
246	0x3d3ba41c	0.045810804
247	0x3aa49700	0.0012557209
248	0x3d3f21d8	0.046663135
249	0x3c79e720	0.015252858
250	0xbd6b8162	-0.057496436
251	0x3d51e5c0	0.051244497
252	0xbe0be208	-0.13660443
253	0xbd9e9470	-0.07743156
254	0x3cf56ac8	0.029958144
255	0x3e2dcda1	0.16972972
