app/src/main/assets/model2.tflite (tflite, 186752 bytes, 11 tensors)

sequential/dense/BiasAdd/ReadVariableOp f4 [256]
00000000: e108 073c 9331 613c 6ee0 c3ba 3a75 4b3c
00000010: a4c2 d83c ab26 73bb 0000 0000 0000 0000
00000020: ffee 05bb 0000 0000 0000 0000 0000 0000
00000030: a598 a73c 01e5 eeba 8b51 123c c822 73bc
00000040: 2c3d a2bc 0000 0000 0654 973b 4a5c b63c
00000050: f44a bc3c 0000 0000 0000 0000 563c 9abb
00000060: 97cd 3cb9 b1b9 243c cb45 d4ba 3b9c 943c
00000070: 6693 93bb 241c a43c cfd8 83b9 8f14 5cbc
00000080: f6dd 79bb 5fb4 993c e070 b2bc 56ac b13c
00000090: 0000 0000 5122 9cbc c760 683c 0000 0000
000000a0: 1dc3 bbbc 07e9 b63c 4355 663c 63d5 9e3c
000000b0: 54cc 523b 0bf3 ab3c 0000 0000 0000 0000
000000c0: 0000 0000 1ce8 243a 0000 0000 7415 b63c
000000d0: 7c32 86bc 0000 0000 4c07 80bb dc98 9e3c
000000e0: 8c4c ba3c 0000 0000 a0a6 bd3c 0000 0000
000000f0: 3855 163c 09fb 893c f72c a63c 0000 0000
00000100: bfb5 5fbc dbdf 50bb 85af 7b3b 925a 853c
00000110: 46e3 823c babe 9e3c fc21 a33c 0000 0000
00000120: 46a6 793a 0880 ff3b 028f 85bc 7550 a93a
00000130: 94bb d83a 0000 0000 a61d 943c c0bb de38
00000140: 0000 0000 83cf 833b 0000 0000 572b 133b
00000150: ac8f 043b 0000 0000 bff1 ce3c f078 713c
00000160: e888 9cbb f21f bd3c 19b6 823c a70b d13c
00000170: 0000 0000 0000 0000 187a 9f3c 0000 0000
00000180: 0000 0000 5d05 403c 3c67 9c3a 0000 0000
00000190: 26be d83b 18b6 a6ba 0000 0000 76f2 a63c
000001a0: 0000 0000 3441 0bbc 56dd 933c 3e3d 953a
000001b0: 6ae5 0b3c 4c79 99bc 0000 0000 0000 0000
000001c0: 214e d73c 7f64 97bc e980 523c 24b0 64bc
000001d0: 0000 0000 d2ec 35bb 0000 0000 c226 063d
000001e0: 0aa0 c53c 4a76 a6bc 0000 0000 0000 0000
000001f0: 0000 0000 d31a 55bb 0000 0000 6c43 07bc
00000200: 488d 463c 521b c73c 0000 0000 0000 0000
00000210: 7d31 733c 1478 a2bc 120b 9bbb 9ef3 56bc
00000220: 0000 0000 0000 0000 7f94 fe3b 3a1b d03c
00000230: 545f 513b 2925 8b3c 0000 0000 0000 0000
00000240: ea68 973c b395 d03c 5853 0d3c 8d7c bc3c
00000250: 6c43 31bb 6356 033d f73a 1ebc 0000 0000
00000260: 7650 553c 0000 0000 0000 0000 98d7 ab3c
00000270: 2848 a43c 24b7 693c 27cd b73c d60c 743c
00000280: 0000 0000 2c92 8a3c f284 e9ba d217 f3bb
00000290: 023e 893c 559d 77bc bd1b b93c 0000 0000
000002a0: 3a66 5b3c ad21 a63c 0000 0000 7427 b03c
000002b0: cbb9 4abc b9ca 84bb 95b7 96bc 0000 0000
000002c0: 0000 0000 0b52 7f3c a620 3fbc 0000 0000
000002d0: b70b 5cbb 2f24 aa3b c38c a13c d8af fc3b
000002e0: 0000 0000 0000 0000 0000 0000 e32b 823c
000002f0: d247 93bc 8960 f33c 205a b23c b042 c13c
00000300: 105e a13c 0000 0000 70d8 093d 0000 0000
00000310: 0000 0000 0000 0000 d6a7 943c a08d d33c
00000320: ea49 a93c ec21 963b b44b 0bbc 0000 0000
00000330: 0000 0000 0000 0000 48fc 8f3c 0000 0000
00000340: 0000 0000 bff8 983c 53b1 283c 2dae adba
00000350: c8bb 0b3d 0000 0000 7f5e bd3c 52ca da3c
00000360: 0000 0000 ff7d 953c 0e6e 263b effa c43c
00000370: 0000 0000 eb7c 32ba ca1c 933c 7366 c43c
00000380: 48d4 bb3c efa3 ee3b 80dc 97bb 59a4 513a
00000390: 0000 0000 3a6f d83c f605 e73a 0000 0000
000003a0: 0000 0000 0135 9b3c f260 393c 0000 0000
000003b0: 6d0b 4c3b 2862 623c 24ac 71bc 459a e43b
000003c0: 5173 093c 801c ba3c 0ad7 ba3c 0000 0000
000003d0: 4eb0 cb3c 40e4 a2bb 2fcd 8dbb 7765 eabc
000003e0: 0d93 31bb 0942 ad3c 8309 283c 4408 c43c
000003f0: c40b c2bc 041a f0ba a252 453a 019d aa3c
0.008241863 0.01374473 -0.0014944205 0.012418086 0.02646 -0.0037101905 0.0 0.0
-0.0020436642 0.0 0.0 0.0 0.020458529 -0.0018226207 0.008930574 -0.014839835
-0.01980456 0.0 0.0046181707 0.022260804 0.02298496 0.0 0.0 -0.0047068996
-0.00018005665 0.010054038 -0.0016195116 0.018140903 -0.0045036552 0.02003295 -0.00025147802 -0.013432636
-0.0038126684 0.018762765 -0.021782339 0.021688621 0.0 -0.019059332 0.01418323 0.0
-0.022920186 0.022327913 0.014058414 0.01938886 0.0032165246 0.020989915 0.0 0.0
0.0 0.00062906905 0.0 0.022227027 -0.016381495 0.0 -0.00390712 0.019359998
0.022741579 0.0 0.023150742 0.0 0.009175591 0.016843336 0.020285113 0.0
-0.0136541715 -0.003187171 0.0038404178 0.016278539 0.015977513 0.019378055 0.019913666 0.0
0.0009523373 0.007797245 -0.016303543 0.0012917655 0.0016535395 0.0 0.018080544 0.00010620756
0.0 0.00402254 0.0 0.0022456252 0.0020227237 0.0 0.025261758 0.014738306
-0.0047770627 0.023086522 0.015955972 0.025518252 0.0 0.0 0.019467399 0.0
0.0 0.011720029 0.0011932622 0.0 0.0066144643 -0.0012719063 0.0 0.020379286
0.0 -0.008499432 0.018049877 0.001138605 0.008538583 -0.018734597 0.0 0.0
0.026282372 -0.018480537 0.012848117 -0.013958011 0.0 -0.0027759564 0.0 0.032751806
0.024124164 -0.020320076 0.0 0.0 0.0 -0.003251721 0.0 -0.008255821
0.012118645 0.02430502 0.0 0.0 0.014843342 -0.019832648 -0.0047315443 -0.013119606
0.0 0.0 0.007769167 0.025403608 0.003194769 0.016985493 0.0 0.0
0.018482644 0.025462007 0.008625828 0.02300861 -0.0027048243 0.032064807 -0.009657613 0.0
0.013019672 0.0 0.0 0.020976827 0.020053938 0.0142648555 0.022436691 0.014895638
0.0 0.016915403 -0.001781611 -0.007418611 0.0167532 -0.0151131945 0.022596234 0.0
0.013391072 0.02027973 0.0 0.021503188 -0.012373398 -0.0040524867 -0.018398086 0.0
0.0 0.015583525 -0.011665499 0.0 -0.0033576319 0.0051923017 0.01972044 0.007711392
0.0 0.0 0.0 0.015890067 -0.017978583 0.029709117 0.02177149 0.02359137
0.019698173 0.0 0.033653677 0.0 0.0 0.0 0.018146437 0.025824368
0.020665128 0.0045816805 -0.008501936 0.0 0.0 0.0 0.017576352 0.0
0.0 0.018673299 0.010296184 -0.0013250761 0.03411463 0.0 0.023116348 0.026707802
0.0 0.018248556 0.0025395188 0.024045436 0.0 -0.00068087754 0.017958064 0.023974633
0.022928372 0.007282726 -0.00463444 0.0007997207 0.0 0.026420224 0.0017625678 0.0
0.0 0.018946173 0.0113146175 0.0 0.003113474 0.013817348 -0.014750514 0.006976398
0.00838931 0.022718668 0.022807617 0.0 0.024864342 -0.004971057 -0.0043274383 -0.028612835
-0.0027095706 0.021149652 0.010256174 0.023929723 -0.02368725 -0.00183183 0.0007527267 0.020826818

sequential/dense_1/BiasAdd/ReadVariableOp f4 [128]
00000000: e301 1e3c 6ae1 a83a 9e74 05bc 9102 b53c
00000010: 5685 2d3b 0000 0000 4601 a03c 6f8d 29bc
00000020: 0000 0000 f8f9 9d3c 948a d13a fd1d 993c
00000030: 0000 0000 9cbf 333c 25df a23b 36c2 d4bb
00000040: 55d5 dd3c 18e6 f2bb 9db7 d13b 7cac ce3a
00000050: 0f00 95bb 0000 0000 b61f eebb c25b 423c
00000060: ed50 583a e47a b83c 87a8 ddbb 1122 b23c
00000070: feb9 743c 31ad cebb ea11 7abc d950 9c3c
00000080: 9e4e 993c 2023 9d3c d6f5 cbba 8d5b 4e3c
00000090: aa72 a73c 0000 0000 8ed0 b83c 7da1 bb3c
000000a0: fa2c 4f3c 0000 0000 5079 2b3c eae7 2a3c
000000b0: 03e7 d33c 68b7 e7ba b0a0 85bc 0000 0000
000000c0: 0000 0000 0000 0000 a411 42bb 01eb 49bc
000000d0: 10c8 e53c faa4 13bb 1c50 a03c c937 bd3c
000000e0: 333c 5dbc b1fd ddba 0aee 3bbc 651f 2fbc
000000f0: 234c a33c e07f d5bb 0000 0000 f421 973c
00000100: 58c6 9a3c 16a8 c03c 0000 0000 9193 2a3c
00000110: 1cb7 f7ba 71db a23c 0000 0000 5dd6 b43c
00000120: d7d2 ba3c 5e09 ebbb 599a 7fbc 3770 c63c
00000130: 3ae4 903c 1064 be3c 48e8 0cba 1d45 8f3c
00000140: b320 7f3c 542b b43c e3f7 a63c c77d 60bc
00000150: 046a 11bc 0b81 c13c 9d85 bb3c 87a5 b13c
00000160: 8069 57bc aa3d 2c3c e39c b03c b83f c9bc
00000170: f140 a13c 6c79 d23c 0000 0000 c7d2 933c
00000180: 5e85 60bc 5039 ac3c 3a7c 84bb 9d36 feb8
00000190: 70a4 f73a 678e b43c 4f56 ad3c ef3f 11bc
000001a0: fcb8 1fbc ade2 20bc cee0 93ba 1131 e5bb
000001b0: 5e83 9abc 87bd d03b 5ce7 983c 228d 74ba
000001c0: 4e4b 76bc 0988 00bc 8804 da3c 0a29 74bc
000001d0: 368a 59bb 0000 0000 56b6 123c 9840 a1bc
000001e0: 69e5 ba3c 2cee f0ba 1214 0abc 0000 0000
000001f0: a88f 8f3c ef87 54bc 4c29 f43a 7767 c03c
0.0096440045 0.0012884561 -0.0081454795 0.02209595 0.002647718 0.0 0.019531857 -0.010348662
0.0 0.019284233 0.0015986734 0.018691057 0.0 0.010970976 0.0049704486 -0.0064928783
0.027079264 -0.007412683 0.0064000622 0.0015767957 -0.004547126 0.0 -0.007266964 0.011862697
0.0008251805 0.022519536 -0.006764475 0.02174476 0.014936922 -0.006307267 -0.01526306 0.01908152
0.018714245 0.019181788 -0.0015560936 0.01259507 0.020440418 0.0 0.022560384 0.022904152
0.012645001 0.0 0.010465935 0.010431269 0.02586699 -0.0017678561 -0.016311973 0.0
0.0 0.0 -0.0029612565 -0.012324096 0.028049499 -0.0022528754 0.01956945 0.02309789
-0.013503122 -0.0016936568 -0.011470327 -0.010688637 0.019933766 -0.006515488 0.0 0.018448807
0.018893406 0.02351765 0.0 0.010411159 -0.0018899175 0.019880028 0.0 0.022074873
0.022805614 -0.0071727475 -0.015600764 0.02422343 0.017686952 0.023241073 -0.0005375189 0.01748901
0.015571761 0.021993317 0.020381873 -0.013701863 -0.008875374 0.023621103 0.02289086 0.021685375
-0.013147712 0.010512749 0.021559184 -0.024566516 0.019684287 0.025692664 0.0 0.018044842
-0.013703672 0.021023422 -0.0040431293 -0.00012121836 0.0018893611 0.022040559 0.02115932 -0.008865341
-0.009748694 -0.009819669 -0.0011282207 -0.0069943746 -0.018861469 0.0063702497 0.018665008 -0.0009328892
-0.0150326025 -0.007844933 0.026613489 -0.014902363 -0.0033193952 0.0 0.008954605 -0.019684121
0.02281447 -0.0018381528 -0.008427637 0.0 0.017524555 -0.012971862 0.001862803 0.023486836

sequential/dense_2/BiasAdd/ReadVariableOp f4 [64]
00000000: 3f55 893c ac10 09ba 22b1 bdbb 11cb a5b9
00000010: 0000 0000 0e62 b7bb b753 b63c 06ca a5b9
00000020: d438 64bc e611 703b 2929 73bb 7ab6 afb8
00000030: 1135 91bc 62b4 9b3c 60c7 6dbb 0000 0000
00000040: a454 95bb bad0 c13c 17d4 9eba f677 9e3c
00000050: 0000 0000 4b27 54bb 0000 0000 242d 61bc
00000060: c4eb a43c c340 40bb eae2 ac3c e9c6 d6bb
00000070: 0000 0000 656e daba b535 c8bb b997 89bc
00000080: 028d ed3c 17ca 25ba 0477 8dbc 9f40 a63c
00000090: 6720 cc3c 0000 0000 bb38 8dbc cbef 03bb
000000a0: d9f8 35bc d061 e1bb dc10 44bc 8f74 b63c
000000b0: 435f cc3c 071d 15bb d7ef 13bc 1f89 903c
000000c0: 1267 1dbc 6c50 66bc 0000 0000 700a aa3c
000000d0: 0000 0000 0000 0000 71e7 b23c 0000 0000
000000e0: 0000 0000 fce9 e539 717c 8abb 4c49 e2bb
000000f0: eede c73c 1342 bdbb 28da ad3c 0000 0000
0.016764281 -0.00052286196 -0.005788938 -0.0003162255 0.0 -0.005596406 0.022256715 -0.00031621772
-0.0139295645 0.0036631762 -0.003710339 -8.378639e-05 -0.0177255 0.019006912 -0.0036282167 0.0
-0.004557209 0.023659099 -0.0012117651 0.019344311 0.0 -0.0032372053 0.0 -0.0137436725
0.020131953 -0.0029335476 0.021104295 -0.0065544737 0.0 -0.001666498 -0.006109918 -0.01679598
0.028997902 -0.0006324364 -0.017268665 0.020294486 0.024917794 0.0 -0.017238965 -0.0020131941
-0.011106693 -0.0068781152 -0.01196691 0.022272376 0.024947768 -0.0022752897 -0.00902935 0.01764351
-0.009607093 -0.01405726 0.0 0.02075693 0.0 0.0 0.021838875 0.0
0.0 0.00043852616 -0.0042262604 -0.0069057103 0.024398293 -0.005775699 0.02122219 0.0

sequential/dense_3/BiasAdd/ReadVariableOp f4 [32]
00000000: 226a b03c 0000 0000 fcee dcbb 8f8b e1bb
00000010: 59d5 43bc 0000 0000 2603 92bc 0000 0000
00000020: 6911 d53a cb28 87ba dfec a4bc 0000 0000
00000030: eb78 1d3b 0524 86bc 3a9e d5bb 088b 183b
00000040: ca37 3cbc 9301 b43c b9c4 913b f220 b63c
00000050: 0000 0000 fd3c 69bb edd7 bd3c 0000 0000
00000060: 18bf 51bc 89e5 633a d25b 1fbc c781 9a3c
00000070: 46b4 bfbb 3004 a0bc 7ea5 6d3b 0000 0000
0.021534983 0.0 -0.0067423563 -0.0068830918 -0.0119527215 0.0 -0.017823767 0.0
0.0016255799 -0.001031184 -0.02013248 0.0 0.0024028372 -0.016374597 -0.006519106 0.0023276228
-0.0114879105 0.021973407 0.0044485 0.022232506 0.0 -0.003558933 0.02317425 0.0
-0.012801908 0.0008693566 -0.0097264815 0.01886071 -0.0058503477 -0.019533247 0.003626197 0.0

sequential/dense_4/BiasAdd/ReadVariableOp f4 [16]
00000000: dca6 b93c 8217 983c 0000 0000 0000 0000
00000010: a8b7 b93c 0000 0000 dcb7 b93c 72e8 70bc
00000020: 76b0 b9bc 0000 0000 0000 0000 c9a9 87bc
00000030: 0000 0000 dc50 433c 1eb9 b9bc 84a2 36bb
0.022662573 0.018565897 0.0 0.0 0.022670582 0.0 0.022670679 -0.014703857
-0.022667151 0.0 0.0 -0.016560452 0.0 0.011921134 -0.022671279 -0.0027867863

sequential/dense/MatMul f4 [256, 8]
00000000: 0706 b73d 044e 29bc a6ba a53d 06e7 bfbd
00000010: cf6e 25bd e7d6 153d a4e2 85bd 13d3 9bbd
00000020: 67ea e4bc 8b09 fdbd 2ae2 1a3e 6cf1 7fbb
00000030: 0a75 69ba 8fff 93bd 00bb 61bb e0e4 753d
00000040: 9e8b b2bd 1282 e83c 7858 6dbc f6de e7bc
00000050: d541 ac3c b9a9 683d da4f be3d f650 71bd
00000060: 6010 33bd 115f 0d3d 4e9b fabd 1dea 763d
00000070: 50d1 233e 3c2a 853c 09bc f63d 1539 18be
00000080: e990 dabc 796f d13d 7123 04be 740f 933c
00000090: 7e91 63bd c7dc f8bc 68eb a6bb be19 47bc
000000a0: 4ff0 843d 8319 8dbd fe21 a7bd 3ae5 9cbd
000000b0: 3da1 583d 1813 5cbd eb05 acbd 5894 2e3d
000000c0: 9350 08be 8c61 fbbd f061 ecbc dcfa c13d
000000d0: f086 0c3e e803 c93d 0067 133a 896e 0cbe
000000e0: e12d a8bd 2859 aabc 48c2 0d3d 48ad fbbd
000000f0: ba12 d0bd 5e32 9e3d 5a4b ba3d c82c fa3d
00000100: 9e46 cc3d 9bcf 033e 64a0 203d 20ca e1bd
00000110: ab6a ab3d 49e4 a8bd d7fe 163c f1ff db3d
00000120: d4d0 2abd 63b4 17be 2afc 4cbd 809e cfbc
00000130: 3454 fc3d fe56 00be 247f 8ebd 04e3 48bd
00000140: 85b1 08be 3731 d8bd 0030 c1bb 80cf f23c
00000150: b808 e53c cee1 8a3d 38bf f23c ebbe 9bbd
00000160: 9b00 a4bd 004c 01be 3ce8 bd3d 3810 d2bc
00000170: 4729 ccbd 1930 04be 80e2 09be 4776 0bbe
00000180: edd8 163e 430b 02be 2165 fcbd 0c11 113e
00000190: 1964 29be 16ae b53b 9761 cc3d bdb8 93bd
000001a0: 756d 063e 74af cd3d e3c7 243e 0086 9bbd
000001b0: 8b50 21be e4a0 64bd b3c7 0e3d de0f a3ba
000001c0: 9825 0fbe 22c3 753d 341e c53b 73fb 003e
000001d0: 8294 e1bd 1db6 87bd 63b0 d6bc 8805 35be
000001e0: 77a1 4ebd c59e 173e a256 6cbd 2a91 a2bd
000001f0: 90b7 cd3a 5504 b43d 01ed b9bd 4a66 1fbc
00000200: e4e9 d73d 0d4b 933d 9d77 a93d 80b0 86bd
00000210: 2d5b b53d ea3c 6cbd 76a0 d4bd d1e2 573e
00000220: 6dbb 98bd 7adf b4bd 88a3 0b3d fd7d 95bd
00000230: fc11 2e3d beec 133e 5040 113c f6c9 e8bd
00000240: f065 153e 04d5 1e3d 5496 be3c d78c fbbd
00000250: b1ee f63d 9404 2dbd b80a e5bc 0457 cd3d
00000260: e657 ba3d add2 9c3d cc00 db3d 47f6 9c3d
00000270: 7643 1f3e ad93 9dbd 196d 3c3e 5a25 a6bd
00000280: 53b2 ca3d cdac 1bbd 4ee8 143e 35ed c43d
00000290: fdee b53d 1706 113c eb07 083d 6163 5a3c
000002a0: 9214 8abd a345 93bd b1c2 b0bd 8ba2 b0bd
000002b0: e8e3 83bc 584c 83bc d4b3 033d 5c6f 573d
000002c0: bcfa 4ebd 81bf 9cbd a7c6 03be 2a73 9bbd
000002d0: 30d3 ce3c 980b 1b3d fccf 84bd 9aec f2bd
000002e0: fd6e cbbd 5831 9b3d 54ab 373d dffc 5d3d
000002f0: 77f9 023e 1fee 5abc baae efbd 63e4 463e
00000300: b9df cb3d 746f 84bd e8e0 16be 2f3d f8bd
00000310: 8b70 c33d cf65 94bd 6af2 87bd 1abb d8bd
00000320: f0b7 02be c0b2 89bc 28cd 173e a921 503d
00000330: 2675 e5bd 5596 8b3d 923b e23d 1ce0 2f3e
00000340: 581e c93d 3631 bfbd c815 a7bd fa5b 92bd
00000350: 7777 073e f096 3e3d 4923 0cbd 9c46 fe3d
00000360: fb86 56bd 71c6 a6bb 6ef8 ecbd 732f f33d
00000370: 7e2a 273e e7fa 243d 3e2e 073e 7dad 0dbe
00000380: 302c 1cbe c583 8e3d 8e8f ef3d a013 6cbd
00000390: feb8 e5bd 45c4 053e 2d5b 223e 8714 a9bd
000003a0: a338 cb3d 6cc6 8e3d d5b7 fdbd 3f54 0bbd
000003b0: efc1 43bd a1b2 b43d 66ac d8bc 23bd 00bd
000003c0: 2214 9e3d 956c 54bd 5442 88bd a78e a8bd
000003d0: cf90 99bd 4d3a af3d 576b e03d 6f69 a7bd
000003e0: 89df e2bd 3ae6 153e e12e 0b3e 8479 e7bd
000003f0: f1c4 a6bd 1f5c 62bc f0f8 3cbd 8fe9 8dbd
0.089366965 -0.010333542 0.08092241 -0.09370236 -0.04038888 0.0365819 -0.06537369 -0.076086186
-0.027943803 -0.12355336 0.15125337 -0.003905381 -0.0008905685 -0.07226478 -0.0034443736 0.060032725
-0.08718036 0.028382335 -0.014486425 -0.028304558 0.021027485 0.056802485 0.09292574 -0.0589151
-0.04371679 0.03451449 -0.12236653 0.06028186 0.15997815 0.01625549 0.120475836 -0.14865525
-0.026680427 0.1022634 -0.12904145 0.017951705 -0.055558674 -0.030378712 -0.0050939806 -0.0121521335
0.06491148 -0.068896316 -0.0816078 -0.07660909 0.052888144 -0.053729147 -0.08399566 0.04262194
-0.13311987 -0.12274465 -0.028855294 0.09471676 0.1372335 0.09815198 0.0005622953 -0.13714041
-0.08211876 -0.020794466 0.03460911 -0.1228891 -0.10159822 0.077244505 0.090964034 0.122155726
0.09974407 0.12872164 0.03921546 -0.110248804 0.08369955 -0.08246667 0.009216032 0.10742176
-0.04170306 -0.14814906 -0.05004517 -0.025344133 0.12320748 -0.12533185 -0.06957844 -0.049044624
-0.13348968 -0.10556262 -0.0058956146 0.02963996 0.027958259 0.0678135 0.029632196 -0.07604774
-0.08007928 -0.12626648 0.09272811 -0.0256425 -0.099688105 -0.12908973 -0.13465309 -0.13619338
0.14731188 -0.12699609 -0.12323976 0.14166659 -0.1654209 0.0055444343 0.09979551 -0.072129704
0.13127692 0.10043231 0.16091876 -0.07593918 -0.15753381 -0.0558175 0.034858417 -0.0012440642
-0.13979185 0.060000546 0.0060155634 0.1259592 -0.11014654 -0.06626532 -0.026207155 -0.17677891
-0.050446954 0.1480666 -0.057699807 -0.07937844 0.0015694965 0.08789889 -0.09078408 -0.009728977
0.10542658 0.07192049 0.082747675 -0.065766335 0.08855281 -0.05767528 -0.10382168 0.21082617
-0.07457624 -0.08831687 0.034091502 -0.07299421 0.04249762 0.14445779 0.008865431 -0.11366646
0.14589667 0.038777366 0.023265041 -0.122827224 0.120572455 -0.042240694 -0.027959213 0.100263625
0.090987965 0.07657371 0.10693511 0.07664161 0.15553078 -0.076941825 0.18400992 -0.08112593
0.09897294 -0.038006593 0.14541742 0.09615556 0.08883474 0.00885155 0.033210676 0.013329358
-0.06742205 -0.071910165 -0.086308844 -0.086247526 -0.016099885 -0.016027614 0.03215392 0.052596435
-0.050532088 -0.07653714 -0.12868749 -0.07590325 0.025247186 0.037852854 -0.06484982 -0.118615344
-0.09933279 0.07577771 0.044841126 0.054196235 0.12790476 -0.013362437 -0.11703248 0.1942306
0.09954781 -0.064665705 -0.14734232 -0.12121045 0.0954295 -0.07245981 -0.06638034 -0.10582562
-0.12765479 -0.016808867 0.14824355 0.05081335 -0.11203985 0.06815783 0.110465184 0.17175335
0.09820241 -0.09335558 -0.08158451 -0.071464494 0.13229166 0.046530664 -0.034213338 0.124158114
-0.05237482 -0.005089574 -0.11570822 0.118742846 0.16324803 0.04027834 0.13201234 -0.13835712
-0.15251231 0.06958727 0.11697303 -0.057635903 -0.11216925 0.13063152 0.15855093 -0.082558684
0.09922912 0.0697144 -0.12388579 -0.03401589 -0.04779237 0.08823133 -0.026449393 -0.031430375
0.07718684 -0.051861364 -0.06653276 -0.08230334 -0.07498323 0.08556042 0.109579735 -0.08174407
-0.11077792 0.14638606 0.13592102 -0.11302474 -0.08143032 -0.013815909 -0.046135843 -0.069293134

sequential/dense_1/MatMul f4 [128, 256]
00000000: 4257 fa3d 0c1b 5fbb 4d92 9e3d 86b3 593d
00000010: 7ccd 813d 9e91 adbd 70a6 69bd 18aa 413d
00000020: 8a0e 05bd d87c 57bd e05d 0dbc 88fb f2bd
00000030: 5e69 a9bc b950 e93d b1c0 613c 7483 a1bd
00000040: 8ce9 adbc 4095 bb3c dfae e43c 3793 cf3d
00000050: a4ed 2e3d 501a 23bd ac22 aebd 3b30 c2bb
00000060: 589b 35bc add2 eb3d c76b b43d a60c 823d
00000070: 184c 58bd 855d 81bd 9b44 043e 776f babd
00000080: 3bf0 b43d b6cb a3bd c3df d4bd b37a 84bd
00000090: 281f 443d a3b4 863c dded 70bc 18e6 0d3d
000000a0: bbd4 61bd 28ff 0b3e 3df8 0b3d 13c1 3d3d
000000b0: 7f37 f9bd ff4e e53c 3865 09bd 1ca1 d03d
000000c0: 00e8 a03a 1723 6cbd 544b 9b3d 769e 5d3d
000000d0: d753 9c3d 60bc c7bd da52 febd f573 df3d
000000e0: e4ba 0bbc d499 aebd fbd0 01bd 00f1 36bb
000000f0: 0891 5c3d 1740 a7bc 4827 9ebd 9076 b23c
00000100: 1b11 ccbd e772 4ebd ea2d 89bd 8dbc ab3b
00000110: 4c64 dabd 6411 c2bd e64b f1bb 1829 183d
00000120: f00b 59bd 3d9e d23d ccb5 a53d b224 163c
00000130: f566 e83c a045 5e3c ff70 32ba 4a05 be3d
00000140: 5066 773d c2d3 db3d e416 d33d 48e6 7fbd
00000150: bcd4 4dbc dc05 d73d 94d0 803d d24a cc3d
00000160: 3820 95bd 4f1c e03d fcf3 6f3c 5038 493c
00000170: ec17 c6bd e04f 19bc 38a9 cc3d d84e 6dbd
00000180: 6c9d 9c3d acd6 45bd e24c 023e d49b f93d
00000190: 5d1e cdbd 1e95 a0bd 087c 51bd 6477 083e
000001a0: 38ef d23d 508c 90bd 8560 113e a63d a4bd
000001b0: ef47 afbd 4e86 55bc 405c 3f3d a85c 4c3d
000001c0: d7c2 a93d 932d 3bbd a34d c83d fc00 c13c
000001d0: 7483 fdbd 872e 8c3d 3830 333d fee5 b1bb
000001e0: 30f6 763d 305e e53d 700c debd 1023 e93c
000001f0: 1ce1 b53d fc6f 05bd 78a7 603d 0a83 e63d
00000200: 81a0 33bd 178a ddbc e0ef 3d3c 5060 97bc
00000210: d94a ab3d 8a26 5a3c b71b e63d a1b1 eabd
00000220: c0d1 e9bd 402f 383c 7bb1 06bd c6cd 11bd
00000230: 22ac ca3b 201f 30bd dc2e e8bd 600f e6bd
00000240: d4b8 1a3e ad93 b53d ee1e 96bd 4dac aebd
00000250: 1611 9cbd d23c 75bd 5561 23bc 149a 9abd
00000260: 76ab 50bd 0887 4fbd d0b3 d83d 7013 2b3d
00000270: 3912 03bd 2917 843d ab93 573b a4e6 96bd
00000280: 20a3 57bc 27c1 1f3d 8874 f73d d479 d4bd
00000290: 6a8a e6bb 6001 2e3d 3eec 47bd 6032 df3c
000002a0: 07c8 083d 751a b6bd a006 09bd 7616 98bc
000002b0: 9fb1 6dbd 7404 d8bd 3ec8 abbb 8856 873d
000002c0: a49d d53d 08da fdbc 1761 b3bc 0c89 cc3d
000002d0: 8aa5 ecbd 1d1f 40bd 5871 81b7 7167 fa3d
000002e0: 48d8 afbd e8b8 fbbd a8ad 98bd 871d 443d
000002f0: cfe8 593d c6ee 7d3d 37a5 f5bd 4b94 963c
00000300: 5044 03bc e08f e53d e27e 0f3d 0897 7ebd
00000310: 604f 27bc d038 8f3c 074f ce3c 7ac1 7cbc
00000320: 155e d5bd 5e27 d93d 23e5 493d 8886 cfbd
00000330: c4ee c53d e026 ce3c 2d0d 9d3d a493 cc3d
00000340: 2017 7dbd 9ddd 83bd f804 873d 805c 6b3d
00000350: c402 e03d c02a 6ebd 4474 993d 6dea 213e
00000360: c4ee f53d 5b11 1dbd 4066 5abd e2a3 683d
00000370: 20c9 78bd 4c83 ac39 be6f b33d 202a e23d
00000380: 2cc6 653d a0b2 133e f3d6 8e3b ae3c 403d
00000390: 88b5 e93d 51a9 273d d3d3 87bd ac94 b33d
000003a0: d81e 7abd 4e94 2bbc 9500 ad39 20a2 c53c
000003b0: 246a fbbd fb05 c4bd bc88 eb3c f046 233c
000003c0: 6dcc 843d 8cdc a7bc f388 e6bb 80ca 373d
000003d0: b4fe 793d 1083 bf3d 3160 09bc 96a7 45bd
000003e0: 3373 863d fa2d b5bd b91a 1d3e f878 7b3c
000003f0: 3dd3 66bb b576 7e3d 6095 94bd 2391 253d
0.12223674 -0.003404322 0.077427484 0.053149723 0.06338021 -0.0847504 -0.057043493 0.047281355
-0.03248457 -0.052609295 -0.008628339 -0.11864382 -0.020680126 0.1139235 0.013778851 -0.07886401
-0.021229528 0.022898316 0.027915416 0.10135501 0.0427071 -0.039820015 -0.08502707 -0.0059261597
-0.0110844 0.115147926 0.088096194 0.06350069 -0.052806944 -0.063166656 0.12916796 -0.091032915
0.08834883 -0.07997839 -0.10394242 -0.064687155 0.047881275 0.016443556 -0.0147051485 0.034643263
-0.055134516 0.13671553 0.034172285 0.046326708 -0.12168788 0.02799177 -0.033543795 0.10186979
0.0012276173 -0.05765065 0.07582727 0.0541062 0.07633179 -0.097527266 -0.124181464 0.10910789
-0.008528445 -0.08525434 -0.03169344 -0.0027914643 0.05384925 -0.020416303 -0.07722336 0.02178505
-0.099642 -0.05040255 -0.066982105 0.005240983 -0.10663661 -0.09475973 -0.007363784 0.037148565
-0.0529899 0.10284088 0.080913156 0.009164022 0.028369406 0.013566405 -0.0006806999 0.092783526
0.060400307 0.10733749 0.103071004 -0.062475473 -0.012562927 0.104991645 0.06289783 0.09975208
-0.07281536 0.109428994 0.014645573 0.012281492 -0.096725315 -0.009357423 0.099932134 -0.05793652
0.07647213 -0.04830043 0.12724641 0.12187925 -0.10015557 -0.07840942 -0.051143676 0.13326794
0.102995336 -0.070580125 0.14196976 -0.08019571 -0.08558642 -0.013032509 0.046718836 0.04989305
0.08289116 -0.04569776 0.09780433 0.02356004 -0.12378588 0.06844812 0.043747157 -0.0054290285
0.060293376 0.111996055 -0.10842216 0.028459102 0.08880827 -0.0325775 0.05484721 0.112554625
-0.04385424 -0.027043385 0.011592835 -0.018478543 0.083638854 0.0133148525 0.11235755 -0.11459661
-0.1141696 0.011241734 -0.032884102 -0.03559663 0.0061850706 -0.042998433 -0.11337063 -0.11233401
0.15109569 0.088660575 -0.07330118 -0.085289575 -0.076204464 -0.059872456 -0.009971936 -0.07548919
-0.050944768 -0.050665885 0.105811715 0.041766584 -0.0319998 0.0644973 0.0032894413 -0.0736821
-0.013161451 0.039002564 0.120827734 -0.10374799 -0.007035543 0.04248178 -0.048809282 0.0272457
0.033393886 -0.08891765 -0.033453584 -0.018565398 -0.05803072 -0.10547724 -0.0052423766 0.066083014
0.10430458 -0.030987754 -0.021896882 0.09987077 -0.115550116 -0.046904672 -1.5430778e-05 0.12226761
-0.08586174 -0.122911274 -0.07454997 0.047879722 0.05320054 0.06199529 -0.11994403 0.018381258
-0.008011892 0.112090826 0.035033114 -0.062155753 -0.010211796 0.017483145 0.025184168 -0.015426988
-0.10418335 0.10603212 0.049290787 -0.10133082 0.096646816 0.025165021 0.07668529 0.09989098
-0.06178963 -0.06438754 0.065927446 0.05746126 0.109380275 -0.05814624 0.07492879 0.15812083
0.120084316 -0.03834663 -0.05332017 0.056796916 -0.060738683 0.0003290422 0.087615475 0.11043191
0.056097195 0.14423609 0.00435912 0.04693287 0.114115775 0.040932957 -0.06632199 0.08768591
-0.06106457 -0.01047237 0.00032997565 0.024125159 -0.12276104 -0.09571453 0.028751723 0.009965643
0.064843036 -0.020490907 -0.0070353686 0.044870853 0.06103392 0.0935117 -0.00838475 -0.048255526
0.06564941 -0.0884666 0.15342225 0.015348665 -0.0035221123 0.062124927 -0.072550535 0.040421616

sequential/dense_2/MatMul f4 [64, 128]
00000000: 37e7 0fbe dd9b d7bd b3dc b5bd 2a65 adbd
00000010: 62c2 343e 7f78 20be a373 3b3e 58d3 32be
00000020: 2088 7cbc a7ce 2cbd b206 863b a68f a53d
00000030: 7ed3 8fbd 3519 ec3d 5fad c93d e043 263e
00000040: 1946 d8bc a7bd a43d 18fb 14be 3c35 7e3c
00000050: e5b9 c83d 54cb 953d 040a 373d 63cf f8bd
00000060: 71be 7f3d df66 2e3e 2078 9fbd f73d 4c3e
00000070: 7efe 9dbd 01cb 263e bc5a 2b3d cecf eabd
00000080: d8c5 a9bd 55be 743c d020 123d 8461 d03d
00000090: a31e 03be f234 f33d 3311 1d3e 451a cc3b
000000a0: 5f85 223e d07a b73c 8203 a43c c58b d7bd
000000b0: 8e66 743d dc9a 283e 5a1e 59be 4df0 cfbd
000000c0: f07e 6fbc 0632 90bd 211d 9cbd 0aaa 0ebe
000000d0: ae4c b93c 4282 4bbe 775d ff3d b832 393e
000000e0: fc5b 12be a289 0fbe 4f62 c13c ab0d a03d
000000f0: 37a0 663d c6a1 6f3d 6210 d5bd f89d a8bc
00000100: e2f7 f53d a2ab 7b3d 3a3f d5bd 8847 19be
00000110: 5561 9c3d 3bc3 9fbd 721c fbbd d890 fa3d
00000120: 9f8b 0b3e df33 14be fef2 22be fc0b 83bd
00000130: 481c 083e 481c 2f3e a879 09be 77ab 5b3d
00000140: 7858 80bd 1c2d c83d 8cb9 053e 78d1 46bd
00000150: 591b 1abe 6cb2 203c 458c 27bc 5a40 423c
00000160: 3422 e8bd 58de e3bd 7eee 07be 1418 c23d
00000170: 87b4 b93d 6bde 163e 9507 17be f7f3 173e
00000180: ff67 613d ce95 65bd 9ac6 acbd d604 a13d
00000190: 9f28 173e 20d2 083d 6a53 98bd 53a1 b7ba
000001a0: ac0d 313e 6e2c 00be d4bf 383c dc83 4c3c
000001b0: 8eac 86bd 933b 56bd 91b8 8d3c 9b18 1ebe
000001c0: 0de8 0b3e 2db6 43be 064f 6cbc 6f13 d73c
000001d0: 3d56 2d3e dd17 22be 8066 1bbe f4f0 3d3e
000001e0: 4f8d 123d a560 223e 580b f93d ced9 bb3d
000001f0: 9335 7a3d a595 023d ff2d e9bd 10f2 033d
00000200: 6f78 d4bd 67ea e03c c8d4 163e a535 a738
00000210: 90af d83c 0496 b1bd df7c f4bd a088 323e
00000220: 588c 5b3d f9df c7bd e0a0 e43d 665f a73d
00000230: 2c40 233d ac04 8ebd a438 873d 74d6 1bbe
00000240: 6c1b 803d 99e6 273e 5c5f de3c 1e92 003c
00000250: dc4c 1e3e 2ff8 003e d7ae 9a3d 9aba 03be
00000260: 42b5 c23d 74ca d53c a232 18bd 9684 16be
00000270: 8054 07bc 02fc c23d 9204 5e3a 3e65 d83c
00000280: 9ff2 ca3d fc6b c43c b3fb 233e f27b 8cbd
00000290: f864 e7bc a47a 24be acba a0b7 9b9f 15bd
000002a0: 2a7b 08be bff3 123e 458f 183e 503f acbd
000002b0: f868 c23d 73e6 b9bd 8313 2ebe f257 dc3d
000002c0: 82eb 2dbe 1856 bf3c 1408 febd dd62 523d
000002d0: 1074 19bd f03b 843c 1a45 2ebe b4e1 1bbd
000002e0: 106d d63c 1419 1a3e 30d2 a03c 0a90 5dbb
000002f0: 1c1b af3d eeda c239 78e9 4c3d 1ec3 dcbc
00000300: 6354 1ebe ea5b 2e3d fe07 b93d 838b 843d
00000310: a19d 90bc af9b 033d 6eb9 a23d 5aad af3d
00000320: b110 efbc 82a9 27bd fa5c 133e 4128 a13c
00000330: 1d00 96bd edb8 28bd 8a87 7ebd 7b00 df3c
00000340: 6f53 1cbd 8f54 103c a85e 083b 441f a1bd
00000350: 9fe2 b8bd 97b7 a33d a7f0 bbbd 6d87 c9bd
00000360: 0831 063d b843 413d ae28 19be f08c 09be
00000370: 3749 1abe 3297 d6bd de50 dd3d 9076 983d
00000380: 5110 f93d 8591 ca3c 4cb5 113e 003c bfbc
00000390: c1fd b83c d494 653c a2d9 703d 9df4 dabd
000003a0: b445 0cbe 13db ee3d ac35 233e 5588 1a3e
000003b0: 8107 a33c 0c9e a4bd 2ab5 c93d c9d0 8fbc
000003c0: 6f79 a23c f8a3 99bd a3db 25be 4be0 a3bc
000003d0: d152 34bd 4371 d0bd df7f 013e cf43 753d
000003e0: 0254 f5bd 8178 bebd cf0d 06be ff40 afbd
000003f0: 80e7 933d 222e 673d ae5c 23be bfe0 7a3c
-0.14053045 -0.105277754 -0.08879986 -0.08466561 0.17652276 -0.15670966 0.1830583 -0.17463434
-0.015413314 -0.042189267 0.0040901536 0.080840394 -0.07022761 0.11528245 0.09847521 0.1623683
-0.026400613 0.08043986 -0.1454891 0.015515622 0.098010816 0.073141724 0.044687286 -0.12148931
0.06243748 0.1703143 -0.07786584 0.19945513 -0.07714556 0.16288377 0.041834578 -0.11465417
-0.08289689 0.014937957 0.035675824 0.1017485 -0.12804656 0.11875333 0.15338592 0.0062287175
0.1587119 0.022397429 0.020021204 -0.10524706 0.059668116 0.16465324 -0.21202984 -0.101532556
-0.014617667 -0.07040791 -0.076227434 -0.13932052 0.022619572 -0.19873908 0.12468999 0.18085754
-0.14292902 -0.14017347 0.023606448 0.07815107 0.056305137 0.05850389 -0.104035154 -0.020583138
0.120101705 0.06144298 -0.1041245 -0.14968693 0.07635752 -0.07800909 -0.12261285 0.12234658
0.1362748 -0.14472912 -0.15913007 -0.0639877 0.13292038 0.17100632 -0.13425314 0.05363032
-0.06266874 0.09774229 0.13059062 -0.04853961 -0.15049495 0.009808164 -0.010226314 0.011856163
-0.11334649 -0.11126393 -0.13274571 0.09477249 0.09067636 0.14733283 -0.14748986 0.14839159
0.05503082 -0.056051068 -0.08436318 0.078622505 0.1476159 0.033403516 -0.07437785 -0.001400987
0.17290372 -0.12516949 0.011276204 0.01248261 -0.06575881 -0.05230291 0.017299922 -0.15439074
0.13662739 -0.19112463 -0.0144231375 0.026254384 0.16927429 -0.15829416 -0.1517582 0.18548948
0.035779294 0.1585718 0.12160367 0.09172402 0.06108625 0.031880993 -0.11385726 0.03221327
-0.103745334 0.027455522 0.14729607 7.9731726e-05 0.026450902 -0.08671191 -0.1193788 0.17434931
0.05360064 -0.09759516 0.11163497 0.08172493 0.03985612 -0.06934485 0.066026 -0.15218526
0.0625523 0.1639656 0.02714508 0.007847337 0.15459007 0.12594675 0.07552879 -0.12864152
0.095072284 0.026097514 -0.037157662 -0.14699015 -0.008259892 0.09520723 0.0008469309 0.026415464
0.099095576 0.023977272 0.16013984 -0.06859578 -0.028246388 -0.16062409 -1.9160412e-05 -0.036529165
-0.13328233 0.14350794 0.14898403 -0.084105134 0.094926775 -0.09077158 -0.1699963 0.10758962
-0.1698437 0.023356482 -0.124038845 0.051363815 -0.0374642 0.016141862 -0.17018548 -0.038057044
0.026175052 0.15048629 0.019631475 -0.0033807778 0.085500926 0.0003716568 0.05002734 -0.026948508
-0.15461878 0.042568125 0.090347275 0.06471922 -0.017653288 0.032130893 0.07945524 0.08577986
-0.029182764 -0.04093314 0.14390936 0.019672515 -0.0732424 -0.041191984 -0.06214098 0.027221909
-0.038165506 0.008809223 0.0020808373 -0.078672916 -0.090275995 0.07994001 -0.0917676 -0.098402835
0.032761604 0.047183722 -0.14956924 -0.1343267 -0.15066992 -0.10478057 0.1080644 0.07444489
0.12161315 0.024727592 0.14229316 -0.02334404 0.022581937 0.014012534 0.0588013 -0.106911875
-0.13698465 0.11662879 0.15938443 0.15091069 0.01990104 -0.080379575 0.098490074 -0.017555611
0.019833295 -0.07501978 -0.16197066 -0.020004412 -0.044024292 -0.10177853 0.12646435 0.05987912
-0.11978914 -0.09300328 -0.13091205 -0.08557319 0.072218895 0.05644048 -0.15953323 0.015312373

sequential/dense_3/MatMul f4 [32, 64]
00000000: 248c 913e 17f4 ee3c 6f37 b33d 9889 4b3e
00000010: 0001 933b bc4d 243e 382b ceba 9937 733d
00000020: b69b 503e 2c34 82bc 595a 3a3e 140e f5bd
00000030: a1d6 453e 2288 253e 7536 f3bd 006f 503b
00000040: a05b 463e 514a dd3b 77df 3fbd bfd6 223e
00000050: 6405 043e c799 a93d d8e4 383e acaa a7bd
00000060: b714 fb3d 892c 0e3e 3bab 2bbb 7bfa 39be
00000070: 003e db3b 89f0 be3d 38af 11be fa9c 143e
00000080: cd5e 803e ec56 60bd c0af 1e3e 562c e6bb
00000090: 4892 37bd 3c81 2b3e 90cd 313e 3aa4 37bd
000000a0: 1a3c 03be 362a 1f3e c1ea 3ebc 7288 20be
000000b0: b2c5 583d 06df 6f3e 6427 43be c7f7 673e
000000c0: c78d 93bd 188c 22be 1088 8f3d 5fcb 51bd
000000d0: 180f 7e3e 3067 623e d28f b4bd a06b 9f3d
000000e0: a027 e5bd e04e 64be be56 3f3d db27 333e
000000f0: 0db8 06be 7220 01be 43a5 aebd 3cb6 2d3e
00000100: d083 973d 68f8 ba3d 30a4 52bd 6818 9e3d
00000110: a057 8ebd 206c 69bd b879 113e e078 3f3d
00000120: 80e2 ad3c 80bf 1c3e 50d8 203e c80a cc3d
00000130: 5824 eebd f04f b73d a052 6dbd 18a7 423e
00000140: 9019 c33d e04c 803d 88bb 483e 985f dfbd
00000150: a0d6 d0bc 6842 f7bd 0078 313c 7009 3abd
00000160: 101d 62be 403c 0a3c a041 db3d 60bc f1bc
00000170: 982d f2bd 64cc 4f3e 2c94 75be fcee 42be
00000180: 200d f53c 581f 65be 2483 6ebe a0ed 1e3d
00000190: 4cfa 02be 0c36 13be f4c7 08be b4b7 703e
000001a0: 002e 2e3b 000b 19bd 6c85 04be d097 64be
000001b0: d077 ba3d 106c e83d 7076 1d3e 8025 473e
000001c0: 50ed 653e 00a6 f33a f0f9 6fbd 8877 14be
000001d0: 10e9 7a3e 586b efbd a8cf 9ebd 00f9 13bc
000001e0: 00a7 793b dcfd 343e 88c5 17be bca6 1b3e
000001f0: 700a ec3d 7098 633e 00d7 7dbd bc5e 1c3e
00000200: 6d89 d9bd 7dae 2d3d 2b34 62be 4429 38be
00000210: 9897 7bbe 970d df3d c6e9 fcbb f037 123e
00000220: a6bf 763d eac7 96bd f8b5 513e c12c ef3d
00000230: 67d8 963c 6bfd 233d d556 303e aca1 6e3e
00000240: cfb1 f13d fe30 993d fa4a d93c 81b7 6bbe
00000250: 0067 2cbe 9c71 48bd 4801 8a3d 3ef1 13bd
00000260: 283a 153e 0de3 203e b352 d33c b60d 30bd
00000270: 004a bfbd 0fe4 6a3e 626c 073e 2343 503e
00000280: 67bc 26be 50fa cb3d 7830 48be 14f1 e3bd
00000290: c6e3 2a3e 506f 883d 6853 ce3d 9c0c 273e
000002a0: 719d b43d a43c 77bd 2d61 3bbe 0210 2a3e
000002b0: a873 0ebc d9cc 573e bd43 88bb 7afa 85bd
000002c0: 5e4c 13bd ba28 c33d 0032 763e 5d11 58bd
000002d0: 00b4 e53b fc62 353e 5544 48be ac6f 263e
000002e0: 90cf 95bd e0e0 92bd cd08 eebd 7d1c be3c
000002f0: 5d63 a03d d1d2 b7bb 69e7 273c b807 ff3d
00000300: 7aa8 8e3d fa37 093e 234d 4cbc 54e8 303e
00000310: b4bd 1c3e 73c2 d63d c095 c2bd bda0 6a3e
00000320: 1b67 0c3e 38bf ccbc 32ee 473d 96aa 343e
00000330: 99b3 c1bd bc53 8d3d b641 273e d8ad ddbd
00000340: f5b9 16be e09c e9bd fec2 60bd 604f 45bd
00000350: 8033 c1bc 5b9f 74be 348e 5d3e 382a 1f3d
00000360: 2459 5c3e fc03 4a3e 389a 32be 3f4b 193d
00000370: f065 1d3d 6009 4d3e d11e ffbd 1a07 2fbe
00000380: 13b8 013e 08a8 573e 64ab 33bd 6daf f4bc
00000390: 3577 c63d dc80 0abe 3bf1 58bd 2885 04bd
000003a0: e295 75bd 5185 1fbd 4edb b13d bcf6 c3bd
000003b0: 66e2 7bbe 5bbb 2cbe 0e96 563e df43 2ebe
000003c0: 1960 623d 789f 1f3e 0044 f6bd 36eb 683e
000003d0: 9c02 4d3e d875 393e a8e5 a53c c8cf 42be
000003e0: e01e 8b3d 5402 23be a9e6 a23c f9e2 2a3e
000003f0: 6cc2 47be a5fc 05be eb6c f43d a4a6 70be
0.2842723 0.029169125 0.087508075 0.19876707 0.004486203 0.16045278 -0.0015729433 0.059379194
0.20371899 -0.015894018 0.18198527 -0.11965576 0.19320156 0.16165212 -0.11875621 0.0031804442
0.1937089 0.006753244 -0.046843972 0.15902232 0.12892681 0.08281284 0.18056047 -0.0818685
0.122598104 0.13884176 -0.002619459 -0.18161957 0.0066907406 0.09323222 -0.14226997 0.14513007
0.25072327 -0.054770395 0.15496731 -0.007024328 -0.04481724 0.16748518 0.17363572 -0.044834353
-0.12815896 0.15543446 -0.011652649 -0.1567705 0.052922912 0.2342492 -0.19057995 0.22653113
-0.07204776 -0.15873754 0.07008374 -0.05121934 0.24810445 0.22109675 -0.08816494 0.077842
-0.111891985 -0.22295713 0.046713583 0.17495672 -0.13156147 -0.12610033 -0.08527615 0.16964048
0.07398188 0.09129411 -0.051426113 0.07719499 -0.06950307 -0.05698788 0.14206588 0.046746135
0.021226168 0.15307426 0.15707517 0.09962994 -0.11628026 0.08950794 -0.057940125 0.19009054
0.0952636 0.06264663 0.19602787 -0.10906905 -0.025492966 -0.12073213 0.010831833 -0.045419157
-0.22081399 0.008437216 0.10705876 -0.02950877 -0.118251026 0.20292813 -0.23982304 -0.19036478
0.029913485 -0.22375238 -0.23292214 0.038800836 -0.12790793 -0.14376086 -0.13357526 0.23507577
0.002657771 -0.037364006 -0.12941521 -0.22323537 0.09104884 0.11348736 0.15377212 0.19447899
0.22453809 0.00185889 -0.05858797 -0.14498723 0.24502969 -0.11690396 -0.07754451 -0.009031534
0.0038093925 0.17674965 -0.14821446 0.15200323 0.11525428 0.22226119 -0.061972618 0.15270513
-0.10621915 0.042402733 -0.22090213 -0.17984492 -0.24569547 0.10891264 -0.0077182977 0.14279151
0.060241364 -0.07362349 0.20479572 0.11678458 0.018413736 0.0400366 0.17220624 0.2330386
0.118014924 0.07480048 0.02652501 -0.2301922 -0.16836166 -0.04893647 0.06738526 -0.03611874
0.14572966 0.15711613 0.02579627 -0.042981826 -0.09340286 0.2293856 0.13224939 0.2033811
-0.16282807 0.09959853 -0.1954974 -0.111299664 0.16688451 0.06661856 0.10074502 0.16313404
0.08819092 -0.060360566 -0.18298788 0.16607669 -0.008694567 0.21074237 -0.0041584657 -0.06541915
-0.0359615 0.09529252 0.24042511 -0.052750934 0.007009983 0.17713541 -0.19557317 0.16253537
-0.0731498 -0.07171798 -0.11622772 0.023206944 0.07831452 -0.005609848 0.010248044 0.12452644
0.06965728 0.1340026 -0.012469563 0.17276126 0.15306741 0.10486307 -0.09501219 0.2291288
0.13711207 -0.024993524 0.048811145 0.17643198 -0.09458084 0.06900737 0.1633366 -0.10824174
-0.14719374 -0.11406875 -0.05487346 -0.0481714 -0.023584127 -0.23888914 0.21636277 0.038858622
0.2151838 0.19728082 -0.17441642 0.037425276 0.038427293 0.20023108 -0.1245705 -0.17092553
0.12667875 0.21060193 -0.043864623 -0.029868806 0.09690706 -0.13525718 -0.05296443 -0.03235355
-0.059957393 -0.0389455 0.08684407 -0.09568545 -0.24598083 -0.16868345 0.20955679 -0.17018078
0.055267427 0.15588176 -0.12024689 0.22745976 0.20020527 0.1811136 0.02025111 -0.19024575
0.06792998 -0.15918857 0.019885378 0.16688146 -0.1950776 -0.13084657 0.11934837 -0.23501068

sequential/dense_4/MatMul f4 [16, 32]
00000000: 3069 903e 411f a53e 2ac1 95be e1c2 033e
00000010: 4061 a23e c225 353e 1239 8abe 3ecb 503e
00000020: 6914 f33d 594d 79be 0a20 93be f40e 87bd
00000030: 4131 763e 094a 153d 457c 1dbe f1fa 243e
00000040: 4a28 8b3c 6012 a53e f261 22bb 4beb a63e
00000050: c6dc 7d3e 21fd 7cbe 539c 653e 90e4 253d
00000060: cb53 9abe 13b7 aebd c68f 703e 23fb 9c3e
00000070: 2fbd 23be 67bb 5dbe d3ed aa3e 7933 81be
00000080: eb84 a03e 02a8 4d3e 46e7 9b3e 6e42 84bc
00000090: 4328 6e3e 64ce 5abe 2fb8 833e 0331 a83e
000000a0: b9c1 9fbe fa58 103e 8bc0 a3be 627c 523e
000000b0: bd8b 17be 2a00 18be 504a 993e c8e7 553d
000000c0: 9982 c23d 86fc e8bd 53e7 473e 4a58 a5be
000000d0: 0054 44bd 973a 6d3e ff62 a23e 417c a23e
000000e0: 3c46 a3be 64a4 5a3e e68d a63e 75e0 ccbb
000000f0: 62ff acbd 1ea7 923e 436a 9b3e 1f18 a03e
00000100: d814 8fbd c6a4 f0bd 00b4 253c c092 d93d
00000110: c83e 41bd a12f a93e d865 5fbe d834 76bd
00000120: 03a7 9c3e 384f 1dbd 40ab ca3b a718 8e3e
00000130: 667d 7c3e b242 3cbe 805b f03d 2f54 b03e
00000140: 979a 03be 6135 863e 729c a0be 0e84 acbe
00000150: ecbd e0bd 8875 763d 59bd afbe 98dd d73d
00000160: 05ac a1be f825 13bd 0274 57be 044c 2cbe
00000170: 738b 3ebe 717f 8b3e b22e 373e 8e13 91be
00000180: 2ac3 5f3e fac2 6d3e 0cdd b7bd 3cbd 9dbd
00000190: a512 92be a7a1 54be 2cfb c63d 609a 56be
000001a0: e0d9 053d 76db aabe 5ccd 953d 395f 8cbe
000001b0: 519f a53e 0e74 41be e807 5d3d a0ec aa3c
000001c0: 61ce aa3e d2fe 2c3e 20b8 82be bdd6 4abe
000001d0: 3685 1d3e 7b47 03be fe24 a6be 7142 ab3e
000001e0: ca25 1c3e a007 7e3d 2421 bf3d 90e8 e5bc
000001f0: a243 793e 5061 e5bc 4205 363e ca78 73be
00000200: 84b2 6abd d4c7 a7bd c895 dbbd 454f 983d
00000210: b8a3 363e fc2e 6bbe 9a3b 233e 260f 50be
00000220: e828 ad3e cd72 743e c8ab a1be d133 9cbe
00000230: 140b c63d 7581 b53e fd5c 893c 488d 543e
00000240: ac7f e63d c08d 18be 75e5 edbd c823 b33e
00000250: b8be 163d 2998 e03d 21e6 083e e805 aa3d
00000260: d084 553e 033a ce3d 7a64 02be 1132 563e
00000270: 0e73 503e 9845 933e 16a0 923e 50ba 4fbd
00000280: 3251 37be 30b2 2b3d b480 dd3d a786 963e
00000290: 0658 48be 7a8d 503e c0a8 c33d 956f b43e
000002a0: 32d3 003e 8ad9 333e 70f5 29bd b659 3abe
000002b0: ca59 673e 0070 7c3b 4486 cabd 9f00 13be
000002c0: 32d4 613e b069 a8bc d646 5c3e 7e1d aebe
000002d0: 3fad 23be 17d1 81be 58ed 0b3e bf1f 88be
000002e0: 38b9 3dbd b2c1 acbe 62fd 4a3e 9be5 853e
000002f0: 80d4 d83d 4265 493e 61ea b13e 96ca 7dbe
00000300: bd1b 163e 408c 93bc 5533 343e 979f 72be
00000310: 8ab9 c6bc dcf7 0f3e 915b b13e 90d3 a3bc
00000320: ba21 32be 6a03 8abe b307 7ebe c8a2 0cbe
00000330: 494d 773e ae7c 43be 3f4a c6bd 8667 60be
00000340: a752 093e 5c4b a4be 84b3 063e c873 b13d
00000350: 705e bb3c a752 a8bd 9eb6 8a3e b7ab a33e
00000360: 37d3 a9be 308a 3ebe e26f 20be b3c7 943e
00000370: 31dc 683e 625d 483e c734 49bd f8fc 813d
00000380: bf6d 803c a056 fc3d 1dcc 6c3d 1897 653e
00000390: afa2 443d 0f5f 9f3e 8e1e 0ebe 707d 7f3d
000003a0: 2054 d1bd f0a8 e63d f17c 65be 1047 ca3d
000003b0: 9ae5 65be 599b 513e 5ede 9fbe 003f b13d
000003c0: 4000 c4bb 7339 a73e aa24 063e f2d0 3cbd
000003d0: d492 b0be 0e85 8abe 8d5b a13e 0d5b 913e
000003e0: 9b6f 4cbe c191 80be 1b8a 99be bbc2 9ebe
000003f0: 54d0 333d 9d24 1cbd 6832 ed3d 700f 123d
0.28205252 0.32250407 -0.29248935 0.12867309 0.3171482 0.17690185 -0.26996666 0.2039003
0.11869127 -0.24345912 -0.2873538 -0.06594649 0.24042226 0.03644756 -0.15379436 0.16111352
0.016986985 0.32240582 -0.0024777618 0.3260139 0.2479125 -0.24705936 0.22422914 0.040501177
-0.30142054 -0.085310124 0.23492345 0.30660352 -0.15990137 -0.2165352 0.3338457 -0.25234583
0.31351408 0.20083621 0.30449885 -0.016144957 0.23257546 -0.21367794 0.25726458 0.32849893
-0.31202486 0.14096442 -0.31982836 0.20555261 -0.147994 -0.14843813 0.29939508 0.052222997
0.09497566 -0.1137629 0.19521837 -0.32293922 -0.04793167 0.23166882 0.31716153 0.31735423
-0.31889522 0.21351773 0.32530135 -0.0062523433 -0.08447148 0.28643125 0.3035451 0.31268403
-0.069863975 -0.11750178 0.010113716 0.106236935 -0.047179013 0.3304415 -0.21816194 -0.06010899
0.3059617 -0.038405627 0.0061849654 0.27753183 0.2465721 -0.18384817 0.11736202 0.34439227
-0.1285194 0.262126 -0.31369358 -0.336945 -0.10973725 0.06017068 -0.34324148 0.105403125
-0.31576553 -0.03592488 -0.21040347 -0.16825873 -0.18607883 0.27245668 0.17888907 -0.28335232
0.21851793 0.23218909 -0.08977708 -0.07702109 -0.2852985 -0.2076479 0.09715876 -0.20957327
0.032678485 -0.3337056 0.0731456 -0.274164 0.3234811 -0.18891928 0.053962618 0.020864785
0.3336058 0.16894081 -0.255311 -0.19808479 0.15382847 -0.12820236 -0.32450098 0.33449128
0.1524879 0.06201899 0.09332493 -0.028064996 0.24342206 -0.028000504 0.17775443 -0.23776546
-0.057299152 -0.08192411 -0.10721928 0.074369945 0.17835891 -0.22967142 0.15940705 -0.20318279
0.33820271 0.23871918 -0.3157637 -0.30508283 0.09670082 0.3545033 0.016767973 0.2075702
0.1125482 -0.14897823 -0.11616031 0.34988236 0.036802977 0.10966522 0.13369037 0.08301908
0.20851445 0.100696586 -0.12733641 0.20917536 0.2035639 0.28764033 0.2863776 -0.05071479
-0.17902067 0.04191798 0.10815564 0.29399607 -0.19564828 0.20366469 0.09553671 0.3524138
0.12580565 0.17563453 -0.041493833 -0.18198285 0.22592846 0.0038518906 -0.098888904 -0.14355706
0.22053602 -0.020558208 0.21511397 -0.34006876 -0.15984057 -0.25354835 0.13664758 -0.2658672
-0.046319216 -0.33741528 0.1982322 0.26151738 0.10587406 0.19667533 0.3474913 -0.24784312
0.14659019 -0.018011212 0.17597707 -0.23693691 -0.024258394 0.14059395 0.34640172 -0.019998342
-0.17395678 -0.2695573 -0.24807625 -0.13733971 0.24150576 -0.1909053 -0.0968213 -0.21914491
0.13410436 -0.32088745 0.13154417 0.08664662 0.02287218 -0.0821889 0.2709245 0.31966946
-0.33168957 -0.18607402 -0.1566768 0.29058608 0.22740246 0.19566873 -0.049122598 0.06347078
0.015677331 0.1232121 0.057811845 0.22420919 0.04800671 0.3112721 -0.13878843 0.062375486
-0.10221124 0.11262691 -0.22410943 0.09876835 -0.22450867 0.20469417 -0.3122434 0.086545944
-0.005981475 0.32661018 0.13099924 -0.046097703 -0.3448702 -0.27054638 0.3151516 0.2838978
-0.19964449 -0.251112 -0.2998818 -0.31007943 0.04389985 -0.038120855 0.1158188 0.035659254

sequential/dense_5/MatMul f4 [1, 16]
00000000: edd7 113f 8d06 183b 4a07 953e faba ad3e
00000010: 59ef e23d 66f1 0a3f ca88 7c3e eb23 99bd
00000020: 55ea fbbe 9410 ddbd 4a51 30be aa36 73be
00000030: c4c0 22be 1289 c5bc fd11 50be d090 d1bd
0.569701 0.0023197264 0.29107124 0.33931714 0.11080808 0.54274595 0.24661556 -0.07477554
-0.4920222 -0.10794178 -0.1721851 -0.23751321 -0.15893847 -0.024113212 -0.20319362 -0.10232699
