app/src/main/assets/model3.tflite (tflite, 186856 bytes, 11 tensors)

sequential_11/dense_69/BiasAdd/ReadVariableOp f4 [256]
0.02007246 0.004510954 0.0 0.0 -0.0035173534 0.0 -0.0025821594 0.0017349209
-0.004946535 0.00024212063 0.0010826396 0.008596683 0.0 0.02056201 -0.005725201 0.0
0.0 0.009133611 0.0 -0.011801243 0.0 0.020076321 0.010234825 0.0045188772
0.0025854027 0.0 0.0 0.0036085132 0.0 0.0 0.0071969703 0.008672135
0.009519905 0.0021164073 0.008908724 -0.0044182865 0.0020848142 0.024740908 -0.0049788766 0.002784397
-0.0074516525 -0.0067210095 -0.001160633 -0.00067644037 0.026172554 0.0 0.0 0.0017011873
-0.0076205865 3.7486345e-05 -0.0023247309 0.00027113076 -0.0013435119 -0.0082255015 0.013686854 0.00012674047
0.0 -0.00010664465 0.0067220936 0.011152134 0.0 0.0 0.008598437 0.0
-0.010053322 0.0013621695 0.0011208794 -0.008436023 0.023789719 0.013042186 -0.0024776321 -0.0044714687
0.0069483886 0.0055195745 0.021960203 0.03337248 0.010830517 -0.0020718186 0.013293343 0.0037756702
0.01049737 -0.0072916057 -0.0020689494 -0.002461754 -0.0009550739 0.0 -0.003806033 -0.0017300468
0.004712508 -0.0038938106 -0.0013823968 0.0 0.0 -0.00053454645 0.00038018968 0.0
0.0026599197 0.0 -0.002008779 0.003589359 0.0 0.012135604 0.0 0.0
0.0 0.0031488638 0.016925123 0.0 -0.010046014 0.0048323744 0.0 -0.0070745978
0.0 0.0014502924 -0.006725355 0.0 0.016731186 0.0 0.008070551 0.011441608
0.012896961 0.0 0.0025122717 0.006518993 0.0021384964 -0.0025335324 0.029592628 0.0007557056
0.0 0.0031740195 0.0067996904 -0.005046795 -0.015272021 0.0023809208 -0.0015024852 -0.002930919
0.007886308 -0.0025614672 0.00035903585 -0.0034533571 0.007856125 0.00450501 0.0028433916 0.006749285
0.0 0.008518741 0.0070136413 0.01005713 0.0 0.0050528473 0.0 -0.0128805665
0.0059617264 -0.0037510558 9.5800366e-05 0.0 -0.009012675 0.0 0.0 0.013684224
0.0 0.0 -0.008789002 -0.0039664065 -0.0012973595 0.004727348 0.0007640168 0.0025086284
0.010187078 0.0088339755 0.017988611 -0.004322591 0.00758006 0.0 0.0 0.01637358
0.0020166386 0.015120976 0.011242037 0.007934942 0.0 0.0 0.0 0.0
0.0 0.0 0.0028460226 0.0 0.016521165 0.0 0.0023975754 0.0014583596
0.005961787 0.018018441 0.0 -0.001934045 -0.0056924312 -0.00635006 -0.005358383 0.0
-0.0026398825 -0.0010217817 0.0030066792 0.0 0.0073248087 0.0 0.0 0.0064007025
-0.0013760092 -0.018896647 0.011691407 -0.007346321 0.014424281 -0.0005468626 -0.00514869 -0.003869074
0.018831281 -0.0020010793 -0.0033900153 0.0033444215 -0.01255629 0.0082323 0.0009971377 0.0001384633
-0.0013537853 -0.0067991083 0.0 -0.007316765 0.0 0.009454051 0.0 -0.0015559418
-0.0049166945 -0.0012292259 0.012919135 0.0 0.0 -0.00015880048 0.009461298 0.0
0.0 0.0 0.011713499 0.0 0.017156353 0.0 -0.004681657 -0.004855492
0.014318342 -0.0018483258 0.015776427 0.0 0.004042596 0.00057677494 0.0 -0.015317462
00000000: 006f a43c a0d0 933b 0000 0000 0000 0000
00000010: 6683 66bb 0000 0000 7239 29bb 4966 e33a
00000020: 8b16 a2bb c3e1 7d39 5be7 8d3a 1ad9 0c3c
00000030: 0000 0000 a971 a83c 789a bbbb 0000 0000
00000040: 0000 0000 24a5 153c 0000 0000 005a 41bc
00000050: 0000 0000 1977 a43c f8af 273c 1713 943b
00000060: dc6f 293b 0000 0000 0000 0000 ce7c 6c3b
00000070: 0000 0000 0000 0000 90d4 eb3b 9215 0e3c
00000080: 60f9 1b3c 6cb3 0a3b e6f5 113c 46c7 90bb
00000090: 61a1 083b 72ad ca3c d825 a3bb 6e7a 363b
000000a0: fe2c f4bb ea3b dcbb 6220 98ba 2553 31ba
000000b0: d367 d63c 0000 0000 0000 0000 60fa de3a
000000c0: 1db6 f9bb a83a 1d38 835a 18bb 8e26 8e39
000000d0: c718 b0ba 41c4 06bc d43e 603c a3e5 0439
000000e0: 0000 0000 69a6 dfb8 0245 dc3b 71b7 363c
000000f0: 0000 0000 0000 0000 75e0 0c3c 0000 0000
00000100: b0b6 24bc d38a b23a 79ea 923a 3f37 0abc
00000110: a8e2 c23c e5ae 553c c55f 22bb 6685 92bb
00000120: 4faf e33b 8cdd b43b e2e5 b33c 95b1 083d
00000130: 7b72 313c 59c7 07bb 52cc 593c 3c71 773b
00000140: 29fd 2b3c 6cee eebb 3697 07bb 6155 21bb
00000150: ed5d 7aba 0000 0000 a36e 79bb bdc2 e2ba
00000160: 626b 9a3b 4d2f 7fbb 8a31 b5ba 0000 0000
00000170: 0000 0000 ce20 0cba 3254 c739 0000 0000
00000180: 0c52 2e3b 0000 0000 b8a5 03bb 743b 6b3b
00000190: 0000 0000 6ad4 463c 0000 0000 0000 0000
000001a0: 0000 0000 2b5d 4e3b 8ea6 8a3c 0000 0000
000001b0: 0998 24bc e558 9e3b 0000 0000 07d2 e7bb
000001c0: 0000 0000 bd17 be3a 5e60 dcbb 0000 0000
000001d0: d70f 893c 0000 0000 583a 043c 9575 3b3c
000001e0: c64d 533c 0000 0000 eda4 243b 479d d53b
000001f0: 0426 0c3b 9f09 26bb 3d6c f23c 8b1a 463a
00000200: 0000 0000 3603 503b f0cf de3b 965f a5bb
00000210: 8037 7abc 3909 1c3b 0aef c4ba a914 40bb
00000220: 9335 013c 4ade 27bb fa3c bc39 b851 62bb
00000230: fab6 003c c39e 933b 3258 3a3b 1b29 dd3b
00000240: 0000 0000 3092 0b3c b0d2 e53b a9c6 243c
00000250: 0000 0000 5b92 a53b 0000 0000 0309 53bc
00000260: 965a c33b 46d4 75bb 6ee8 c838 0000 0000
00000270: e6a9 13bc 0000 0000 0000 0000 cc33 603c
00000280: 0000 0000 0000 0000 bfff 0fbc a1f8 81bb
00000290: 290c aaba dfe7 9a3b 4d48 483a cd67 243b
000002a0: b4e7 263c 61bc 103c da5c 933c 85a4 8dbb
000002b0: 2762 f83b 0000 0000 0000 0000 e321 863c
000002c0: 9529 043b f8bd 773c 8530 383c 8f01 023c
000002d0: 0000 0000 0000 0000 0000 0000 0000 0000
000002e0: 0000 0000 0000 0000 5684 3a3b 0000 0000
000002f0: 6557 873c 0000 0000 a420 1d3b 6e26 bf3a
00000300: 185b c33b 699b 933c 0000 0000 c87f fdba
00000310: 9387 babb 2a14 d0bb 6095 afbb 0000 0000
00000320: e101 2dbb 4eed 85ba b50b 453b 0000 0000
00000330: f304 f03b 0000 0000 0000 0000 fcbc d13b
00000340: 355b b4ba 24cd 9abc 518d 3f3c 68b9 f0bb
00000350: d253 6c3c 545b 0fba 58b6 a8bb 4a90 7dbb
00000360: 0f44 9a3c 8a24 03bb 052b 5ebb 152e 5b3b
00000370: e6b8 4dbc c5e0 063c 64b2 823a 7630 1139
00000380: 7f71 b1ba 0ecb debb 0000 0000 79c1 efbb
00000390: 0000 0000 2ae5 1a3c 0000 0000 bef0 cbba
000003a0: 391c a1bb fa1d a1ba c8aa 533c 0000 0000
000003b0: 0000 0000 ae83 26b9 8f03 1b3c 0000 0000
000003c0: 0000 0000 0000 0000 fae9 3f3c 0000 0000
000003d0: 7b8b 8c3c 0000 0000 9668 99bb d21a 9fbb
000003e0: 7b97 6a3c 8643 f2ba 913d 813c 0000 0000
000003f0: c177 843b b632 173a 0000 0000 18f6 7abc

sequential_11/dense_70/BiasAdd/ReadVariableOp f4 [128]
0.0 0.0 0.0 0.010130861 -9.7677075e-05 -0.010818886 0.001285601 0.0
0.0 0.0029274246 0.0118704755 0.0 -0.00197604 0.0056664194 0.0 0.000717267
0.0 0.0 0.0013992424 -0.0056470367 0.010946602 0.0 0.0 -0.0023757203
-0.007676141 -0.0018164865 0.011860694 0.002517292 0.011385104 0.011596717 0.0018138038 0.0
0.0055250465 -0.0073439004 0.012814166 0.011094176 0.013835409 -0.0033245755 0.010017081 -0.003463002
0.0 0.00853807 0.0 -0.0020666833 -0.00711727 -0.0074938764 0.012346594 0.0
0.005087533 0.0 -0.0077208662 0.006591735 0.0040156655 0.0033513738 0.00083500124 -0.0020912208
0.0 0.0 0.008632083 0.013519777 0.0 -0.00064845325 0.004086213 0.009038665
0.0016056858 -0.0015814111 0.0 0.0045721573 -0.0033754925 0.0063224197 0.0051685907 -0.00415853
0.0044803782 -0.0018498121 0.004445215 0.0 0.0 0.0051724706 0.011309282 0.0
0.0 -0.00082394655 0.0 0.0 0.008312121 0.0011586741 0.010913691 -0.0016042591
0.0 0.0024561544 0.014139193 0.008426692 0.0 -0.0028036276 -0.00070097466 0.013321181
-0.006167009 -0.001647332 0.009344348 -0.008958262 -0.0015043562 -0.006635132 0.005367709 0.00785349
-0.002157841 -0.0034496225 0.0 0.007843573 0.0028776904 0.01578555 0.0 0.0038227967
0.004931337 -0.0004617487 -0.0028693525 0.0 -0.00158036 -0.0021885575 0.0 0.0
-0.0045984252 0.0 0.0 0.004543203 0.005028214 0.0 -0.002035703 -0.0046593836
00000000: 0000 0000 0000 0000 0000 0000 e9fb 253c
00000010: fbd7 ccb8 b241 31bc 9d81 a83a 0000 0000
00000020: 0000 0000 09da 3f3b 627c 423c 0000 0000
00000030: 7380 01bb 5fad b93b 0000 0000 f906 3c3a
00000040: 0000 0000 0000 0000 c966 b73a c70a b9bb
00000050: 6059 333c 0000 0000 0000 0000 f9b1 1bbb
00000060: 2388 fbbb 2c17 eeba 5b53 423c 27f9 243b
00000070: 9688 3a3c 2800 3e3c 28bd ed3a 0000 0000
00000080: 730b b53b 1aa5 f0bb 82f2 513c 59c4 353c
00000090: e9ad 623c 1fe1 59bb af1e 243c 88f3 62bb
000000a0: 0000 0000 43e3 0b3c 0000 0000 3171 07bb
000000b0: fd37 e9bb 318f f5bb 5e49 4a3c 0000 0000
000000c0: 52b5 a63b 0000 0000 52ff fcbb 7bff d73b
000000d0: d895 833b b9a2 5b3b fce3 5a3a dd0c 09bb
000000e0: 0000 0000 0000 0000 956d 0d3c 0e82 5d3c
000000f0: 0000 0000 f6fc 29ba a4e5 853b e916 143c
00000100: e075 d23a 5a47 cfba 0000 0000 09d2 953b
00000110: 5e37 5dbb 4d2c cf3b 485d a93b 4744 88bb
00000120: 23d0 923b 6575 f2ba 2ba9 913b 0000 0000
00000130: 0000 0000 d47d a93b 914a 393c 0000 0000
00000140: 0000 0000 1efe 57ba 0000 0000 0000 0000
00000150: 902f 083c a7de 973a 56cf 323c 0146 d2ba
00000160: 0000 0000 6ff7 203b 13a8 673c 1c10 0a3c
00000170: 0000 0000 11bd 37bb 9dc1 37ba 1541 5a3c
00000180: 9f14 cabb 4aeb d7ba 0919 193c adc5 12bc
00000190: d12d c5ba 856b d9bb 9be3 af3b edab 003c
000001a0: 916a 0dbb 1013 62bb 0000 0000 5482 003c
000001b0: a297 3c3b b350 813c 0000 0000 e387 7a3b
000001c0: 0e97 a13b dd16 f2b9 bf0b 3cbb 0000 0000
000001d0: 1524 cfba e76d 0fbb 0000 0000 0000 0000
000001e0: 63ae 96bb 0000 0000 0000 0000 26df 943b
000001f0: b7c3 a43b 0000 0000 6e69 05bb bead 98bb

sequential_11/dense_71/BiasAdd/ReadVariableOp f4 [64]
0.0055726785 0.001892904 0.0 0.011813364 0.009492818 0.0 0.0048254505 -0.0072087343
-0.007225752 0.0036476417 0.0 -0.003704346 0.008542455 0.012071272 0.0 0.0
0.0 -0.007257724 0.024421997 -0.0004564819 0.0057659503 0.012997477 0.011633311 0.005498471
0.0018421584 0.015240141 0.0092880195 -0.002651398 0.0062267412 0.009312475 -0.0032892013 -0.0035650549
-0.004217242 -0.0032357452 0.0018707133 0.0 0.011025841 0.0 0.008491833 0.0
-0.001999909 -0.0008729237 0.006408885 0.0 -0.0028283938 0.0 0.0032767016 0.0027676844
0.0 0.005692955 0.0014227887 0.0 -0.0014193316 -0.004605112 0.0 0.011951883
-0.0035757176 -0.00041413854 -0.0035905384 -0.005171252 0.0 -0.005904933 0.009811839 0.0
00000000: 049b b63b 521b f83a 0000 0000 d78c 413c
00000010: c487 1b3c 0000 0000 d01e 9e3b 3f37 ecbb
00000020: 00c6 ecbb 460d 6f3b 0000 0000 9dc4 72bb
00000030: a7f5 0b3c 96c6 453c 0000 0000 0000 0000
00000040: 0000 0000 34d2 edbb a410 c83c f753 efb9
00000050: 4cf0 bc3b 5ff3 543c a599 3e3c 852c b43b
00000060: 9474 f13a c9b1 793c c72c 183c 14c3 2dbb
00000070: b109 cc3b 5a93 183c a48f 57bb b2a3 69bb
00000080: ca30 8abb cc0e 54bb b932 f53a 0000 0000
00000090: bba5 343c 0000 0000 5421 0b3c 0000 0000
000000a0: e810 03bb ebd4 64ba a001 d23b 0000 0000
000000b0: 935c 39bb 0000 0000 eebd 563b 0a62 353b
000000c0: 0000 0000 f88b ba3b de7c ba3a 0000 0000
000000d0: de08 baba 7be6 96bb 0000 0000 d5d1 433c
000000e0: 9656 6abb bc20 d9b9 3d4f 6bbb 9b73 a9bb
000000f0: 0000 0000 2b7e c1bb d6c1 203c 0000 0000

sequential_11/dense_72/BiasAdd/ReadVariableOp f4 [32]
0.0 -0.002110012 0.008074715 0.008958732 0.0 0.0 0.0020268033 0.0040235706
0.0 0.008403528 0.0 0.014125309 0.0 0.011908433 -0.006747357 -0.001349377
-0.003300568 0.0 0.0011977525 0.0018723673 -0.004730705 0.0016171141 0.008778912 0.0
0.0 -0.0063196276 0.013240867 0.003635365 -0.0036151784 -0.0042018835 0.0034935055 0.0
00000000: 0000 0000 2148 0abb cf4b 043c a5c7 123c
00000010: 0000 0000 0000 0000 1ed4 043b 28d8 833b
00000020: 0000 0000 f3ae 093c 0000 0000 d76d 673c
00000030: 0000 0000 971b 433c ef18 ddbb 94dd b0ba
00000040: 584e 58bb 0000 0000 e8fd 9c3a 396a f53a
00000050: 0804 9bbb 58f5 d33a 6dd5 0f3c 0000 0000
00000060: 0000 0000 e114 cfbb 39f0 583c 4e3f 6e3b
00000070: a1ec 6cbb f4af 89bb 4cf3 643b 0000 0000

sequential_11/dense_73/BiasAdd/ReadVariableOp f4 [16]
-0.006840303 0.0070584556 0.004652318 0.0 -0.0047403527 -0.004300108 -0.0037121759 0.0037707102
0.0072908374 -0.007204988 0.009356622 0.00055087963 -0.004385659 0.0006005368 0.0 0.010008007
00000000: 9f24 e0bb 9e4a e73b 7972 983b 0000 0000
00000010: f654 9bbb ece7 8cbb fa47 73bb 051e 773b
00000020: fae7 ee3b d217 ecbb 844c 193c e868 103a
00000030: 93b5 8fbb 586d 1d3a 0000 0000 a0f8 233c

sequential_11/dense_69/MatMul f4 [256, 8]
-0.012764074 -0.02266827 0.018843153 0.16013421 0.10897071 -0.12628213 0.11752493 -0.10084333
-0.053168718 -0.14342488 0.15518676 0.04034314 -0.027869288 -0.1268724 -0.09514585 -0.09474463
0.007541761 -0.06568693 -0.1385468 -0.11728833 0.014820427 0.13386971 -0.13366842 0.13370171
-0.06541312 -0.14723606 -0.071517274 -0.10369988 0.06628007 0.15074664 0.041209668 0.088535935
0.06479185 -0.073539875 -0.15218167 -0.12636225 0.06434289 -0.03426805 -0.06118529 -0.010321885
-0.0923216 -0.08298847 -0.14778143 0.12282649 -0.11644949 0.10784453 -0.00091183186 0.062042713
-0.015914982 0.041630164 0.072254986 -0.09211678 0.13038228 0.087978885 -0.03174729 0.014169693
-0.013751349 0.08800794 -0.14024737 0.10616349 -0.14803922 -0.074244544 0.079098046 0.111292474
-0.13639878 0.04207567 -0.052859128 -0.004857501 -0.10676791 0.025073245 -0.014571237 -0.1439083
0.075331144 -0.083516575 -0.058806043 -0.017372621 0.031128444 -0.12657014 0.048192274 -0.09356882
0.0641001 -0.08541555 -0.06763891 -0.041622363 0.012791937 0.120764434 0.12073358 0.033143103
0.114310965 0.13980669 0.07468061 0.15759674 0.05315447 -0.02509895 0.10716421 -0.061450075
0.052578688 -0.14555667 -0.13317388 0.09811528 0.14777404 0.042684734 0.06125337 -0.0411577
0.0065006423 -0.060561724 0.10402684 0.14209199 0.050765537 -0.11137787 -0.062694535 -0.059814062
0.06227575 0.110491626 -0.14930858 -0.007615869 -0.121962756 0.011147939 0.048005372 -0.11995869
-0.07775895 -0.14554621 -0.052276477 -0.10828027 0.11109784 -0.09266805 0.06830898 -0.058741033
0.049427852 -0.12699433 -0.09011883 0.016713083 -0.059696354 0.09418592 0.036997557 -0.15031257
0.15254685 0.010706059 -0.065978944 0.15477918 -0.052128598 -0.07623746 -0.06366583 -0.11101527
0.03411849 -0.104763284 0.049468145 -0.07922837 0.00034372509 0.02410698 -0.03922814 -0.04209265
-0.03193418 0.04825176 0.080682285 0.05450161 -0.028342376 0.047985412 -0.16248251 -0.120593935
-0.084239066 -0.030024193 0.04258108 -0.06894024 0.13651478 0.13947693 0.000327155 0.07590659
-0.11492014 -0.008410351 0.022370791 0.08061061 0.078262225 0.16016063 0.0661534 -0.007449809
-0.071019374 0.053347766 -0.13176772 0.11906391 -0.13585192 0.124977976 0.08962009 0.03176694
0.12153027 -0.05207668 0.040307626 -0.14517993 -0.032790903 0.13360858 0.055048738 -0.057278056
0.056702144 -0.012180474 -0.08061068 0.10446342 0.107342795 -0.062039714 0.16445386 0.10486847
-0.12446466 -0.06230528 -0.03290484 -0.06439924 -0.07863898 -0.12685785 -0.0571934 0.06448123
-0.1345142 0.008810297 -0.04226345 -0.06947169 0.13946751 -0.12499518 0.05865994 -0.13532026
0.13307029 -0.13578159 -0.10647406 -0.06626236 -0.06539408 -0.01888001 -0.05842629 -0.10187653
-0.095696285 -0.098075345 0.060244456 -0.0010549277 0.09475361 0.01525487 -0.1021934 0.07170759
-0.1306548 -0.06528739 -0.077760205 -0.0018408597 0.01381658 -0.147282 -0.12977102 -0.10673483
0.025576467 0.101962104 -0.006552094 -0.025277631 0.033488948 -0.10199237 -0.024496268 -0.036572218
-0.11671646 0.103089385 0.08407026 -0.0836573 -0.07067445 0.09657031 -0.12733848 0.08803945
00000000: 6820 51bc cfb2 b9bc f55c 9a3c 39fa 233e
00000010: 092c df3d 1a50 01be e9b0 f03d f386 cebd
00000020: 71c7 59bd f9dd 12be 47e9 1e3e d93e 253d
00000030: 224e e4bc d7ea 01be d4db c2bd 7909 c2bd
00000040: e020 f73b df86 86bd 36df 0dbe dd34 f0bd
00000050: 60d1 723c 2415 093e 60e0 08be 1ae9 083e
00000060: 50f7 85bd 0dc5 16be a677 92bd 9a60 d4bd
00000070: d8bd 873d 545d 1a3e 78cb 283d 5452 b53d
00000080: 97b1 843d 139c 96bd 83d5 1bbe 1b65 01be
00000090: 35c6 833d a85c 0cbd 6d9d 7abd 201d 29bc
000000a0: 1b13 bdbd dcf5 a9bd 0454 17be 748c fb3d
000000b0: 127d eebd 98dd dc3d 0008 6fba 8020 7e3d
000000c0: 2360 82bc 6484 2a3d 6cfa 933d b9a7 bcbd
000000d0: ef82 053e 462e b43d 7209 02bd 0028 683c
000000e0: 574d 61bc 823d b43d 029d 0fbe 3e6c d93d
000000f0: 9897 17be 860d 98bd 28fe a13d 4fed e33d
00000100: 1fac 0bbe 8a57 2c3d d082 58bd ac2b 9fbb
00000110: 22a9 dabd 6866 cd3c 33bc 6ebc b35c 13be
00000120: 3747 9a3d bd0a abbd 9bde 70bd 0751 8ebc
00000130: 1401 ff3c 9a9b 01be 4365 453d 02a1 bfbd
00000140: ea46 833d 59ee aebd 4586 8abd 367c 2abd
00000150: 4695 513c 5853 f73d 2b43 f73d 10c1 073d
00000160: de1b ea3d 7c29 0f3e 26f2 983d 0a61 213e
00000170: 80b8 593d 509c cdbc e978 db3d 13b3 7bbd
00000180: c05c 573d cf0c 15be bc5e 08be aaf0 c83d
00000190: 1452 173e 30d6 2e3d d0e4 7a3d fa94 28bd
000001a0: 5703 d53b 920f 78bd 060c d53d 9080 113e
000001b0: 86ef 4f3d 151a e4bd fe65 80bd 97ff 74bd
000001c0: db14 7f3d 6f49 e23d 59e4 18be 8a8e f9bb
000001d0: 9cc7 f9bd d8a5 363c 48a1 443d e7ac f5bd
000001e0: 1640 9fbd 110a 15be dc1f 56bd 0cc2 ddbd
000001f0: 4487 e33d bfc8 bdbd 94e5 8b3d 709a 70bd
00000200: dc74 4a3d cd0a 02be 3990 b8bd e0e9 883c
00000210: 2a84 74bd 8ce4 c03d c08a 173d 8aeb 19be
00000220: 3e35 1c3e 7768 2f3c f81f 87bd 6f7e 1e3e
00000230: cc84 55bd 6322 9cbd 3b63 82bd f95b e3bd
00000240: d4bf 0b3d 228e d6bd 1c9f 4a3d 7c42 a2bd
00000250: 0036 b439 007c c53c b0ad 20bd 5869 2cbd
00000260: 6acd 02bd a3a3 453d c13c a53d 153d 5f3d
00000270: 452e e8bc 5a8c 443d d161 26be f4f9 f6bd
00000280: 8885 acbd 4cf5 f5bc 8069 2e3d 8a30 8dbd
00000290: 88ca 0b3e 0ad3 0e3e 0086 ab39 ea74 9b3d
000002a0: 405b ebbd 92cb 09bc f342 b73c 2d17 a53d
000002b0: f247 a03d 2601 243e 6f7b 873d 871d f4bb
000002c0: 9b72 91bd 3083 5a3d 1eee 06be c7d7 f33d
000002d0: c41c 0bbe 74f4 ff3d bd8a b73d 0d1e 023d
000002e0: dde4 f83d 5b4e 55bd 9c19 253d 0caa 14be
000002f0: c14f 06bd b0d0 083e c97a 613d 659c 6abd
00000300: 8240 683d 9c90 47bc 3617 a5bd ebf0 d53d
00000310: 8ad6 db3d 5b1d 7ebd 9866 283e 48c5 d63d
00000320: 54e7 febd d233 7fbd 3ac7 06bd c0e3 83bd
00000330: 790d a1bd 06e7 01be a043 6abd bc0e 843d
00000340: 17be 09be 1059 103c 701c 2dbd 2c47 8ebd
00000350: 92d0 0e3e 79fd ffbd 6845 703d 6591 0abe
00000360: 9443 083e 540a 0bbe 120f dabd 8fb4 87bd
00000370: 55ed 85bd 40aa 9abc 6850 6fbd a4a4 d0bd
00000380: 6afc c3bd badb c8bd e4c2 763d 8045 8aba
00000390: 2e0e c23d 90ef 793c c64a d1bd 6edb 923d
000003a0: 5fca 05be 65b5 85bd be40 9fbd 0049 f1ba
000003b0: f05e 623c 18d1 16be b2e2 04be ca97 dabd
000003c0: bd85 d13c 82d1 d03d f3b2 d6bb 0913 cfbc
000003d0: b52b 093d 60e1 d0bd 66ac c8bc c0cc 15bd
000003e0: 0a09 efbd 8720 d33d 072d ac3d 8554 abbd
000003f0: c4bd 90bd a8c6 c53d 0565 02be 074e b43d

sequential_11/dense_70/MatMul f4 [128, 256]
0.121154934 0.0344868 0.10119423 -0.0951142 0.06588325 0.1160644 -0.0929161 0.04640186
-0.07561889 -0.07554105 0.046376795 0.014674276 -0.03276822 -0.018441796 0.065752834 -0.023012727
0.12075877 0.047069848 -0.047820717 -0.06367481 -0.06333956 0.11264405 0.06851131 0.11352247
0.0009963214 0.04434383 0.05248791 0.02185607 0.008978307 0.01586613 -0.072383195 -0.12192127
0.0012658536 0.052214712 0.091638654 -0.095360965 0.033443987 -0.050710976 0.0070524514 0.08680236
-0.1068106 -0.003356874 0.035779 -0.10927543 0.09979537 0.038311213 0.082690775 0.08887553
-0.05571705 -0.016620785 -0.099370986 -0.1120092 0.060564756 -0.06730369 -0.06009838 0.10444188
-0.124269575 -0.06867701 -0.053408384 -0.03114736 -0.031878352 -0.048556447 -0.08108431 -0.016466886
-0.06266305 -0.12475458 -0.0815123 0.092695236 0.050297767 0.09512246 0.091236115 0.089548945
-0.07914972 -0.044133216 -0.031537235 0.058202773 -0.057037354 -0.0466429 -0.104049504 -0.095166296
-0.08962983 0.069114685 0.088647604 0.04241827 -0.0585503 0.0055238903 0.059040815 0.10202643
0.063237876 -0.06515008 0.029263258 -0.043554604 -0.10440186 -0.103184074 -0.0671716 -0.036587834
0.07476494 -0.0835512 -0.057321787 -0.06371069 0.114997804 0.053513616 0.11006808 -0.12392053
-0.12009257 0.08142397 0.103033066 0.10947418 -0.12089065 -0.01124236 -0.013488561 -0.024442345
0.06381211 0.11808646 -0.044646204 0.035374194 -0.0446167 -0.06682441 -0.11521834 0.008068711
-0.075654715 -0.011652023 0.063100785 0.070697755 0.012392521 0.016625732 -0.063774824 -0.057243526
-0.012179762 -0.033389747 -0.111705095 -0.04845509 -0.00870648 -0.11087018 -0.07501909 -0.0868378
0.021787763 -0.0761888 0.10648158 0.0023097694 0.060610026 -0.057784438 0.0741494 0.029295623
-0.014521658 -0.03424853 -0.110438466 -0.10789445 -0.10641298 -0.06287995 -0.016162515 -0.065686345
0.12387535 0.08867809 -0.034261674 0.040605456 -0.121623546 -0.054244846 0.022289962 0.055245757
-0.060756773 0.073289335 0.09380469 -0.092513025 -0.10282007 0.05571696 0.11155829 0.123526186
-0.016649574 0.12175533 0.12202251 -0.09831071 0.09284231 -0.04920134 -0.11174938 -0.028355718
-0.08408162 -0.061734945 -0.020626545 0.023440868 0.106164664 0.03395146 -0.0066476464 0.10135621
0.034806192 0.09301868 0.0023337603 0.08823982 0.046527177 0.06320891 -0.02431783 0.01544863
-0.039117068 0.10796273 -0.0464772 -0.022365272 -0.0905202 0.038232893 0.0020442903 -0.09520903
0.1065222 0.10329783 0.1211974 0.026215643 -0.061635792 -0.074385524 0.02028361 0.07150537
-0.017362863 0.1227929 0.03336072 -0.030144691 -0.027902722 -0.07838026 0.101928174 0.02126354
-0.05761528 -0.113873065 0.10855377 -0.028061807 0.097448796 -0.05038318 0.009154618 0.008476168
-0.0103829205 -0.10895881 0.11746976 -0.11535454 0.093357235 -0.09194288 0.034760922 -0.07347056
-0.09146115 -0.1182161 0.09634799 0.05111888 -0.035000056 -0.084791064 -0.052158087 -0.0714761
0.03274396 0.0960916 -0.01620999 0.048941642 -0.07240358 0.09894934 -0.070252806 -0.11838123
0.031940162 0.056459486 -0.0895682 0.1217283 0.017777115 0.098445415 -0.09817487 0.029181242
00000000: 1420 f83d 0842 0d3d ec3e cf3d 3ccb c2bd
00000010: cced 863d 2cb3 ed3d cc4a bebd e00f 3e3d
00000020: 14de 9abd 44b5 9abd 98f5 3d3d 606c 703c
00000030: f837 06bd 4013 97bc 6ca9 863d 3085 bcbc
00000040: 6050 f73d 50cc 403d a8df 43bd f067 82bd
00000050: 2cb8 81bd ecb1 e63d a84f 8c3d 787e e83d
00000060: 0097 823a e0a1 353d 90fd 563d 800b b33c
00000070: c019 133c b0f9 813c a43d 94bd dcb1 f9bd
00000080: 00eb a53a 18df 553d 0cad bb3d 9c4c c3bd
00000090: 90fc 083d 50b6 4fbd 4018 e73b 70c5 b13d
000000a0: 84bf dabd 00ff 5bbb 008d 123d cccb dfbd
000000b0: 8461 cc3d 38ec 1c3d c859 a93d 6004 b63d
000000c0: 9037 64bd 5028 88bc 0483 cbbd 1465 e5bd
000000d0: c012 783d 84d6 89bd b829 76bd a0e5 d53d
000000e0: 0c81 febd 88a6 8cbd c0c2 5abd c028 ffbc
000000f0: e092 02bd 20e3 46bd 880f a6bd 90e5 86bc
00000100: 7c55 80bd 547f ffbd ecef a6bd 00d7 bd3d
00000110: 0805 4e3d 90cf c23d 00da ba3d 7065 b73d
00000120: 4019 a2bd 08c5 34bd 302d 01bd 0866 6e3d
00000130: 00a0 69bd a00c 3fbd e817 d5bd 8ce6 c2bd
00000140: d88f b7bd 008c 8d3d e08c b53d c8be 2d3d
00000150: 70d2 6fbd c001 b53b c8d4 713d 3cf3 d03d
00000160: dc82 813d 686d 85bd 80b9 ef3c 5066 32bd
00000170: a4d0 d5bd 2c52 d3bd 4491 89bd 20dd 15bd
00000180: 5c1e 993d e41c abbd 40ca 6abd c07a 82bd
00000190: f883 eb3d 1831 5b3d 606b e13d 0cca fdbd
000001a0: 18f3 f5bd 9cc1 a63d 0003 d33d 0034 e03d
000001b0: 8495 f7bd e031 38bc 20ff 5cbc 503b c8bc
000001c0: ecaf 823d 50d7 f13d f0de 36bd 88e4 103d
000001d0: 00c0 36bd 3cdb 88bd 98f7 ebbd a032 043c
000001e0: dcf0 9abd 20e8 3ebc fc3a 813d fcc9 903d
000001f0: 000a 4b3c b032 883c 609c 82bd 3078 6abd
00000200: a08d 47bc b0c3 08bd a4c5 e4bd d878 46bd
00000210: a0a5 0ebc e80f e3bd 9ca3 99bd 04d8 b1bd
00000220: 407c b23c e008 9cbd 0413 da3d 805f 173b
00000230: 3842 783d 60af 6cbd a4db 973d 60fd ef3c
00000240: 40ec 6dbc 3048 0cbd 902d e2bd c4f7 dcbd
00000250: 0cef d9bd 34c7 80bd 4067 84bc 9086 86bd
00000260: 5cb2 fd3d dc9c b53d f855 0cbd e851 263d
00000270: c415 f9bd d82f 5ebd 7099 b63c 6049 623d
00000280: 18dc 78bd b818 963d ac1c c03d 7877 bdbd
00000290: 5493 d2bd 7837 643d ac78 e43d 4cfb fc3d
000002a0: b064 88bc dc5a f93d f0e6 f93d 2057 c9bd
000002b0: 1c24 be3d 5887 49bd dcdc e4bd 404a e8bc
000002c0: fc32 acbd c8dd 7cbd 00f9 a8bc 1007 c03c
000002d0: dc6c d93d b010 0b3d 80d4 d9bb d893 cf3d
000002e0: f090 0e3d 9480 be3d 00f2 183b 14b7 b43d
000002f0: 4893 3e3d ac73 813d 3036 c7bc 401c 7d3c
00000300: 3839 20bd 901b dd3d e05e 3ebd 6037 b7bc
00000310: a862 b9bd 189a 1c3d 80f9 053b f4fc c2bd
00000320: 5028 da3d d08d d33d 5836 f83d 30c2 d63c
00000330: d075 7cbd 7057 98bd d029 a63c 6871 923d
00000340: 903c 8ebc d87a fb3d 40a5 083d 00f2 f6bc
00000350: 4094 e4bc d485 a0bd b8bf d03d e030 ae3c
00000360: 00fe 6bbd 4836 e9bd 7051 de3d e0e1 e5bc
00000370: 3c93 c73d 985e 4ebd 40fd 153c a0df 0a3c
00000380: 201d 2abc cc25 dfbd fc93 f03d 003f ecbd
00000390: 1432 bf3d 8c4c bcbd 7861 0e3d bc77 96bd
000003a0: fc4f bbbd 481b f2bd 1852 c53d 0862 513d
000003b0: 385c 0fbd f0a6 adbd b8a3 55bd 1062 92bd
000003c0: 881e 063d accb c43d d0ca 84bc 0877 483d
000003d0: 5448 94bd f4a5 ca3d b4e0 8fbd dc71 f2bd
000003e0: b0d3 023d 1042 673d 886f b7bd b04c f93d
000003f0: 50a1 913c c09d c93d e80f c9bd 800d ef3c

sequential_11/dense_71/MatMul f4 [64, 128]
0.026523858 0.17392077 0.09564118 0.039826278 -0.1672755 0.10961729 -0.0706883 0.10707058
-0.027964175 0.0014796815 0.12955943 -0.01963815 -0.012730276 0.0038563707 0.10903092 -0.012061931
0.17097531 0.08592765 0.11240618 0.08252415 -0.03950124 0.047919914 -0.04545036 -0.12474927
-0.10322911 0.14112851 -0.10407351 -0.110504724 0.095999196 -0.117744796 0.0068075117 0.03557439
0.03237357 0.019383453 0.037915964 0.16132039 -0.008740471 0.04562618 -0.1286285 -0.14235027
0.16183136 -0.10397197 -0.10643685 0.08164496 -0.10825028 -0.06182865 0.0077129025 0.05285582
0.08565836 -0.13970086 -0.14692284 0.11198265 0.060780447 -0.08651742 -0.13994896 -0.027479265
-0.036722973 0.006723851 -0.10509207 -0.16922952 -0.09975725 0.06971018 -0.1651981 0.11595354
-0.05581031 0.0137918 -0.15462899 0.13902216 -0.13733786 -0.088003196 -0.05332441 -0.09304394
0.093901694 -0.1734415 -0.04213826 -0.1508096 -0.16567816 0.12271645 0.16600475 -0.038867906
0.17584442 0.17845696 0.08676328 0.06110391 0.053355232 -0.120936036 -0.107976325 0.12049278
0.12203716 -0.15413716 -0.16416784 -0.0026573706 -0.1681387 0.097004086 -7.5788004e-05 0.14692202
-0.12576118 -0.09057592 0.02821717 -0.03077937 -0.17126639 -0.09497054 0.12827195 0.13539
-0.15422548 -0.03778899 0.0847664 0.08707159 0.11934198 -0.086713895 -0.048194915 -0.10340712
-0.038925704 -0.058956698 -0.081563175 -0.14421117 0.17161517 -0.0035214047 0.07535355 -0.14364345
0.05884675 0.11064796 0.14508824 0.035641488 0.13120085 -0.17062683 -0.038018305 -0.10957598
-0.07249153 0.13115786 0.12625928 0.09737645 -0.123494744 0.119378455 -0.17044991 -0.026564151
0.16987775 -0.07310188 0.116393104 0.16472177 0.039767213 -0.060029913 -0.1185402 -0.15787764
0.00044848025 0.09010272 -0.1614249 -0.10493942 -0.15794687 0.16928463 -0.067112826 0.09499069
-0.07705609 0.016006116 0.15048735 0.019099023 0.067267016 0.040092073 0.11263208 -0.081170656
0.05785152 0.038593877 0.0342435 0.016599083 0.11002847 -0.1703984 0.07658884 0.16527922
-0.048266187 -0.037254848 0.01297465 0.17032523 0.06723616 0.031761937 0.0411534 0.03274128
-0.07728766 -0.1662554 0.10042949 -0.10137348 0.15019906 -0.08386512 -0.07146112 0.05947864
-0.1612466 -0.1289638 -0.10917887 -0.15317121 -0.13061549 0.15208074 -0.15374075 -0.14001735
0.04164409 -0.14770754 -0.04151389 0.048154656 0.042997923 -0.15429889 0.00038775092 -0.023788607
0.0682096 0.12189008 -0.03224367 0.1451502 -0.15106833 0.06736627 -0.0881262 0.050287426
0.0028743297 0.02405553 -0.15593609 0.05134733 0.082644805 0.1491637 -0.033405628 0.1589493
-0.11171431 0.16568169 0.0071612997 0.14072952 0.16467993 -0.12739965 -0.11654853 0.13573028
-0.12975366 0.15753685 -0.121193424 0.16262744 0.05118613 0.0268765 0.0947806 0.05053642
0.1664641 -0.13189866 -0.13521476 -0.12228359 -0.036032047 -0.0145475995 -0.005393401 0.15077266
-0.05831587 0.13850787 -0.15707764 0.038959995 -0.17189406 0.16605298 -0.15762416 -0.10731692
0.1509064 -0.00032061338 0.15704615 -0.14021435 -0.09273961 -0.0975485 -0.10685812 -0.05021988
00000000: 9048 d93c 4918 323e 86df c33d e120 233d
00000010: 454a 2bbe 087f e03d 07c5 90bd d247 db3d
00000020: 2015 e5bc dff1 c13a 3aab 043e 30e0 a0bc
00000030: a692 50bc 2abb 7c3b 9a4b df3d 689f 45bc
00000040: 2714 2f3e d6fa af3d 3635 e63d 6c02 a93d
00000050: 0dcc 21bd ac47 443d 282a 3abd 8c7c ffbd
00000060: c969 d3bd fe83 103e 7e24 d5bd 4d50 e2bd
00000070: 3a9b c43d 2f24 f1bd 8c11 df3b 74b6 113d
00000080: 269a 043d 0cca 9e3c c54d 1b3d 2c31 253e
00000090: 3134 0fbc 84e2 3a3d 31b7 03be 45c4 11be
000000a0: 1fb7 253e 42ef d4bd 90fb d9bd 7935 a73d
000000b0: 53b2 ddbd 0a40 7dbd 84bc fc3b 587f 583d
000000c0: a66d af3d be0d 0fbe f172 16be 2957 e53d
000000d0: ebf4 783d 0c30 b1bd c84e 0fbe 321c e1bc
000000e0: d46a 16bd c053 dc3b 833a d7bd 814a 2dbe
000000f0: 874d ccbd 36c4 8e3d b129 29be 0d79 ed3d
00000100: 5a99 64bd 00f7 613c 1057 1ebe d35b 0e3e
00000110: 4ca2 0cbe 053b b4bd b26a 5abd d28d bebd
00000120: 884f c03d a69a 31be 2b99 2cbd d56d 1abe
00000130: 89a7 29be c352 fb3d 26fd 293e f433 1fbd
00000140: 8f10 343e 6cbd 363e f2b0 b13d 1848 7a3d
00000150: 048b 5a3d 50ad f7bd b122 ddbd ebc4 f63d
00000160: 9eee f93d 22d6 1dbe 9d1b 28be 4827 2ebb
00000170: 8d2c 2cbe 14aa c63d 60f0 9eb8 ba72 163e
00000180: 8ac7 00be de7f b9bd b227 e73c 0425 fcbc
00000190: 7560 2fbe ea7f c2bd b959 033e ada3 0a3e
000001a0: 49ed 1dbe a1c8 1abd 029a ad3d 9752 b23d
000001b0: 9169 f43d 0e97 b1bd 0868 45bd 1dc7 d3bd
000001c0: 8f70 1fbd 947c 71bd 980a a7bd 18ac 13be
000001d0: e3bb 2f3e 5ec7 66bb f652 9a3d 4517 13be
000001e0: 4a09 713d 669b e23d 0392 143e cffc 113d
000001f0: 8459 063e cdb8 2ebe 15b9 1bbd 5f69 e0bd
00000200: 7076 94bd 3f4e 063e 1d4a 013e 4e6d c73d
00000210: d0ea fcbd b17c f43d 6c8a 2ebe 109d d9bc
00000220: 6ff4 2d3e 70b6 95bd 825f ee3d d3ac 283e
00000230: f2e2 223d ede1 75bd 34c5 f2bd adaa 21be
00000240: 0022 eb39 c687 b83d 924c 25be 7bea d6bd
00000250: d3bc 21be f358 2d3e 7372 89bd 7b8a c23d
00000260: 95cf 9dbd 421f 833c 5b19 1a3e 8e75 9c3c
00000270: 4ac3 893d 9637 243d a6ab e63d cd3c a6bd
00000280: b7f5 6c3d 9d14 1e3d ea42 0c3d cdfa 873c
00000290: 9b56 e13d eb7c 2ebe 9cda 9c3d f53e 293e
000002a0: c4b2 45bd 8a98 18bd a093 543c bd69 2e3e
000002b0: 1db3 893d ce18 023d 7890 283d b81b 063d
000002c0: fe48 9ebd db3e 2abe faad cd3d e69c cfbd
000002d0: c8cd 193e 7ac1 abbd 355a 92bd e09f 733d
000002e0: d41d 25be 160f 04be 2c99 dfbd ead8 1cbe
000002f0: 11c0 05be 0ebb 1b3e 376e 1dbe b560 0fbe
00000300: fe92 2a3d a540 17be 780a 2abd d13d 453d
00000310: 971e 303d 8700 1ebe 0c4b cb39 53e0 c2bc
00000320: 7ab1 8b3d 82a1 f93d f011 04bd 41a2 143e
00000330: a8b1 1abe 54f7 893d 827b b4bd 30fa 4d3d
00000340: 405f 3c3b 1a10 c53c b6ad 1fbe 9451 523d
00000350: ae41 a93d 5ebe 183e 57d4 08bd 9bc3 223e
00000360: 79ca e4bd 76a8 293e 56a9 ea3b 661b 103e
00000370: dba1 283e 0e75 02be ffb0 eebd e1fc 0a3e
00000380: 25de 04be 5751 213e 4234 f8bd cf87 263e
00000390: 8ca8 513d 1b2c dc3c 551c c23d 47ff 4e3d
000003a0: 9175 2a3e 7110 07be bd75 0abe d26f fabd
000003b0: 5796 13bd 0e59 6ebc 20bb b0bb 2664 1a3e
000003c0: 9fdc 6ebd 02d5 0d3e f6d8 20be 8494 1f3d
000003d0: ff04 30be cb09 2a3e 3a68 21be f9c8 dbbd
000003e0: 3587 1a3e 0018 a8b9 b5d0 203e 5a94 0fbe
000003f0: 44ee bdbd 82c7 c7bd 6ed8 dabd 5cb3 4dbd

sequential_11/dense_72/MatMul f4 [32, 64]
-0.17151332 0.08430362 0.13260269 0.051323712 -0.08477533 -0.20800978 0.1493898 -0.21447432
-0.026033938 0.070963025 -0.10589391 0.14559144 -0.06624234 -0.030870795 0.022489488 0.021399736
-0.21586257 -0.109577656 0.046797574 -0.04793024 0.07586378 0.072499454 -0.1460287 0.026160538
0.056950986 0.24429345 -0.23675227 -0.116346955 -0.07403892 0.17006665 -0.15746999 0.028733075
-0.24973601 -0.08409947 -0.15606755 -0.15913689 -0.12880832 -0.10072392 -0.18789011 -0.1512354
0.08460778 0.17742676 -0.014825761 0.18652457 0.23811209 -0.2349649 -0.07786912 0.095644295
-0.005072713 0.18615925 0.0020982027 0.024137914 0.05112195 0.08997071 0.22954142 -0.07405174
-0.00965327 0.16537642 -0.11286169 -0.16164732 -0.05500722 -0.24585515 -0.009145439 0.02133578
-0.10179358 0.05796436 0.1033656 -0.14111276 -0.085127994 -0.21641421 0.21412838 -0.06065088
0.04532003 -0.15852594 -0.19441056 0.054810286 -0.19985536 -0.2472948 -0.19157839 -0.21357393
-0.17331469 0.061728515 0.12840274 -0.06015227 0.13928837 0.1555038 0.16437712 -0.24863307
-0.027868368 -0.021230858 -0.21011788 -0.18699163 0.07630684 0.09353807 0.17094475 0.009718727
-0.08745493 0.1757974 -0.1485753 -0.16865724 0.07302224 -0.031341255 -0.06452778 0.029581964
0.13075489 0.20901999 -0.24864458 -0.0070729256 -0.05177188 0.043538034 -0.07259171 -0.15727246
-0.10561907 0.16151465 0.16306481 -0.113192916 0.04182434 0.032021143 -0.07638496 -0.16671729
-0.22645074 0.17955989 -0.18718207 -0.01670612 0.20192009 0.05727063 0.19558072 0.16439742
0.1731998 0.20878947 0.2476219 -0.15310639 0.18177405 0.03526038 0.0053673196 0.16774876
0.026835948 0.19865704 -0.10052675 0.093424186 -0.12321151 0.04695165 -0.07664001 -0.007468164
0.16953963 -0.14259619 -0.16780193 0.056479618 0.058146656 -0.0045017907 0.15473074 0.0021333224
-0.095249295 -0.007907557 0.1545275 -0.116684765 -0.028729262 0.15860337 -0.16495433 -0.22035813
0.08450849 0.19943658 0.04697878 0.117872655 -0.13752732 0.043197334 0.19792715 0.09654236
-0.1738932 0.23279761 0.04850025 -0.01913327 -0.11375009 -0.1459173 0.17919765 0.09980417
-0.09020352 -0.14148423 -0.1622896 0.027184367 0.09844528 -0.24800739 0.090954304 0.12787583
-0.009244182 -0.114029095 0.13602403 -0.081505105 -0.077637374 0.2283597 0.22230847 -0.14805782
0.012295701 -0.07546063 0.08614147 0.15818167 0.15849583 0.11220223 -0.09575048 0.1439773
-0.12429531 -0.0050729807 -0.1994338 -0.12236272 0.052501526 0.19633302 -0.058742583 0.03452331
0.23501438 -0.16027719 -0.14983454 0.16595936 0.24089672 0.17666584 0.05976589 0.06799891
-0.039552443 -0.06413653 0.119928606 -0.12989517 -0.010115179 -0.012196211 -0.23913541 0.018755388
0.11613583 0.19058841 -0.06122935 -0.1690234 -0.22536199 -0.0035588145 -0.016138263 -0.119855285
0.13172735 -0.021711227 -0.16694005 -0.088030815 -0.24508315 0.08137709 -0.018862274 0.10418579
-0.17705357 0.07059179 0.06994217 -0.007974088 0.1701306 0.13780329 0.08593279 -0.045976166
-0.18905626 -0.15907651 -0.044955842 -0.24212225 -0.11866015 -0.24187826 0.23693688 -0.059005678
00000000: 30a1 2fbe 60a7 ac3d 00c9 073e d038 523d
00000010: b09e adbd 8400 55be a4f9 183e 289f 5bbe
00000020: 2045 d5bc 1055 913d e8de d8bd ec15 153e
00000030: 10aa 87bd c0e4 fcbc e03b b83c 804e af3c
00000040: 140b 5dbe 406a e0bd d0ae 3f3d 8052 44bd
00000050: 785e 9b3d 987a 943d 8c88 15be a04e d63c
00000060: 7045 693d 1028 7a3e 306f 72be 5047 eebd
00000070: b8a1 97bd f425 2e3e d03f 21be a061 eb3c
00000080: ccba 7fbe 583c acbd 2cd0 1fbe c8f4 22be
00000090: 54e6 03be 5848 cebd 4466 40be 74dd 1abe
000000a0: d846 ad3d 5caf 353e c0e7 72bc 4c00 3f3e
000000b0: a8d3 733e a49a 70be d879 9fbd 28e1 c33d
000000c0: 0039 a6bb 88a0 3e3e 0082 093b e0bc c53c
000000d0: 4065 513d 9042 b83d e80c 6b3e 70a8 97bd
000000e0: c028 1ebc 7058 293e 0824 e7bd e086 25be
000000f0: 404f 61bd 74c1 7bbe c0d6 15bc 60c8 ae3c
00000100: 2779 d0bd 096c 6d3d 58b1 d33d dd7f 10be
00000110: 9657 aebd b09b 5dbe 7844 5b3e 0f6d 78bd
00000120: 7fa1 393d a054 22be 9013 47be c080 603d
00000130: e2a6 4cbe d93a 7dbe 202d 44be 20b3 5abe
00000140: 6879 31be 0ad7 7c3d 027c 033e 3a62 76bd
00000150: 9ca1 0e3e 633c 1f3e 7a52 283e ab99 7ebe
00000160: 344c e4bc 56ec adbc 2429 57be bc7a 3fbe
00000170: c346 9c3d e390 bf3d 240c 2f3e 4c3b 1f3c
00000180: 921b b3bd 3c04 343e 2024 18be 7cb4 2cbe
00000190: af8c 953d b05f 00bd 2427 84bd e055 f23c
000001a0: 9ce4 053e 5609 563e af9c 7ebe 00c4 e7bb
000001b0: c00e 54bd f054 323d f6aa 94bd 080c 21be
000001c0: d04e d8bd 1964 253e 76fa 263e b0d1 e7bd
000001d0: 0050 2b3d 9a28 033d b86f 9cbd f0b7 2abe
000001e0: b4e2 67be 8cde 373e a8ac 3fbe 46db 88bc
000001f0: 24c4 4e3e 9c94 6a3d 5046 483e cc57 283e
00000200: 4a5b 313e e8cc 553e 9890 7d3e ecc7 1cbe
00000210: fa22 3a3e 306d 103d 57e0 af3b 55c6 2b3e
00000220: 10d7 db3c c06c 4b3e f8e0 cdbd 2e55 bf3d
00000230: 5156 fcbd 6050 403d 70f5 9cbd 80b7 f4bb
00000240: cc9b 2d3e bc04 12be 45d4 2bbe 2c57 673d
00000250: 302b 6e3d c283 93bb bc71 1e3e 36cf 0b3b
00000260: 1012 c3bd b38e 01bc 753c 1e3e 6cf8 eebd
00000270: a159 ebbc ec68 223e cae9 28be 90a5 61be
00000280: ca12 ad3d 1a39 4c3e d26c 403d 3867 f13d
00000290: f6d3 0cbe b0ef 303d 6aad 4a3e 00b8 c53d
000002a0: 0f11 32be 7f62 6e3e 33a8 463d 60bd 9cbc
000002b0: cff5 e8bd 586b 15be 977f 373e 2166 cc3d
000002c0: a0bc b8bd 3ee1 10be 3f2f 26be c0b1 de3c
000002d0: ae9d c93d a6f5 7dbe 4046 ba3d e2f1 023e
000002e0: e974 17bc 1688 e9bd e249 0b3e 26ec a6bd
000002f0: 5800 9fbd 20d7 693e d5a4 633e 789c 17be
00000300: e873 493c 1a8b 9abd f06a b03d 60fa 213e
00000310: bb4c 223e 48ca e53d d418 c4bd c96e 133e
00000320: 8a8e febd 3f3b a6bb 6038 4cbe 4e99 fabd
00000330: d70b 573d 860b 493e 109c 70bd 5068 0d3d
00000340: 9ca7 703e b41f 24be 3a6e 19be 40f1 293e
00000350: a1ad 763e e4e7 343e 14cd 743d 0343 8b3d
00000360: be01 22bd 035a 83bd 219d f53d 3d03 05be
00000370: 23ba 25bc 9ed2 47bc eadf 74be e6a4 993c
00000380: 9fd8 ed3d 9c29 433e a0cb 7abd 7814 2dbe
00000390: 4bc5 66be 003b 69bb 6434 84bc b076 f5bd
000003a0: 89e3 063e bedb b1bc 55f2 2abe 8049 b4bd
000003b0: 14f7 7abe 08a9 a63d 0e85 9abc 5c5f d53d
000003c0: 884d 35be 6e92 903d d73d 8f3d c0a5 02bc
000003d0: b736 2e3e 4e1c 0d3e 88fd af3d 8151 3cbd
000003e0: f797 41be f4e4 22be 9e23 38bd e5ee 77be
000003f0: 1804 f3bd efae 77be 959f 723e f0af 71bd

sequential_11/dense_73/MatMul f4 [16, 32]
-0.06557307 -0.3101101 -0.10886098 -0.26815876 -0.2634022 -0.052602798 -0.037030224 -0.02448198
-0.046123058 -0.16471677 0.077801645 0.18950425 0.18736634 -0.10489365 0.18019135 -0.27537188
0.17949013 0.2583042 -0.0868707 -0.21135555 0.15688668 -0.11207135 0.2746415 -0.037087202
-0.21405171 0.13907671 -0.2684831 -0.15669796 0.11783302 0.15460141 0.25249416 -0.25875232
-0.010698557 -0.16366091 0.013904061 0.13893162 0.16549918 0.097298175 -0.13131474 -0.22703718
0.14380234 -0.21822149 0.19743785 0.17925167 0.23517653 0.16660239 -0.10948724 -0.020113377
-0.28645605 0.088133186 0.05886277 -0.02718245 0.19589904 0.15318508 0.27924928 -0.15818116
-0.11168426 -0.36020935 -0.25592145 -0.22453779 -0.20453107 0.20831181 0.15157783 0.1960999
-0.18770882 0.3061008 -0.04191046 -0.2050769 0.16607162 0.3284599 -0.19279514 0.056903493
-0.15905774 0.03367857 -0.14355293 0.021329677 -0.26182675 -0.14144781 -0.16556582 -0.10893418
-0.009889634 -0.005640179 -0.2287827 0.28504878 -0.15418027 -0.22375882 0.12583783 0.05111721
0.053464115 -0.029967256 0.043659344 0.19815332 0.16114801 0.1949023 -0.31723565 0.27559206
-0.09517577 -0.1593843 -0.16589656 -0.30520874 0.055699766 0.35196224 -0.12492469 -0.04981917
0.13911992 -0.30205515 -0.34746215 -0.32628664 -0.0051005185 -0.049103856 -0.3528535 0.30607918
0.308309 -0.092613906 -0.20707184 -0.013080537 -0.08305812 -0.30777323 0.04260364 -0.3362296
0.2301921 0.11607167 -0.18357497 0.055950433 0.03308174 -0.12370235 0.31223252 -0.21948257
-0.055051953 0.09361349 -0.019206649 -0.18822546 0.3178496 -0.11819494 -0.22506353 0.015077228
-0.011107534 0.27489668 -0.03178546 -0.27253604 0.0059087276 -0.03657827 0.18666872 0.069021545
-0.2933006 0.33101502 0.05351719 0.30896643 0.26201007 -0.22915581 -0.02333708 -0.025091618
-0.1281126 0.29797444 -0.16479532 0.047749046 0.19252476 -0.17065617 -0.0060543725 0.008619964
-0.28333226 0.22445461 0.335469 -0.26803246 0.22184476 0.25880972 -0.034977846 -0.003539278
-0.28585315 -0.21428941 0.026677012 0.16501847 0.2183328 0.12824786 -0.28289568 0.20140585
0.16842848 -0.31645927 0.31129047 -0.18538983 -0.2510315 -0.1528368 -0.15188397 -0.25859764
0.09467304 -0.33765662 0.31888795 0.3447959 0.25101367 -0.006935954 -0.20374225 -0.3217868
0.058346838 0.051218927 0.13479252 -0.20959121 0.26990977 -0.27319318 0.04793958 -0.06495871
0.13932392 0.06519282 0.3182526 0.082861185 0.15858003 0.33854958 0.08246084 0.14704515
0.1806327 -0.021254152 0.008561462 -0.18393745 -0.19843374 -0.086444415 -0.03176965 -0.31508258
0.25085053 0.2162496 0.16551371 -0.34938455 0.25052607 0.3380833 -0.2739675 0.12073225
-0.020039886 -0.15209271 -0.3147788 0.23383161 -0.3428007 -0.30569893 -0.26362687 0.2524744
-0.039504647 -0.16653925 -0.13179353 -0.25932252 0.3272752 -0.048490874 -0.19017473 -0.12235795
0.107564986 -0.13826299 -0.18738219 0.2723989 -0.08070013 0.1476383 -0.30455866 0.18987659
0.24087581 -0.082616225 -0.043124914 0.060017284 0.03911218 -0.34461653 0.28096548 -0.27054164
00000000: 2c4b 86bd c0c6 9ebe 81f2 debd 1b4c 89be
00000010: a7dc 86be 0876 57bd 01ad 17bd 6f8e c8bc
00000020: 88eb 3cbd 83ab 28be 7856 9f3d 670d 423e
00000030: f6dc 3f3e 7bd2 d6bd 1584 383e 8bfd 8cbe
00000040: 43cc 373e 7340 843e 44e9 b1bd 976d 58be
00000050: e7a6 203e aa85 e5bd d09d 8c3e c0e8 17bd
00000060: 5f30 5bbe 206a 0e3e 9e76 89be 6e75 20be
00000070: 7052 f13d d54f 1e3e ea46 813e 2f7b 84be
00000080: 0049 2fbc ba96 27be dccd 633c 1744 0e3e
00000090: 9e78 293e 4444 c73d 5f77 06be 6f7c 68be
000000a0: ec40 133e 7475 5fbe 262d 4a3e c08d 373e
000000b0: 1ed2 703e d199 2a3e d93a e0bd cfc4 a4bc
000000c0: 5eaa 92be 2c7f b43d 171a 713d bbad debc
000000d0: c299 483e 8ddc 1c3e c3f9 8e3e 3efa 21be
000000e0: b8ba e4bd 5c6d b8be 2308 83be 3ced 65be
000000f0: 9870 51be b14f 553e 3837 1b3e 6ace 483e
00000100: be36 40be 3eb9 9c3e 4daa 2bbd aeff 51be
00000110: ae0e 2a3e e52b a83e 176c 45be a313 693d
00000120: 08e0 22be 8af2 093d 8aff 12be 93bb ae3c
00000130: 280e 86be b2d7 10be 168a 29be e218 dfbd
00000140: 2208 22bc 40d1 b8bb 0346 6abe eaf1 913e
00000150: 6fe1 1dbe 0821 65be a2db 003e 4860 513d
00000160: 30fd 5a3d e47d f5bc 24d4 323d b4e8 4a3e
00000170: fc03 253e 7894 473e b66c a2be 671a 8d3e
00000180: 84eb c2bd a335 23be cae0 29be 5244 9cbe
00000190: 7025 643d 6534 b43e 84d8 ffbd 300f 4cbd
000001a0: 7475 0e3e f9a6 9abe 8fe6 b1be 0b0f a7be
000001b0: 4022 a7bb 2021 49bd 37a9 b4be 69b6 9c3e
000001c0: adda 9d3e 5cac bdbd a40a 54be c04f 56bc
000001d0: 601a aabd 7494 9dbe 2881 2e3d 4926 acbe
000001e0: 7ab7 6b3e fcb6 ed3d 14fb 3bbe 482c 653d
000001f0: b880 073d a857 fdbd f1dc 9f3e 0ac0 60be
00000200: 287e 61bd 6eb8 bf3d 4357 9dbc 2dbe 40be
00000210: 2fbd a23e 3010 f2bd 0e77 66be 7a06 773c
00000220: 60fc 35bc 42bf 8c3e 7831 02bd d889 8bbe
00000230: 009e c13b 19d3 15bd 1626 3f3e 2b5b 8d3d
00000240: 7f2b 96be cd7a a93e d734 5b3d d930 9e3e
00000250: 2f26 863e d2a7 6abe 672d bfbc f08c cdbc
00000260: f32f 03be 1b90 983e 1bc0 28be 8194 433d
00000270: 3625 453e 7ec0 2ebe c263 c6bb c03a 0d3c
00000280: ed10 91be 6ed7 653e 98c2 ab3e 8d3b 89be
00000290: 462b 633e b582 843e ee44 0fbd 3bf3 67bb
000002a0: 585b 92be af6e 5bbe c089 da3c 9afa 283e
000002b0: a292 5f3e 6853 033e b4d7 90be 563d 4e3e
000002c0: 8478 2c3e f306 a2be 7761 9f3e d5d6 3dbe
000002d0: 3387 80be 4081 1cbe 7987 1bbe e966 84be
000002e0: f0e3 c13d 54e1 acbe 4845 a33e 1789 b03e
000002f0: dd84 803e 0047 e3bb cfa1 50be 3dc1 a4be
00000300: 18fd 6e3d f0ca 513d 0d07 0a3e 149f 56be
00000310: 9d31 8a3e fadf 8bbe 4b5c 443d 1209 85bd
00000320: eeaa 0e3e d083 853d 01f2 a23e 20b3 a93d
00000330: ce62 223e 5f56 ad3e 3be1 a83d 0193 163e
00000340: c7f7 383e 301d aebc 6045 0c3c 195a 3cbe
00000350: 3732 4bbe c509 b1bd e420 02bd 8152 a1be
00000360: 7b6f 803e 8970 5d3e 6d7c 293e 88e2 b2be
00000370: f444 803e 4119 ad3e 7845 8cbe 7842 f73d
00000380: b02a a4bc 31be 1bbe b02a a1be 8e71 6f3e
00000390: 9383 afbe 9284 9cbe 1afa 86be 5344 813e
000003a0: a0cf 21bd 4489 2abe e2f4 06be ecc5 84be
000003b0: 9d90 a73e 5e9e 46bd 2abd 42be ce96 fabd
000003c0: 084b dc3d d094 0dbe 1ee1 3fbe de77 8b3e
000003d0: 1c46 a5bd 7f2e 173e 1def 9bbe 026f 423e
000003e0: 26a8 763e b232 a9bd c0a3 30bd afd4 753d
000003f0: 1834 203d 9471 b0be b5da 8f3e 6f84 8abe

sequential_11/dense_74/MatMul f4 [1, 16]
-0.43818685 0.20310172 0.12439795 0.4699999 -0.27358538 -0.4162071 -0.4578655 -0.18236773
0.5321137 -0.17821969 0.20201693 0.5446359 -0.06464601 0.36443788 0.20772558 0.37425756
00000000: 075a e0be e6f9 4f3e 5ac4 fe3d d4a3 f03e
00000010: 6213 8cbe 1919 d5be 596d eabe 9bbe 3abe
00000020: 9a38 083f 397f 36be 87dd 4e3e 426d 0b3f
00000030: 2165 84bd 9a97 ba3e 04b6 543e b09e bf3e
