app/src/main/assets/model21.tflite (tflite, 722616 bytes, 15 tensors)

sequential_4/dense_31/BiasAdd/ReadVariableOp f4 [512]
-0.05718966 0.0 0.0 -0.011097336 -0.060024552 -0.16648468 0.0 0.109952234
1.0676826 0.0 0.0 0.0 0.0 -0.11904899 -0.18995301 -0.030796986
-0.10703313 -0.07706046 0.0 -0.0016193788 -0.043967128 0.0 0.0 -0.060021386
-0.0907024 -0.08564811 0.0 -0.032160256 -0.056439236 0.28186032 -0.08500936 0.27663675
-0.055230718 -0.07093124 0.3960495 0.0 -0.07712102 -0.03510606 -0.06700147 0.6495203
-0.05552769 -0.0599 0.0 0.0 0.24597926 -0.08244312 -0.10677709 -0.047313042
-0.051139668 -0.02281063 0.0 0.3236379 0.0 0.0 0.4793769 0.0
0.0 -0.0980977 0.0 -0.08276022 -0.034912113 0.0 0.11448394 -0.052279454
-0.15342198 -0.05108359 -0.1255819 0.38966796 0.100458175 0.0 0.018163646 0.32833564
0.045874465 -0.051983856 -0.113042064 -0.007160025 -0.055045098 0.0 -0.04853947 0.0
-0.09581409 -0.060020085 -0.13280278 -0.08714284 0.0 -0.070033535 -0.021146579 0.0
-0.09544522 -0.06477767 -0.069669254 -0.02453104 -0.09855689 -0.0077575035 -0.07768577 -0.079478204
-0.6250479 0.6475143 0.0 -0.08231197 -0.06060317 -0.04223354 -0.11530085 -0.053372953
-0.023098877 0.0 -0.061752804 -0.035177164 -0.055490483 -0.038957953 0.0 0.2278728
-0.06780114 0.0 0.0 0.8005655 0.36827055 0.0 -0.12599847 -0.087406196
0.29269937 -0.05995075 0.19793272 0.0 -0.044362765 0.0 0.060711987 -0.108054176
-0.050292224 -0.052116204 -0.08623327 0.10581415 -0.02069889 -0.06747668 -0.100587085 -0.026894126
-0.11657908 -0.089638226 -0.0870622 -0.03377495 -0.059080604 0.0 0.40922302 -0.06600164
-0.06261631 -0.058240693 -0.10662654 -0.08873022 -0.035894524 -0.06341478 0.0 0.7636963
-0.05410715 -0.24290662 -0.05985385 -0.05321208 0.86180246 -0.12419679 -0.06595049 -0.0802071
-0.060227484 -0.02718175 0.07970793 -0.102758355 0.04532304 0.31083894 0.0 -0.26043808
-0.05889087 -0.075575486 -0.08522562 0.235056 0.23891905 -0.046738345 -0.014472202 0.0
0.5244575 -0.37071562 0.0 0.0 0.10675066 -0.061699588 -0.056685925 0.37784776
0.14037432 -0.0807611 -0.030858606 -0.09259444 -0.07763697 0.07179368 -0.060050935 0.048520066
0.0 0.0 -0.03756528 -0.038743287 0.1432128 -0.06004315 -0.07298383 -0.05772394
0.4242801 0.108565085 -0.059075907 0.0 0.0 0.429873 -0.0763789 0.0
0.0 -0.040540066 -0.066246055 -0.04344373 -0.017109215 0.0 -0.06297127 0.46764675
-0.07766352 -0.038104042 0.0 -0.065900594 0.08857557 -0.08208565 0.0 0.12412409
-0.027985303 -0.024921136 0.28000203 -0.065901764 0.0 -0.049079336 -0.06400449 -0.096736856
-0.07307755 1.2908987 -0.060027793 -0.018963302 -0.07056875 -0.085576706 -0.028578987 0.11406111
-0.053724 -0.07511897 0.013562511 -0.060046207 0.0 0.0 -0.032534387 -0.093865484
0.0 -0.07130711 -0.071422935 -0.07424519 0.26500404 0.0 0.42414847 -0.08642426
00000000: b43f 6abd 0000 0000 0000 0000 9ad1 35bc
00000010: 4edc 75bd f67a 2abe 0000 0000 a32e e13d
00000020: d3a9 883f 0000 0000 0000 0000 0000 0000
00000030: 0000 0000 f5cf f3bd 0b83 42be f649 fcbc
00000040: 3034 dbbd e0d1 9dbd 0000 0000 5641 d4ba
00000050: e016 34bd 0000 0000 0000 0000 fcd8 75bd
00000060: 2ec2 b9bd 4768 afbd 0000 0000 79ba 03bd
00000070: d42c 67bd ff4f 903e 6319 aebd 55a3 8d3e
00000080: 9b39 62bd 6644 91bd 00c7 ca3e 0000 0000
00000090: a0f1 9dbd 5fcb 0fbd 1138 89bd f646 263f
000000a0: 0171 63bd b459 75bd 0000 0000 0000 0000
000000b0: fde1 7b3e f0d7 a8bd f2ad dabd 52cb 41bd
000000c0: d477 51bd 5cdd babc 0000 0000 deb3 a53e
000000d0: 0000 0000 0000 0000 e470 f53e 0000 0000
000000e0: 0000 0000 72e7 c8bd 0000 0000 317e a9bd
000000f0: 0100 0fbd 0000 0000 8e76 ea3d fb22 56bd
00000100: a71a 1dbe 073d 51bd 8b98 00be 8f82 c73e
00000110: 04bd cd3d 0000 0000 edcb 943c 9c1b a83e
00000120: dde6 3b3d 06ed 54bd 9982 e7bd a59e eabb
00000130: f876 61bd 0000 0000 53d1 46bd 0000 0000
00000140: 2d3a c4bd 9fd7 75bd 74fd 07be f277 b2bd
00000150: 0000 0000 be6d 8fbd 973b adbc 0000 0000
00000160: c978 c3bd 28aa 84bd c1ae 8ebd 52f5 c8bc
00000170: 32d8 c9bd a832 febb b819 9fbd 78c5 a2bd
00000180: 2403 20bf 7fc3 253f 0000 0000 2e93 a8bd
00000190: 083b 78bd 14fd 2cbd da22 ecbd 999d 5abd
000001a0: db39 bdbc 0000 0000 82f0 7cbd ee15 10bd
000001b0: fd49 63bd 6092 1fbd 0000 0000 7d57 693e
000001c0: 53db 8abd 0000 0000 0000 0000 dcf1 4c3f
000001d0: f58d bc3e 0000 0000 be05 01be 0502 b3bd
000001e0: b1dc 953e eb8e 75bd e0ae 4a3e 0000 0000
000001f0: bbb5 35bd 0000 0000 22ad 783d 824b ddbd
00000200: 38ff 4dbd cd77 55bd 129b b0bd 17b5 d83d
00000210: b890 a9bc 3731 8abd 9a00 cebd 1251 dcbc
00000220: 03c1 eebd 3f94 b7bd ab4d b2bd 9a57 0abd
00000230: 81fe 71bd 0000 0000 ae85 d13e de2b 87bd
00000240: fb3c 80bd cb8d 6ebd 045f dabd 31b8 b5bd
00000250: 2306 13bd 9cdf 81bd 0000 0000 9a81 433f
00000260: 759f 5dbd 83bc 78be 5029 75bd e9f4 59bd
00000270: 169f 5c3f e35a febd 0d11 87bd 9f43 a4bd
00000280: 18b1 76bd 43ac debc e93d a33d f972 d2bd
00000290: a7a4 393d 4826 9f3e 0000 0000 2458 85be
000002a0: 8e37 71bd 52c7 9abd c58a aebd 85b2 703e
000002b0: 32a7 743e b570 3fbd d11c 6dbc 0000 0000
000002c0: d942 063f 70ce bdbe 0000 0000 0000 0000
000002d0: 17a0 da3d b5b8 7cbd 802f 68bd 4375 c13e
000002e0: 49be 0f3e 1366 a5bd 30cb fcbc 27a2 bdbd
000002f0: 2200 9fbd 9108 933d f8f7 75bd fabc 463d
00000300: 0000 0000 0000 0000 0dde 19bd 48b1 1ebd
00000310: 60a6 123e ceef 75bd 8c78 95bd f06f 6cbd
00000320: 3e3b d93e 5f57 de3d 94f9 71bd 0000 0000
00000330: 0000 0000 5018 dc3e 8a6c 9cbd 0000 0000
00000340: 0000 0000 570d 26bd 03ac 87bd 0df2 31bd
00000350: a028 8cbc 0000 0000 15f7 80bd 656f ef3e
00000360: 0d0e 9fbd fc12 1cbd 0000 0000 e4f6 86bd
00000370: 1c67 b53d 851c a8bd 0000 0000 c534 fe3d
00000380: 6f41 e5bc 6927 ccbc 6d5c 8f3e 81f7 86bd
00000390: 0000 0000 6a07 49bd c914 83bd f91d c6bd
000003a0: afa9 95bd 2b3c a53f b4df 75bd ed58 9bbc
000003b0: 5986 90bd d742 afbd 7b1e eabc df98 e93d
000003c0: b20d 5cbd f9d7 99bd 4b35 5e3c 03f3 75bd
000003d0: 0000 0000 0000 0000 c742 05bd 8c3c c0bd
000003e0: 0000 0000 7609 92bd 3046 92bd dd0d 98bd
000003f0: 9cae 873e 0000 0000 fd29 d93e 34ff b0bd

sequential_4/dense_32/BiasAdd/ReadVariableOp f4 [256]
0.50195134 0.15543598 -0.07973838 0.61458796 -0.060044613 -0.25498557 -0.1052678 -0.5675407
0.46606702 -0.066093646 -0.07880082 0.5047075 -0.060615852 -0.27185854 -0.56552637 -0.0601135
0.22872965 -0.0766579 -0.07402441 -0.3438342 -0.08097252 0.49480274 0.61916924 -0.060053762
0.52677125 -0.13145456 -0.06879525 -0.05491879 -0.20190097 -0.33848146 -0.36133674 -0.13537082
0.50636184 0.73584163 -0.12676793 0.4727482 -0.26011038 0.3354082 -0.044859536 0.5750106
0.97803 -0.094632365 -0.56187916 -0.028089164 0.68312615 -0.36084622 -0.13921155 -0.050255403
-0.02538849 -0.17186993 0.34052876 -0.0600545 -0.027217576 -0.06610219 -0.07258318 -0.06406536
-0.4816001 -0.2098474 -0.39088228 -0.06310673 -0.06005456 -0.060382165 -0.2311228 0.638193
-0.043449238 -0.060054094 -0.054008972 -0.35345444 0.61502653 0.39975306 -0.15476838 -0.25106072
-0.061564617 -0.08772473 -0.03655101 -0.043731425 -0.097526886 -0.2519246 -0.0092180045 -0.33014867
-0.08491602 -0.07298258 -0.08022476 -0.060054444 -0.18113932 -0.03692881 -0.061274122 -0.09620674
-0.16226216 -0.15544936 -0.2361929 -0.20921983 -0.20459673 1.3500077 -0.021713348 -0.060597006
-0.10799963 -0.28600648 -0.061677 -0.08810685 -0.057709593 -0.06055536 -0.016146442 -0.17833984
0.4769991 -0.08421137 -0.06547661 -0.06609982 0.66885966 -0.2602926 -0.32923946 -0.0766386
-0.00436553 -0.13373458 -0.19267814 -0.06112083 -0.28177983 -0.40759394 -0.06874285 -0.06130859
-0.28512338 -0.060443018 -0.0714396 -0.23442161 -0.1864393 -0.049808107 -0.106670156 -0.2647034
-0.362276 0.55661166 0.8102587 0.5187587 -0.06252015 0.27047172 0.6482504 -0.04003909
-0.5614569 -0.07581303 -0.06572356 -0.060280558 -0.96035784 -0.0662357 -0.2761541 -0.20270802
-0.38499853 -0.055697665 -0.015268383 -0.07985591 -0.2636136 -0.22866496 -0.098286904 -0.043623
-0.048329875 -0.07707824 -0.2149675 -0.35570452 -0.039897546 -0.06500017 -0.061262507 -0.055572905
-0.15722936 0.7391878 0.8005664 -0.05621558 -0.050918665 -0.060844697 -0.10714852 -0.54779196
-0.060670674 -0.08670555 -0.46251324 0.4214417 -0.35360855 -0.069670685 0.7625643 -0.061813217
-0.43057224 -0.06012663 -0.055949345 -0.22891992 0.48839173 0.56622136 0.55415124 -0.094460316
-0.06292085 -0.060914364 0.36436713 0.5885233 -0.43661243 -0.05996961 -0.176305 0.67208815
-0.29677203 -0.068027794 -0.20556304 -0.08064993 -0.07088213 -0.2229284 -0.27874872 -0.0040512774
-0.07499913 -0.09120516 -0.34715548 -0.047556423 -0.29927096 -0.0179961 -0.06687157 -0.06250143
-0.35060698 -0.2513319 -0.03615689 -0.062415816 -0.08923556 0.63741696 0.7687223 -0.120751336
-0.07667599 -0.047281284 -0.06224136 0.5251159 -0.17835847 -0.10619527 -0.50194174 -0.023832453
-0.065098524 -0.088365085 0.6827955 -0.15546663 -0.11029516 -0.015031666 -0.049511917 0.6519183
-0.0846247 -0.27193263 0.6076754 -0.060945522 -0.0137842605 -0.05702397 -0.10275103 -0.066047646
-0.08878491 -0.2228537 -0.3519912 0.7391743 -0.34085524 0.91985977 -0.10408584 -0.045271058
-0.050315026 -0.060054105 0.7958725 -0.05166644 -0.12926485 -0.6227516 0.5382547 -0.06005462
00000000: e27f 003f 9c2a 1f3e e04d a3bd a355 1d3f
00000010: 57f1 75bd 788d 82be a596 d7bd 594a 11bf
00000020: 56a0 ee3e 1b5c 87bd 5362 a1bd 8334 013f
00000030: 5448 78bd 0b31 8bbe 56c6 10bf 9339 76bd
00000040: 1b38 6a3e d1fe 9cbd 1c9a 97bd 090b b0be
00000050: ecd4 a5bd c956 fd3e e081 1e3f effa 75bd
00000060: 7bda 063f 069c 06be 86e4 8cbd 86f2 60bd
00000070: 21bf 4ebe 714d adbe 2101 b9be a69e 0abe
00000080: eea0 013f 1e60 3c3f 74cf 01be 0d0c f23e
00000090: 302d 85be a0ba ab3e a2be 37bd e533 133f
000000a0: 2d60 7a3f 9dce c1bd 50d7 0fbf 3f1b e6bc
000000b0: 5be1 2e3f d6c0 b8be 798d 0ebe 9cd8 4dbd
000000c0: 86fb cfbc acfe 2fbe c959 ae3e b5fb 75bd
000000d0: 65f7 debc 9660 87bd 7ea6 94bd b334 83bd
000000e0: 4a94 f6be 3de2 56be b921 c8be 1a3e 81bd
000000f0: c5fb 75bd 4a53 77bd 75ab 6cbe 9e60 233f
00000100: d4f7 31bd 48fb 75bd 8338 5dbd fbf7 b4be
00000110: 6172 1d3f 6fac cc3e 9a7b 1ebe 088b 80be
00000120: 2e2b 7cbd 06a9 b3bd 83b6 15bd b91f 33bd
00000130: 2dbc c7bd 43fc 80be 1d07 17bc 3f09 a9be
00000140: 73e8 adbd e477 95bd e14c a4bd a6fb 75bd
00000150: 967c 39be aa42 17bd 93fa 7abd 0a08 c5bd
00000160: 0d28 26be 1e2e 1fbe 8ddc 71be b93d 56be
00000170: ce81 51be 0dcd ac3f 31e0 b1bc 9134 78bd
00000180: e92e ddbd 716f 92be 06a1 7cbd 5d71 b4bd
00000190: e560 6cbd e608 78bd 8b45 84bc b89e 36be
000001a0: 3a39 f43e 0377 acbd 9a18 86bd 585f 87bd
000001b0: 633a 2b3f 1245 85be 1392 a8be b3f4 9cbd
000001c0: b80c 8fbb b8f1 08be 6b4d 45be d659 7abd
000001d0: 7245 90be 27b0 d0be 0dc9 8cbd b71e 7bbd
000001e0: b1fb 91be 1993 77bd ed4e 92bd 380c 70be
000001f0: f2e9 3ebe 9603 4cbd e275 dabd 3487 87be
00000200: 3d7c b9be 1a7e 0e3f 1d6d 4f3f 5fcd 043f
00000210: 900a 80bd 457b 8a3e bdf3 253f 0700 24bd
00000220: a4bb 0fbf dd43 9bbd 139a 86bd bfe8 76bd
00000230: 03da 75bf 95a6 87bd 1264 8dbe b192 4fbe
00000240: 871e c5be 3c23 64bd 3d28 7abc 7f8b a3bd
00000250: 5df8 86be 2627 6abe a54a c9bd 08ae 32bd
00000260: 8cf5 45bd 32db 9dbd 7120 5cbe e71e b6be
00000270: 9c6b 23bd cf1e 85bd 65ee 7abd 6aa0 63bd
00000280: bc00 21be 693b 3d3f ebf1 4c3f 4f42 66bd
00000290: 1790 50bd 4a38 79bd af70 dbbd 183c 0cbf
000002a0: d081 78bd ae92 b1bd 89ce ecbe 35c7 d73e
000002b0: 2e0c b5be 81af 8ebd 6a37 433f db2f 7dbd
000002c0: f773 dcbe 5747 76bd 242b 65bd fc69 6abe
000002d0: 7b0e fa3e e2f3 103f dbdc 0d3f 6974 c1bd
000002e0: a6dc 80bd 5781 79bd 548e ba3e 77a9 163f
000002f0: aa8b dfbe b2a2 75bd 4c89 34be f80d 2c3f
00000300: 81f2 97be 2852 8bbd 1e7f 52be ca2b a5bd
00000310: a62a 91bd 5847 64be 27b8 8ebe 94c0 84bb
00000320: 2599 99bd c5c9 babd 5dbe b1be 86ca 42bd
00000330: 0b3a 99be 8f6c 93bc f6f3 88bd c000 80bd
00000340: c282 b3be 93ae 80be 3f19 14bd baa7 7fbd
00000350: 22c1 b6bd c22d 233f fcca 443f 7a4c f7bd
00000360: 4d08 9dbd 05aa 41bd ccf0 7ebd ff6d 063f
00000370: 9aa3 36be e87c d9bd 417f 00bf 473c c3bc
00000380: 6052 85bd c1f8 b4bd b0cb 2e3f a532 1fbe
00000390: 6ee2 e1bd 6047 76bc 02cd 4abd 1ee4 263f
000003a0: b74f adbd c13a 8bbe 9d90 1b3f 03a2 79bd
000003b0: 61d7 61bc f791 69bd 226f d2bd fd43 87bd
000003c0: ddd4 b5bd c333 64be 3138 b4be 873a 3d3f
000003d0: 9484 aebe ee7b 6b3f f52a d5bd 256e 39bd
000003e0: 2117 4ebd 4bfb 75bd 4dbe 4b3f 30a0 53bd
000003f0: 015e 04be a66c 1fbf 0fcb 093f d5fb 75bd

sequential_4/dense_33/BiasAdd/ReadVariableOp f4 [128]
-0.40679756 -0.1844962 -0.060284376 -0.04847543 -0.041607212 0.6056496 -0.08173887 -0.07132882
-0.11876181 0.715796 -0.060054448 -0.06269714 -0.066409975 -0.060039874 -0.053651307 -0.060864795
-0.07093228 -0.04517036 -0.26957533 -0.44908738 0.28569186 -0.06005454 -0.060054667 -0.08588719
-0.12127272 -0.060054112 0.8539338 -0.20076045 -0.042518053 -0.011080554 -0.01949147 -0.056171972
-0.051787578 -0.029189955 0.13985182 -0.05673064 -0.060054656 -0.049821846 0.68611854 -0.060587615
0.9474401 -0.08376147 -0.13318996 0.47777364 -0.05991495 -0.06414302 -0.11308306 -0.33014503
-0.19845073 -0.04245609 -0.0071488987 -0.45501024 -0.031718634 -0.5228912 -0.008226351 -0.26908514
-0.060044795 -0.06547877 -0.06028131 0.3757598 -0.07660424 -0.09934915 -0.06655361 0.020926183
-0.23915195 -0.06473269 0.21781547 -0.07000579 -0.06005464 -0.27554128 -0.062415436 -0.26253855
-0.38050672 -0.06005379 -0.29060566 -0.062377594 0.5100765 -0.0891343 -0.2858193 -0.051268343
0.028105555 0.9540691 0.022436488 0.542579 -0.0374941 -0.06936833 -0.060054004 -0.12809733
-0.353313 -0.48502472 -0.28426355 -0.22694601 0.54813653 -0.06975097 0.5540561 -0.038745604
-0.06624828 0.01164392 -0.031617228 0.41411218 -0.062750444 0.06313362 -0.018311381 -0.07753995
-0.018271433 -0.09146716 -0.060054768 0.57385606 -0.06344286 -0.14315 0.51136905 -0.06005449
0.7542123 -0.06583809 -0.060052015 -0.42279443 0.11816477 -0.1393206 0.6961475 0.42555046
-0.088495396 -0.06199377 -0.235704 -0.17120947 -0.062393203 -0.11079371 -0.053958368 -0.18964668
00000000: c547 d0be 92ec 3cbe c0ec 76bd 2c8e 46bd
00000010: 536c 2abd da0b 1b3f b566 a7bd d814 92bd
00000020: 6439 f3bd 683e 373f a7fb 75bd 5c67 80bd
00000030: f401 88bd 5fec 75bd 79c1 5bbd 5d4d 79bd
00000040: f144 91bd 8e04 39bd c705 8abe c8ee e5be
00000050: 3446 923e c0fb 75bd e2fb 75bd a0e5 afbd
00000060: d55d f8bd 4dfb 75bd 689b 5a3f 2694 4dbe
00000070: 6927 2ebd 368b 35bc 93ac 9fbc 9514 66bd
00000080: 361f 54bd c61f efbc 5135 0f3e 635e 68bd
00000090: dffb 75bd fe11 4cbd 77a5 2f3f b82a 78bd
000000a0: 6f8b 723f 228b abbd f362 08be bf9e f43e
000000b0: 6169 75bd 6a5d 83bd 1798 e7bd c508 a9be
000000c0: ab36 4bbe 70e6 2dbd 4f41 eabb 1af7 e8be
000000d0: 66eb 01bd 33dc 05bf d1c7 06bc 87c5 89be
000000e0: 88f1 75bd bc19 86bd 89e9 76bd 9763 c03e
000000f0: afe2 9cbd 9177 cbbd 424d 88bd 636d ab3c
00000100: 40e4 74be 9392 84bd 050b 5f3e 325f 8fbd
00000110: dbfb 75bd bf13 8dbe 54a7 7fbd 746b 86be
00000120: c7d1 c2be f7fa 75bd 44ca 94be a67f 7fbd
00000130: 6094 023f 0b8c b6bd e856 92be c1fe 51bd
00000140: 9f3d e63c df3d 743f bacc b73c 75e6 0a3f
00000150: 6a93 19bd fc10 8ebd 30fb 75bd f22b 03be
00000160: 71e5 b4be 2955 f8be fe8a 91be 8964 68be
00000170: ad52 0c3f 99d9 8ebd 9fd6 0d3f b6b3 1ebd
00000180: 2ead 87bd 24c6 3e3c 1181 01bd 8306 d43e
00000190: 4e83 80bd 334c 813d c001 96bc 44cd 9ebd
000001a0: f9ad 95bc 2253 bbbd fdfb 75bd 3be8 123f
000001b0: 55ee 81bd ea95 12be 15e9 023f b2fb 75bd
000001c0: 0f14 413f 1fd6 86bd 1af9 75bd 8378 d8be
000001d0: 5f00 f23d 0faa 0ebe b936 323f c0e1 d93e
000001e0: 133d b5bd 2eed 7dbd 645c 71be 8951 2fbe
000001f0: 0490 7fbd d0e7 e2bd 7303 5dbd bd32 42be

sequential_4/dense_34/BiasAdd/ReadVariableOp f4 [64]
0.04325882 -0.08905029 0.021206241 0.45381352 -0.047736965 -0.1047436 -0.3046324 -0.060263332
-0.15068619 -0.06005487 -0.04372925 -0.10827998 -0.065202564 -0.09246115 -0.014918257 -0.11341674
0.62681174 -0.063125476 -0.058836065 0.0 -0.060041595 0.8296337 -0.05558841 -0.3082271
-0.060323417 0.052822184 -0.060469616 0.56973475 1.0860668 0.3590217 -0.014466966 -0.060132444
-0.06006708 0.44309032 1.1943985 0.03635852 -0.11199812 -0.038218133 -0.060739238 0.008635176
-0.06005485 0.42492682 -0.060495447 1.1601328 -0.060053628 -0.060054697 -0.19109246 -0.055588696
-0.06512954 0.09446816 -0.26223078 0.17205314 0.056877106 -0.037168123 1.207772 -0.036860682
-0.06005479 0.0 -0.0015587629 -0.01989769 0.8527678 0.01862536 -0.3024336 -0.12492302
00000000: 2930 313d 0060 b6bd b6b8 ad3c 3f5a e83e
00000010: d687 43bd d083 d6bd c7f8 9bbe afd6 76bd
00000020: 7b4d 1abe 18fc 75bd 711d 33bd e5c1 ddbd
00000030: ec88 85bd 455c bdbd b46b 74bc 0947 e8bd
00000040: bc76 203f ee47 81bd 16fe 70bd 0000 0000
00000050: 2dee 75bd e062 543f acb0 63bd f1cf 9dbe
00000060: b015 77bd 135c 583d fdae 77bd 23da 113f
00000070: 3d04 8b3f b1d1 b73e da06 6dbc 704d 76bd
00000080: e608 76bd bcdc e23e 0de2 983f acec 143d
00000090: 455f e5bd 9e8a 1cbd b5c9 78bd 8e7a 0d3c
000000a0: 13fc 75bd 0290 d93e 13ca 77bd 3b7f 943f
000000b0: cbfa 75bd eafb 75bd bead 43be f9b0 63bd
000000c0: a362 85bd 8678 c13d 1d43 86be b32e 303e
000000d0: f8f7 683d 9a3d 18bd 4698 9a3f 3afb 16bd
000000e0: 03fc 75bd 0000 0000 674f ccba 7b00 a3bc
000000f0: fe4e 5a3f 3694 983c 94d8 9abe a4d7 ffbd

sequential_4/dense_35/BiasAdd/ReadVariableOp f4 [32]
-0.052287508 -0.06363298 -0.058432993 -0.055588808 0.7563979 0.97655094 -0.2420929 0.038478814
0.058663785 1.144442 -0.30826527 -0.07939557 -0.06726994 -0.06014406 -0.31205696 -0.060054936
-0.060054883 -0.34005854 -0.086657666 -0.030450057 0.71180695 -0.06005486 -0.07045923 -0.074062824
-0.06136319 0.10917723 0.52259284 -0.40973625 -0.11275081 -0.05558824 1.2499477 -0.053745594
00000000: 6d2b 56bd 0252 82bd 6f57 6fbd 17b1 63bd
00000010: 4ba3 413f 3eff 793f 34e7 77be f69b 1d3d
00000020: 7049 703d 137d 923f f2d4 9dbe 259a a2bd
00000030: d3c4 89bd 9e59 76bd eec5 9fbe 2afc 75bd
00000040: 1cfc 75bd 271c aebe 9379 b1bd 6672 f9bc
00000050: fb38 363f 16fc 75bd ee4c 90bd 40ae 97bd
00000060: f857 7bbd 5098 df3d a5c8 053f f3c8 d1be
00000070: e6e9 e6bd 7fb0 63bd 49fe 9f3f 5724 5cbd

sequential_4/dense_36/BiasAdd/ReadVariableOp f4 [16]
1.3618147 -0.07278607 -0.06005483 0.05981387 -0.41670188 1.2566953 -0.9493024 -0.11259733
-0.039502285 -0.059684746 -0.08472797 0.06012733 1.2397555 -0.055588756 -0.06115415 -0.08116495
00000000: f24f ae3f dd10 95bd 0efc 75bd 63ff 743d
00000010: f359 d5be 64db a03f 7b05 73bf 6e99 e6bd
00000020: 26cd 21bd fe77 74bd dc85 adbd 1348 763d
00000030: 4fb0 9e3f 09b1 63bd c67c 7abd cf39 a6bd

sequential_4/dense_37/BiasAdd/ReadVariableOp f4 [8]
0.08052033 -0.08433788 0.0 0.0 -0.060054794 -0.21450698 1.5080403 -0.16210455
00000000: d8e7 a43d 57b9 acbd 0000 0000 0000 0000
00000010: 04fc 75bd b8a7 5bbe 7707 c13f bcfe 25be

sequential_4/dense_31/MatMul f4 [512, 8]
-0.084617145 -0.092607714 -0.019345023 0.006647384 -0.08614665 -0.013283236 -0.14325619 -0.0943711
-0.10641264 -0.001958415 -0.06672001 -0.044661917 0.062633075 -0.02599337 0.044232763 0.031051807
-0.037928544 -0.020706259 -0.103382565 -0.060253166 -0.0997332 0.08146375 0.03870585 0.03964933
-0.17030089 0.0543775 -0.04922059 -0.08688742 -0.2507272 -0.8807926 0.20225914 -0.04698688
-0.030158604 -0.07761464 -0.030171752 -0.09653726 -0.09807963 0.022841748 0.07001629 0.010303123
0.06746517 -0.16410331 0.034560427 -0.20645177 -0.18793035 -0.21454807 -0.1058943 -0.20709674
-0.059260257 -0.05657077 0.10333104 -0.10690887 -0.08133677 -0.09224046 -0.018391907 -0.034351736
-0.042932566 -0.05897634 0.033523396 -0.041716874 0.16937988 0.16625196 0.16974843 -1.136534
-0.02445677 -0.22513132 -0.21703422 0.49218488 0.08511518 1.0686768 2.430354 -1.5301943
0.024240889 -0.067174956 -0.0045792162 -0.016193956 0.044587605 0.008051686 0.056020148 -0.06951325
-0.105276756 -0.0278318 0.08507017 -0.061345596 -0.035274833 -0.033039905 -0.05590695 0.010326907
0.012308188 -0.10066237 -0.040431283 0.042724945 -0.05369909 -0.10310938 -0.040565453 -0.07981211
-0.0010103285 -0.06633514 -0.013969965 -0.0008607358 -0.05374875 0.085899316 -0.04357694 -0.053147368
0.04807986 -0.09279154 -0.20766856 -0.10599614 -0.10894099 -0.08473733 -0.016339405 -0.18671854
-0.7185784 0.3307986 -0.4592719 -0.11161112 -1.2897465 -2.614901 3.7425733 -0.65314025
-0.13158374 -0.07301487 -0.022065293 0.039546497 -0.087458774 -0.12726162 0.04336286 -0.011701501
-0.08340239 -0.04230824 -0.0058664856 -0.07666166 -0.15884669 -0.1567365 -0.07252136 -0.1273555
0.0029059635 -0.1568955 0.027894849 -0.15597425 0.09733737 0.03369445 0.024791323 -0.112084284
-0.06688902 0.033559643 -0.10678146 -0.048727933 -0.020631015 0.043308906 -0.08721578 0.059179075
-0.38367134 0.026467914 -0.3655138 -0.04435103 -0.016899694 -2.696235 2.9092793 -0.38574997
-0.0857943 0.00373021 -0.14546834 -0.0986159 -0.11804871 0.04212561 0.12978345 -0.009912846
-0.10407601 -0.048667543 0.0071896464 -0.024611771 0.10146495 0.061768673 -0.025230564 -0.051411275
-0.027928375 -0.039423443 -0.070567474 0.013456069 -0.015950665 -0.08775726 0.00902091 -0.028377809
-0.013476052 -0.09025255 -0.10169264 -0.077284895 -0.045529187 0.0100526195 -0.059966203 -0.10235345
0.009066052 -0.16162331 -0.033330966 -0.12865588 -0.14195943 0.16000654 0.071243115 -0.020486841
-0.07644935 -0.020152057 -0.0963015 -0.17831881 -0.17102331 -0.0050165164 -0.17299026 -0.110702954
-0.09713438 0.025937818 0.018123053 -0.06841846 0.033097453 -0.064406335 -0.09425914 -0.08255978
-0.054000244 0.033082496 -0.06693509 -0.102299616 0.0077382606 -0.09701376 -0.1069452 -0.0076483986
0.009220862 -0.033822946 -0.04106116 -0.14507577 -0.15054584 0.080044754 -0.09011172 0.06292008
-0.15674165 -0.14240874 0.08042456 -0.019270187 1.576276 0.82245994 0.40630484 -0.75555396
-0.1366931 0.007770869 -0.009837488 -0.060281027 -0.1597219 0.028571501 -0.051795866 0.0141208405
-0.06643199 -0.034970246 -0.20704374 0.0648278 0.17528613 -0.9745883 0.58401614 -0.40246958
00000000: c14b adbd 1da9 bdbd 7479 9ebc 4cd2 d93b
00000010: a86d b0bd eea1 59bc c0b1 12be a345 c1bd
00000020: dfee d9bd c058 00bb 80a4 88bd 6aef 36bd
00000030: c545 803d 0cf0 d4bc 6a2d 353d 5c60 fe3c
00000040: f65a 1bbd 2ca0 a9bc 3dba d3bd 06cc 76bd
00000050: ec40 ccbd 77d6 a63d 068a 1e3d 5667 223d
00000060: 5b63 2ebe f1ba 5e3d 889b 49bd 08f2 b1bd
00000070: 515f 80be a07b 61bf 051d 4f3e 5175 40bd
00000080: 2d0f f7bc 6df4 9ebd c02a f7bc 54b5 c5bd
00000090: f9dd c8bd 9e1e bb3c b364 8f3d 6ece 283c
000000a0: 2e2b 8a3d b30a 28be 3c8f 0d3d 1868 53be
000000b0: d070 40be 7db2 5bbe 1cdf d8bd 2b11 54be
000000c0: e2ba 72bd c0b6 67bd 399f d33d 0af3 dabd
000000d0: e493 a6bd 91e8 bcbd a0aa 96bc 68b4 0cbd
000000e0: 0fda 2fbd 2d91 71bd d44f 093d 50df 2abd
000000f0: eb71 2d3e f43d 2a3e 88d2 2d3e f279 91bf
00000100: 9059 c8bc d388 66be 383e 5ebe a8ff fb3e
00000110: de50 ae3d 67ca 883f ec8a 1b40 68dd c3bf
00000120: d494 c63c 0693 89bd 400d 96bb 30a9 84bc
00000130: 7ea1 363d 38eb 033c 6275 653d f65c 8ebd
00000140: 579b d7bd 84ff e3bc 4539 ae3d 8545 7bbd
00000150: 587c 10bd da54 07bd b0fe 64bd 3032 293c
00000160: 48a8 493c 1328 cebd 469b 25bd 5a00 2f3d
00000170: 94f3 5bbd 032b d3bd f627 26bd 8874 a3bd
00000180: 006d 84ba b8da 87bd 48e2 64bc 00a3 61ba
00000190: a627 5cbd fbeb af3d bc7d 32bd 0eb1 59bd
000001a0: 63ef 443d 7e09 bebd 11a7 54be 8114 d9bd
000001b0: 741c dfbd c48a adbd 37da 85bc 2533 3fbe
000001c0: c1f4 37bf 6f5e a93e b025 ebbe 5f94 e4bd
000001d0: 6a16 a5bf 8a5a 27c0 5286 6f40 3334 27bf
000001e0: e3bd 06be d288 95bd 46c2 b4bc 82fb 213d
000001f0: 961d b3bd df50 02be 419d 313d a7b7 3fbc
00000200: dfce aabd 684b 2dbd a63b c0bb ca00 9dbd
00000210: b5a8 22be 887f 20be 1486 94bd 7b69 02be
00000220: fa71 3e3b 37a9 20be bd83 e43c b7b7 1fbe
00000230: d158 c73d 3103 0a3d 2c17 cb3c 728c e5bd
00000240: 1cfd 88bd d675 093d 3db0 dabd f196 47bd
00000250: 6002 a9bc ae64 313d 309e b2bd c265 723d
00000260: 9270 c4be 3dd3 d83c a024 bbbe 6da9 35bd
00000270: 3a71 8abc 1d8f 2cc0 a231 3a40 0581 c5be
00000280: ecb4 afbd 8a76 743b a7f5 14be 22f7 c9bd
00000290: 86c3 f1bd e78b 2c3d f4e5 043e 7d69 22bc
000002a0: ce25 d5bd 9e57 47bd 2097 eb3b a09e c9bc
000002b0: dbcc cf3d 2601 7d3d 54b0 cebc a194 52bd
000002c0: 0cca e4bc 7a7a 21bd ae85 90bd d876 5c3c
000002d0: f8aa 82bc 14ba b3bd 70cc 133c 9478 e8bc
000002e0: a9ca 5cbc 54d6 b8bd 3b44 d0bd 8b47 9ebd
000002f0: d07c 3abd beb3 243c 1f9f 75bd b09e d1bd
00000300: c789 143c 9580 25be 0d86 08bd 5ebe 03be
00000310: d05d 11be c1d8 233e e9e7 913d 05d4 a7bc
00000320: 7a91 9cbd ed15 a5bc b939 c5bd 3599 36be
00000330: bc20 2fbe 9761 a4bb 5c24 31be 3bb8 e2bd
00000340: 64ee c6bd 8c7b d43c cc76 943c fa1e 8cbd
00000350: 3291 073d 78e7 83bd f00a c1bd 1a15 a9bd
00000360: 5c2f 5dbd 8381 073d 4415 89bd 7682 d1bd
00000370: 3c91 fd3b 26af c6bd 1606 dbbd 6b9f fabb
00000380: 1913 173c ee89 0abd bf2f 28bd be8e 14be
00000390: b028 1abe 81ee a33d 7e8c b8bd 3edc 803d
000003a0: e280 20be 99d3 11be a2b5 a43d 83dc 9dbc
000003b0: 69c3 c93f bc8c 523f 3007 d03e fc6b 41bf
000003c0: 47f9 0bbe c6a2 fe3b 6a2d 21bc 3de9 76bd
000003d0: 238e 23be c80e ea3c e727 54bd 195b 673c
000003e0: 7f0d 88bd f63c 0fbd 4603 54be 70c4 843d
000003f0: 357e 333e 9e7e 79bf 1582 153f 7e10 cebe

sequential_4/dense_32/MatMul f4 [256, 512]
0.061949104 0.02953919 0.06959715 -0.023949957 0.01768048 -0.105111904 0.0089899 -0.04743729
0.06914618 -0.03349621 0.044847973 0.03211137 -0.06950711 -0.16829306 0.06554856 -0.041973278
0.048889652 0.13283144 -0.03928889 -0.0408366 -0.009000313 -0.037879944 0.047238715 -0.018955147
0.0026058613 0.0944263 0.07555849 0.07637833 0.013250198 -0.0044753933 -0.0007931066 0.037823763
-0.112591065 -0.018623602 0.18298215 0.0508798 -0.032792296 -0.045369327 0.11300073 0.07290736
-0.142094 0.03982485 -0.07424918 0.048437037 -0.11282493 0.08043189 0.091530055 0.05359322
0.017592084 -0.04059039 0.07592655 0.012287983 0.067091756 -0.07713598 -0.023804137 0.057147585
-0.0054506436 0.1005809 -0.04303269 -0.051411256 -0.11453823 -0.08719987 0.06552336 -0.001370685
-0.008677341 -0.01712403 -0.0074269 -0.01023358 -0.051030956 0.004184954 0.10154281 0.0700841
-0.01858346 0.14643724 0.071712606 0.0035537048 0.017298602 -0.06631455 0.07013188 0.055003487
-0.027341716 0.0010420978 -0.05506305 0.0047286437 0.08695913 -0.052861787 -0.0056350776 0.060062043
0.13165891 -0.006503242 0.11986358 -0.040883653 -0.03048697 0.012773803 -0.009083238 -0.04654331
-0.36177698 -0.06818516 -0.02317883 -0.028794693 -0.04030788 0.062034078 0.0075646876 0.027571602
-0.027033594 -0.050727334 0.10596451 -0.07840794 0.0548614 0.08394317 0.07507273 0.06202525
0.038885437 -0.036050178 -0.08102963 0.11109644 1.6046405 -0.064559996 0.014512263 0.07716266
-0.04515444 0.06972446 -0.065574475 -0.08032431 -0.0060550906 -0.08525957 0.004881337 -0.021762963
0.032506492 0.011778113 0.11808626 -0.19259821 0.06441159 0.10838752 0.03967755 -0.046378545
0.016684113 0.051824227 0.045487095 -0.13516773 -0.059797395 0.05926522 -0.24642259 -0.084917836
0.07829765 -0.062443428 -0.0050561605 -0.018550163 -0.22531687 0.064120345 0.05298657 0.11556748
0.038121976 0.05922045 0.13482976 0.05680788 0.16802593 0.089873895 0.10212095 -0.012770279
0.093465686 0.039487276 -0.085893236 -0.0029082573 0.069297016 -0.020751474 -0.05396394 -0.14015675
-0.003739713 -0.008248841 0.05211745 0.03223459 0.07130757 -0.07772838 -0.025539694 0.06173227
0.31689864 -0.13182598 0.016391605 -0.04572737 -0.07778894 0.0730021 0.094353706 0.10051036
0.13018037 7.651728e-05 0.012589531 -0.016809896 0.07570958 -0.06218264 0.039174445 -0.061409187
0.0025706813 -0.033419795 -0.010372885 0.016917624 0.04261799 0.022601565 -0.02102765 -0.037448443
0.06573985 -0.029695421 0.043120485 -0.045330305 0.049123056 -0.05361021 0.01997772 0.032230176
-0.06411667 -0.13729157 0.010773124 0.023340032 0.08467279 -0.020386048 0.010771839 0.031914216
-0.049245026 -0.06494195 0.057531394 0.05515995 0.022390893 -0.033838246 -0.08421478 0.030218553
-0.06103306 -0.07551232 0.04770441 0.0061964234 -0.062342457 -0.09239291 -0.059351426 0.0025437134
0.05623935 0.53377014 0.014407299 -0.06135749 -0.0012089702 -0.051229693 0.029275334 0.04230409
-0.05770259 0.002373145 -0.04819682 0.08128225 0.04694792 -0.045027565 0.07373393 0.052236654
-0.067880616 -0.05167347 0.062925905 -0.0734106 -0.022116411 -0.06864065 -0.4260678 0.0077357856
00000000: 58be 7d3d 2cfc f13c f388 8e3d b332 c4bc
00000010: a7d6 903c e944 d7bd 604a 133c 9b4d 42bd
00000020: 839c 8d3d 5233 09bd 82b2 373d 3687 033d
00000030: be59 8ebd 0455 2cbe 533e 863d 2cec 2bbd
00000040: 8440 483d f704 083e 63ed 20bd 4744 27bd
00000050: 0c76 13bc 0028 1bbd 627d 413d d347 9bbc
00000060: 19c7 2a3b 9362 c13d 69be 9a3d 3e6c 9c3d
00000070: 5c17 593c 52a6 92bb 7ce8 4fba 17ed 1a3d
00000080: 2596 e6bd 8690 98bc ac5f 3b3e 5667 503d
00000090: 3751 06bd 30d5 39bd ed6c e73d 7450 953d
000000a0: 1781 11be 621f 233d f40f 98bd ea65 463d
000000b0: c210 e7bd 7ab9 a43d 1c74 bb3d 9084 5b3d
000000c0: 461d 903c 1c42 26bd 617f 9b3d 8953 493c
000000d0: 6767 893d 78f9 9dbd e500 c3bc 9613 6a3d
000000e0: 509b b2bb 5cfd cd3d 0c43 30bd 9c94 52bd
000000f0: 0593 eabd d895 b2bd 1d31 863d 8ea8 b3ba
00000100: 682b 0ebc b247 8cbc 5a5d f3bb bfaa 27bc
00000110: d605 51bd f021 893b adf5 cf3d 4188 8f3d
00000120: 573c 98bc a5f3 153e 0fde 923d 46e5 683b
00000130: ccb5 8d3c eccf 87bd 4ea1 8f3d 564b 613d
00000140: bcfb dfbc 0097 883a cb89 61bd bdf2 9a3b
00000150: a117 b23d 9a85 58bd 75a6 b8bb 9e03 763d
00000160: 98d1 063e 2619 d5bb 097b f53d 9e75 27bd
00000170: cfbf f9bc 3749 513c ddd1 14bc 33a4 3ebd
00000180: d53a b9be a9a4 8bbd 88e1 bdbc d9e2 ebbc
00000190: e019 25bd 7217 7e3d 33e1 f73b d7dd e13c
000001a0: 8e75 ddbc 77c7 4fbd ec03 d93d 5894 a0bd
000001b0: 59b6 603d 66ea ab3d bbbf 993d 300e 7e3d
000001c0: 5646 1f3d 5aa9 13bd ddf2 a5bd 8886 e33d
000001d0: dc64 cd3f 0838 84bd d8c4 6d3c 7507 9e3d
000001e0: ddf3 38bd b3cb 8e3d e94b 86bd 1281 a4bd
000001f0: c869 c6bb 929c aebd 9ff3 9f3b 3e48 b2bc
00000200: 8725 053d fdf8 403c 36d7 f13d 7738 45be
00000210: 39ea 833d 47fa dd3d ed84 223d 6ef7 3dbd
00000220: 1fad 883c a445 543d ad50 3a3d 6969 0abe
00000230: 1dee 74bd 16c0 723d 3456 7cbe 67e9 adbd
00000240: 855a a03d aec4 7fbd 26ae a5bb 83f6 97bc
00000250: 77b9 66be 8751 833d 7208 593d a5ae ec3d
00000260: ca25 1c3d 2591 723d d010 0a3e 61af 683d
00000270: fd0e 2c3e ce0f b83d ca24 d13d 6f3a 51bc
00000280: f06a bf3d 69bd 213d cbe8 afbd 7698 3ebb
00000290: 98eb 8d3d fffe a9bc 4b09 5dbd 4085 0fbe
000002a0: f915 75bb 2626 07bc 1b79 553d 6b08 043d
000002b0: b409 923d 0f30 9fbd 9f38 d1bc fada 7c3d
000002c0: 8a40 a23e 64fd 06be b047 863c 9f4c 3bbd
000002d0: cf4f 9fbd 2082 953d 843c c13d 60d8 cd3d
000002e0: 014e 053e e777 a038 5244 4e3c e8b4 89bc
000002f0: a00d 9b3d 39b3 7ebd 6275 203d 3388 7bbd
00000300: e078 283b 32e3 08bd 08f3 29bc d496 8a3c
00000310: 3490 2e3d eb26 b93c 2e42 acbc 8a63 19bd
00000320: 9da2 863d d043 f3bc 1b9f 303d 45ac 39bd
00000330: 4235 493d 6196 5bbd 51a8 a33c ca03 043d
00000340: 9a4f 83bd 2996 0cbe c281 303c 9833 bf3c
00000350: ed68 ad3d a400 a7bc 5e7c 303c 7bb8 023d
00000360: 27b5 49bd 4900 85bd 0aa6 6b3d 66ef 613d
00000370: 1b6d b73c f999 0abd cc78 acbd e68c f73c
00000380: cdfd 79bd 34a6 9abd b365 433d 5e0b cb3b
00000390: ce5a 7fbd 7e38 bdbd 7b1a 73bd 6eb4 263b
000003a0: 3c5b 663d 29a5 083f 980c 6c3c fe51 7bbd
000003b0: 4f76 9eba 3ad6 51bd d3d2 ef3c 0e47 2d3d
000003c0: 8d59 6cbd c486 1b3b 076a 45bd 4f77 a63d
000003d0: 764c 403d d36e 38bd d101 973d 1af6 553d
000003e0: fe04 8bbd 8fa7 53bd 4cdf 803d 4c58 96bd
000003f0: 7a2d b5bc 7893 8cbd 8f25 dabe 797c fd3b

sequential_4/dense_33/MatMul f4 [128, 256]
-0.06369066 -0.17349699 0.121411234 -0.15597153 0.033917993 -0.037921816 0.029182673 -0.0846729
-0.0614247 -0.0839898 -0.06831634 -0.11959671 0.09387076 0.10668737 0.01970324 0.07217759
-0.03401717 0.045922965 -0.051029384 -0.024788886 0.053571023 -0.09004084 0.012709994 -0.08329904
-0.11608347 0.0796448 -0.067718536 0.015178919 -0.032921582 0.083099544 0.008476943 -0.15129161
-0.053981345 -0.18293503 0.09426272 -0.17526977 0.04639402 -0.18121812 -0.037805703 -0.08193684
-0.10006121 0.0026541247 0.0936628 0.018236382 -0.090678565 0.08821884 0.037940294 -0.115391284
0.06962675 0.028852403 -0.17190535 -0.023269325 0.026903028 0.08013883 0.019915335 -0.035113633
-0.11104041 -0.057907134 0.09805328 0.10826203 -0.057989925 -0.107996106 0.11256781 -0.022362417
0.09854755 0.05628997 -0.016259326 -0.0726732 -0.0723054 -0.109508045 0.109710366 -0.09757507
0.04394746 -0.059620887 -0.008320422 0.032434195 0.05321598 0.04462576 -0.133341 -0.032615185
0.044490606 0.103042245 -0.11535667 0.01278016 0.062164664 -0.029129794 -0.020603001 0.11871436
0.006380886 -0.013634324 0.11204922 0.060507268 -0.09229964 -0.082344905 -0.07207828 0.052870393
-0.08491713 -0.011271149 0.097231776 -0.09403056 0.047032803 -0.11633021 -0.08150576 0.12444079
0.0123923365 0.0066172415 0.10728291 0.041091233 0.03507091 0.065819174 -0.03562491 -0.09611949
-0.114798956 -0.053207725 0.10564998 0.12026766 -0.06769216 -0.08735141 0.10374668 0.024448931
-0.0046562552 -0.060668826 -0.16157833 0.039175063 0.053014517 -0.15215196 0.049637496 0.05227804
0.10425338 -0.0754312 -0.14129394 0.05485585 -0.080268115 -0.019833852 -0.070065305 -0.1767471
-0.1416967 -0.10020921 0.025433928 -0.078345925 0.04701391 0.095808744 -0.002551721 0.006629616
0.0041005313 0.045563336 -0.12182442 -0.014841437 0.039489627 -0.12104523 -0.015710741 0.013105019
-0.019741066 0.014590681 -0.06644356 0.031151772 -0.048728794 0.017296344 -0.058089763 0.047311366
0.044034094 -0.04618781 0.030204754 -0.025131166 0.019808918 -0.084683895 0.063637465 -0.015863925
0.04577753 0.08978304 -0.102853 -0.043434065 -0.08056769 0.07080969 -0.22216533 -0.094830364
-0.025185317 -0.012409598 -0.15704788 -0.13448739 -0.08697668 -0.15013379 -0.028021585 0.07081405
-0.0469411 0.06360966 0.03285148 -0.09189446 0.056069076 -0.081482716 0.11798379 -0.18974009
-0.04580134 0.03276999 -0.045446932 0.06950325 -0.005890459 0.058874756 -0.103527784 -0.06179253
0.053225785 -0.07750515 -0.0075941384 -0.10100089 -0.08990762 -0.02055758 -0.0010689497 0.017356038
0.050626926 -0.021118104 -0.12136441 0.0028915703 0.06985667 -0.19629388 -0.16849175 0.05322984
0.033322245 0.115422726 -0.039411545 -0.05985233 -0.066506244 -0.054520845 -0.021971136 0.008015366
-0.03209105 -0.019959062 -0.14866772 -0.097735256 0.10417244 -0.0036818513 0.09165943 -0.09512659
0.09030932 0.056203708 -0.034275256 -0.059041053 -0.055215932 0.12363961 -0.058052644 0.06569183
-0.022912502 0.050918728 0.059025913 -0.16449887 -0.11819002 -0.025061684 -0.02620107 -0.16161221
-0.122031 0.07536048 0.016614724 -0.01455758 0.028333426 0.066529214 0.037958078 -0.025612205
00000000: 4070 82bd 32a9 31be 74a6 f83d 00b7 1fbe
00000010: 98ed 0a3d e853 1bbd 8010 ef3c fc68 adbd
00000020: 7798 7bbd d802 acbd 70e9 8bbd 1fef f4bd
00000030: 503f c03d e87e da3d b068 a13c d8d1 933d
00000040: 9755 0bbd b819 3c3d 3004 51bd 1012 cbbc
00000050: 4a6d 5b3d 5567 b8bd 943d 503c b098 aabd
00000060: 2cbd edbd d01c a33d 04b0 8abd 00b1 783c
00000070: c8d8 06bd 1830 aa3d e0e2 0a3c 30ec 1abe
00000080: 8b1b 5dbd 5253 3bbe d00c c13d eb79 33be
00000090: a807 3e3d 3e91 39be 27da 1abd 81ce a7bd
000000a0: e4ec ccbd d3f0 2d3b 48d2 bf3d 7764 953c
000000b0: afb5 b9bd 14ac b43d 4867 1b3d 4452 ecbd
000000c0: 7898 8e3d e05b ec3c f507 30be 509f bebc
000000d0: bd63 dc3c d41f a43d 7c25 a33c 50d3 0fbd
000000e0: 2869 e3bd 0830 6dbd 28d0 c83d 7cb8 dd3d
000000f0: d886 6dbd 102d ddbd f489 e63d 6331 b7bc
00000100: 4cd3 c93d 5090 663d 4732 85bc b0d5 94bd
00000110: db14 94bd c145 e0bd d4af e03d 70d5 c7bd
00000120: 4002 343d 0835 74bd 6152 08bc b8d9 043d
00000130: 00f9 593d 80c9 363d 8b8a 08be 8097 05bd
00000140: c83b 363d d007 d33d 1e40 ecbd e063 513c
00000150: 60a0 7e3d 9ba1 eebc a0c7 a8bc 8420 f33d
00000160: c016 d13b 8062 5fbc 107a e53d 78d6 773d
00000170: 9807 bdbd 72a4 a8bd c79d 93bd a08e 583d
00000180: 08e9 adbd a0aa 38bc 7421 c73d 1893 c0bd
00000190: 78a5 403d 883e eebd 7eec a6bd d0da fe3d
000001a0: 3a09 4b3c 72d5 d83b 24b7 db3d 484f 283d
000001b0: 84a6 0f3d 34cc 863d 6deb 11bd 4cda c4bd
000001c0: b71b ebbd 58f0 59bd 045f d83d e44e f63d
000001d0: 30a2 8abd 4ce5 b2bd 2479 d43d 2049 c83c
000001e0: 8093 98bb e07f 78bd ca74 25be 0876 203d
000001f0: c025 593d b9cd 1bbe b050 4b3d 8021 563d
00000200: cc82 d53d ac7b 9abd 5caf 10be 87b0 603d
00000210: 9c63 a4bd 9a7a a2bc 667e 8fbd 31fd 34be
00000220: f118 11be 7c3a cdbd d05a d03c d473 a0bd
00000230: a891 403d 6037 c43d c63a 27bb 403d d93b
00000240: c05d 863b 9fa0 3a3d 157f f9bd 8029 73bc
00000250: e0bf 213d 90e6 f7bd d0b3 80bc 6fb6 563c
00000260: 04b8 a1bc c00d 6f3c 9013 88bd 0032 ff3c
00000270: d897 47bd 10b1 8d3c 88ef 6dbd 90c9 413d
00000280: 185d 343d 6e2f 3dbd f66f f73c e0df cdbc
00000290: 5046 a23c c06e adbd 5c54 823d 10f5 81bc
000002a0: 3881 3b3d 2ce0 b73d 98a4 d2bd ebe7 31bd
000002b0: ac00 a5bd ac04 913d 4f7f 63be 6c36 c2bd
000002c0: 7051 cebc a051 4bbc 29d1 20be 10b7 09be
000002d0: d420 b2bd acbc 19be 868d e5bc f506 913d
000002e0: 5045 40bd c845 823d 468f 063d 2a33 bcbd
000002f0: b0a8 653d 69e0 a6bd 7ca1 f13d 3a4b 42be
00000300: 309a 3bbd d339 063d 9026 3abd b857 8e3d
00000310: c004 c1bb a826 713d 6006 d4bd 2a1a 7dbd
00000320: 4803 5a3d 05bb 9ebd 40d8 f8bb 8ed9 cebd
00000330: 7c21 b8bd 5f68 a8bc 001c 8cba 402e 8e3c
00000340: 2e5e 4f3d e0ff acbc e78d f8bd 8080 3d3b
00000350: 0411 8f3d 4301 49be 1a89 2cbe 8807 5a3d
00000360: e87c 083d c062 ec3d 006e 21bd b727 75bd
00000370: 6d34 88bd 4051 5fbd d0fc b3bc e252 033c
00000380: e871 03bd 3081 a3bc 5a3c 18be 6c29 c8bd
00000390: 5c58 d53d 374b 71bb f0b7 bb3d bbd1 c2bd
000003a0: 18f4 b83d dc35 663d 3664 0cbd 08d5 71bd
000003b0: 1a2a 62bd c436 fd3d 9cc8 6dbd 7089 863d
000003c0: 00b3 bbbc 2890 503d 28c5 713d 6472 28be
000003d0: 9c0d f2bd 294e cdbc a0a3 d6bc ac7d 25be
000003e0: 64eb f9bd 9856 9a3d 9a1b 883c eb82 6ebc
000003f0: 801b e83c 7840 883d ee79 1b3d b0d0 d1bc

sequential_4/dense_34/MatMul f4 [64, 128]
0.17652284 -0.017314345 -0.05505883 0.12723662 -0.08653583 -0.048720494 -0.16069008 0.10163228
0.122589335 0.11995186 -0.09965032 0.106702074 0.16803552 0.08868368 0.12170978 0.0474914
-0.1496737 -0.14431064 0.15895183 0.024329051 -0.57534367 -0.04007697 -0.054136194 0.08374603
0.060013577 -0.0028590262 0.24735491 -0.05678057 -0.050043434 -0.11429328 -0.42675993 0.010009155
-0.12543695 -0.017608657 0.014473609 0.10671519 0.10403629 -0.15324801 -0.33916724 -0.087462425
-0.17195617 -0.32712868 -0.07243236 -0.31419915 -0.05498992 -0.079733744 0.11637001 -0.019105256
0.08658801 -0.16056739 -0.42796853 0.048162505 -0.019144908 0.29095584 -0.1478646 -0.1414476
0.080247894 0.045496896 0.025325328 0.26410815 -0.15018919 -0.033941403 -0.13525438 0.004951924
0.052846923 -0.0018745214 -0.38772544 -0.06674097 0.008764818 -0.38292363 0.12775598 -0.2914059
0.41934603 0.017656416 -0.44641647 0.11992629 0.026192423 0.15860625 0.059201196 -0.12305008
-0.13585198 -0.24647684 -0.09593487 0.2575877 -0.15035105 -0.032110587 0.014331996 -0.12639937
-0.15258285 -0.17226583 0.080348656 0.12789632 0.1381872 0.08271693 0.049263094 0.01575917
-0.086329766 -0.1504758 -0.034417078 -0.42091662 0.004855618 -0.40492868 0.05133292 0.094749615
0.11116488 0.13253425 -0.0919205 -0.2569778 0.034636825 -0.15628064 0.13312218 -0.14948551
-0.17258073 -0.07644334 -0.15535003 -0.0017173506 -0.0010903748 -0.040195286 -0.17410833 -0.08179648
-0.060201377 0.03151965 0.35380203 0.03989169 0.10651608 -0.16966893 -0.11304632 -0.014268652
-0.0030308147 -0.079621054 0.040486965 0.01861715 0.049887657 -0.02224232 0.16368872 0.18255939
-0.012966052 0.040655077 -0.09649585 0.11071759 0.08121328 0.16526882 0.057541393 -0.09510784
0.06446455 0.12771939 -0.036815435 0.028064629 0.01752428 0.013067004 0.2333407 0.17921406
-0.057944752 0.09506684 0.051972523 0.10697748 0.023056554 0.22317661 -0.08465933 -0.02376748
-0.14693308 0.0136103425 0.09485275 0.028509982 -0.024097603 -0.1020865 -0.029902318 -0.08421031
-0.18740653 -0.21134958 -0.20759243 0.06674812 -0.12912107 0.15242834 -0.09092 0.13397007
-0.065337 -0.10571676 0.11858549 -0.26201436 0.060978122 -0.07952373 -0.1332226 -0.09922485
0.04546485 0.13570179 -0.057840813 -0.010539899 -0.025307314 0.0941578 -0.09841244 0.06906581
-0.13916494 0.12426831 -0.13207082 -0.10924276 0.2176887 0.099789985 0.097538814 0.0055808895
0.07218985 0.21948098 -0.037407257 0.10140038 0.13045949 -0.027662706 0.045595128 -0.07274807
-0.14832807 0.08844366 0.1617262 -0.083617456 0.23939581 0.17755605 0.018881971 -0.026913514
0.14117049 -0.1450295 0.08531985 -0.1930092 -0.17282596 0.07768213 -0.12783004 0.053276867
-0.012270322 0.08117843 -0.095096834 0.106309675 -0.16897543 0.049095087 0.20545681 -0.015437245
-0.051818375 -0.042892694 0.1265857 -0.21940196 0.0671492 0.16824323 0.09448295 -0.014085657
0.03349857 0.11551887 -0.09246441 0.062230006 -0.24040207 0.18973391 0.056176167 -0.2901803
-0.062493607 -0.104378335 0.11078927 0.002406066 0.16560714 -0.12690006 0.004652956 -0.098458014
00000000: 67c2 343e d0d6 8dbc 5e85 61bd 514a 023e
00000010: b239 b1bd 248f 47bd f18b 24be 9624 d03d
00000020: 1e10 fb3d 52a9 f53d 7815 ccbd 9e86 da3d
00000030: 8111 2c3e ca9f b53d fa42 f93d 5886 423d
00000040: 1044 19be 2bc6 13be 45c4 223e b84d c73c
00000050: b949 13bf c027 24bd eabd 5dbd 0a83 ab3d
00000060: ccd0 753d 805e 3bbb 9b4a 7d3e be92 68bd
00000070: 58fa 4cbd 9812 eabd 4780 dabe 70fd 233c
00000080: 8b72 00be 0840 90bc b722 6d3c 7e8d da3d
00000090: fa10 d53d 0ced 1cbe 54a7 adbe 801f b3bd
000000a0: 4715 30be 697d a7be 6b57 94bd b6de a0be
000000b0: 1c3d 61bd 724b a3bd 6653 ee3d a082 9cbc
000000c0: 0e55 b13d c76b 24be b11e dbbe 0c46 453d
000000d0: c8d5 9cbc 2af8 943e d169 17be a4d7 10be
000000e0: 0259 a43d f45a 3a3d 1077 cf3c 2f39 873e
000000f0: 32cb 19be 2406 0bbd 2080 0abe c043 a23b
00000100: 0476 583d 80b2 f5ba f383 c6be 7daf 88bd
00000110: 509a 0f3c 910e c4be 77d2 023e 2733 95be
00000120: 86b4 d63e 30a4 903c b390 e4be ea9b f53d
00000130: 7e91 d63c ad69 223e f47c 723d ae01 fcbd
00000140: c81c 0bbe 6d64 7cbe 8079 c4bd 89e2 833e
00000150: a0f5 19be 6486 03bd c0d0 6a3c d66e 01be
00000160: ae3e 1cbe 7466 30be d68d a43d 41f7 023e
00000170: f280 0d3e 7e67 a93d 19c8 493d 6019 813c
00000180: a9cd b0bd 5416 1abe ecf8 0cbd 6282 d7be
00000190: e01b 9f3b d052 cfbe 7842 523d 160c c23d
000001a0: 6aaa e33d 0fb7 073e d140 bcbd 9892 83be
000001b0: 58df 0d3d 0808 20be 2e51 083e bb12 19be
000001c0: 01b9 30be 538e 9cbd 1414 1fbe b918 e1ba
000001d0: e8ea 8eba d0a3 24bd 7449 32be ea84 a7bd
000001e0: b895 76bd c01a 013d 8a25 b53e 7865 233d
000001f0: 1a25 da3d b1bd 2dbe d484 e7bd 10c7 69bc
00000200: a2a0 46bb 5d10 a3bd a9d5 253d fe82 983c
00000210: 0057 4c3d 8735 b6bc 049e 273e d9f0 3a3e
00000220: 906f 54bc f085 263d 9e9f c5bd e7bf e23d
00000230: 2653 a63d 3b3c 293e 86b0 6b3d e6c7 c2bd
00000240: fd05 843d dfc8 023e c8cb 16bd cbe7 e53c
00000250: 148f 8f3c fd16 563c ddf0 6e3e e483 373e
00000260: 7a57 6dbd 67b2 c23d 24e1 543d 0217 db3d
00000270: 19e1 bc3c 6988 643e df61 adbd 05b4 c2bc
00000280: a075 16be eafd 5e3c 2942 c23d c48d e93c
00000290: 5668 c5bc ba12 d1bd b5f5 f4bc 7476 acbd
000002a0: 7fe7 3fbe 066c 58be 1c93 54be 3db3 883d
000002b0: 5038 04be 2d16 1c3e 4434 babd 732f 093e
000002c0: 68cf 85bd 0782 d8bd f3dc f23d bf26 86be
000002d0: 32c4 793d 56dd a2bd 816b 08be 6636 cbbd
000002e0: 5a39 3a3d 69f5 0a3e 7dea 6cbd 8aaf 2cbc
000002f0: 4951 cfbc ced5 c03d 768c c9bd 6072 8d3d
00000300: 4181 0ebe 6280 fe3d 933d 07be abba dfbd
00000310: c9e9 5e3e b15e cc3d 6ec2 c73d e5df b63b
00000320: 46d8 933d 9fbf 603e 5a38 19bd 01ab cf3d
00000330: 2c97 053e e69c e2bc f5c1 3a3d f1fc 94bd
00000340: 50e3 17be f321 b53d 8e9b 253e a13f abbd
00000350: 2d24 753e 41d1 353e 5dae 9a3c bb79 dcbc
00000360: ff8e 103e 9d82 14be 2cbc ae3d 34a4 45be
00000370: 4af9 30be cf17 9f3d e1e5 02be d838 5a3d
00000380: 7609 49bc e040 a63d 21c2 c2bd e3b8 d93d
00000390: e507 2dbe ee17 493d 4563 523e 80ec 7cbc
000003a0: 813f 54bd 40b0 2fbd af9f 013e e8aa 60be
000003b0: 8585 893d f447 2c3e 4780 c13d 87c7 66bc
000003c0: cc35 093d 2895 ec3d fb5d bdbd e4e4 7e3d
000003d0: f62b 76be 9b49 423e fb18 663d 8392 94be
000003e0: 4cf9 7fbd 4fc4 d5bd 7ce5 e23d 17af 1d3b
000003f0: eb94 293e 17f2 01be d377 983b 5ba4 c9bd

sequential_4/dense_35/MatMul f4 [32, 64]
0.14357305 0.10503658 0.07774887 -0.22838455 0.03688997 0.090681314 -0.25976273 0.24489486
-0.1796906 -0.21953088 0.14388505 0.030776083 0.17092752 -0.18972266 0.15854847 0.106102526
-0.2822274 -0.13145477 -0.021633983 -0.011033177 0.19345158 -0.27879012 -0.17660964 0.11664319
-0.10457665 -0.07257749 -0.10994774 -0.04794361 -0.17585436 -0.15693097 0.1906961 0.149059
0.14860761 -0.2487468 -0.189234 0.18029866 -0.04662633 -0.15595317 -0.048612833 -0.2465933
-0.20392376 -0.25088248 -0.08195323 -0.0022540616 -0.028689802 -0.056524754 0.19842076 0.14656109
-0.24693453 -0.22193414 -0.1900183 -0.08900942 0.13056721 0.1379257 -0.028037118 -0.13508452
-0.0341326 0.010088205 -0.036472045 0.114195034 -0.16753499 0.1887081 -0.117684424 -0.17836916
0.45874083 -0.021629035 0.17831872 0.2315173 0.080460615 0.06115888 -0.03618205 0.0768952
-0.39163247 0.13902149 0.11476524 0.051139593 -0.036720615 0.1278561 -0.06623169 0.118869394
-0.25551647 -0.28411463 -0.079226 -0.22141653 0.11496383 -0.08943952 -0.01588334 -0.103977345
-0.14705406 0.21297464 0.14913413 -0.0180718 -0.19158983 0.13254473 0.17851482 -0.08187081
-0.010614297 -0.123233676 -0.025378732 0.17321315 -0.32868144 0.1350466 -0.1328052 -0.1441323
0.116620265 -0.02778988 -0.1820421 0.18569183 -0.1451475 0.082991555 0.034763888 0.014982796
0.081208326 -0.033054832 0.5158986 0.17248681 -0.061167534 0.1185917 -0.028643029 0.09704878
0.18606736 0.04372531 0.041410685 -0.026104981 0.17244624 0.024697842 0.034509283 0.18508515
0.21919799 0.053523593 -0.118535936 0.20309126 -0.009231508 -0.11141476 -0.28488323 0.037869215
0.068365395 -0.001360178 -0.16344482 0.24386126 0.17617202 0.06182748 -0.109978735 0.1388773
0.14388882 -0.048174024 0.109518945 -0.14818126 -0.078124106 0.020330932 0.16950315 -0.19861585
0.1973002 -0.006661221 0.13490033 0.00686918 0.116432756 -0.25233275 0.10654187 -0.121202946
-0.2266388 -0.14402895 -0.054621153 0.20133781 0.050759733 -0.11882436 -0.05116701 -0.12997746
-0.08562964 -0.23726493 -0.2030366 -0.22870612 -0.037270427 -0.09573656 -0.09994882 -0.02701205
-0.05554533 -0.06599459 0.1332286 -0.20602992 -0.14112878 -0.19215876 -0.08075015 -0.13932401
-0.13204902 0.056812584 0.10764873 0.012168825 -0.2344909 -0.060912237 0.019374847 -0.12453067
-0.098741174 -0.013847215 -0.2126034 0.17674516 0.009766801 0.18675238 -0.17061992 -0.19588792
-0.18080449 -0.18726224 0.0514451 0.184973 -0.061107457 -0.1748333 -0.117140114 -0.15164489
-0.17172308 -0.13327533 -0.21593685 -0.11015111 0.023387969 -0.2895788 -0.06922015 0.049373567
0.102956355 -0.10843799 -0.18844485 -0.15145613 -0.03415451 0.12870787 0.019596249 -0.0124697685
0.18337566 0.18389797 -0.060759574 -0.21916217 -0.19877905 -0.067353666 -0.19783264 0.030844212
-0.08487952 -0.22053921 -0.01593113 0.03840318 -0.12261987 0.19983935 -0.17870042 0.0468236
0.06260736 0.16522753 0.10994023 -0.13029917 -0.06162837 -0.029903248 -0.08444039 0.04672918
-0.03733778 0.15147746 -0.27120978 -0.061141968 -0.0004381899 -0.30286074 -0.107066035 -0.06371644
00000000: d004 133e 6b1d d73d cd3a 9f3d a4dd 69be
00000010: f019 173d 20b7 b93d 9fff 84be b8c5 7a3e
00000020: d000 38be b4cc 60be 9a56 133e 201e fc3c
00000030: a007 2f3e a846 42be 885a 223e 484c d93d
00000040: 1c80 90be 149c 06be c039 b1bc 80c4 34bc
00000050: 2c18 463e 94bd 8ebe 28d9 34be a0e2 ee3d
00000060: 482c d6bd 82a3 94bd 482c e1bd 8560 44bd
00000070: 2a13 34be 83b2 20be d745 433e eca2 183e
00000080: 982c 183e 7bb7 7ebe 8fc6 41be 36a0 383e
00000090: 40fb 3ebd 30b2 1fbe 401e 47bd f482 7cbe
000000a0: 64d1 50be ab73 80be 18d7 a7bd e1b8 13bb
000000b0: e006 ebbc 8086 67bd d02e 4b3e 1c14 163e
000000c0: 68dc 7cbe b442 63be 2894 42be 924a b6bd
000000d0: 69b3 053e 653c 0d3e 19ae e5bc 9953 0abe
000000e0: a0ce 0bbd 0049 253c b663 15bd 16df e93d
000000f0: 4b8e 2bbe b23c 413e 8804 f1bd 68a6 36be
00000100: 14e0 ea3e 602f b1bc 2f99 363e df12 6d3e
00000110: 89c8 a43d bc81 7a3d a133 14bd 3b7b 9d3d
00000120: 0d84 c8be a65b 0e3e 0a0a eb3d c077 513d
00000130: 5b68 16bd b6ec 023e 7ba4 87bd cc71 f33d
00000140: 0ed3 82be 7977 91be 3e41 a2bd 04bb 62be
00000150: 2872 eb3d 112c b7bd c71d 82bc 13f2 d4bd
00000160: 5795 16be 0616 5a3e 9eb6 183e 500b 94bc
00000170: 2030 44be ceb9 073e 97cc 363e e2ab a7bd
00000180: 97e7 2dbc f061 fcbd 0fe7 cfbc ca5e 313e
00000190: ef48 a8be a849 0a3e 16fe 07be 6b97 13be
000001a0: 9bd6 ee3d 9aa7 e3bc 3f69 3abe 0026 3e3e
000001b0: 8ca1 14be 7af7 a93d 9464 0e3d 677a 753c
000001c0: 8d50 a63d 8164 07bd ee11 043f 62a0 303e
000001d0: cf8a 7abd 35e0 f23d c9a4 eabc 83c1 c63d
000001e0: 7188 3e3e 5019 333d 409e 293d 1dda d5bc
000001f0: bf95 303e 2153 ca3c 9b59 0d3d f686 3d3e
00000200: 7075 603e 8e3b 5b3d f8c2 f2bd 28f7 4f3e
00000210: c03f 17bc 6c2d e4bd 37dc 91be c01c 1b3d
00000220: 2803 8c3d 0048 b2ba 145e 27be c4b6 793e
00000230: 7066 343e d03e 7d3d 883c e1bd da35 0e3e
00000240: 9757 133e 2052 45bd 784b e03d d4bc 17be
00000250: 88ff 9fbd 0e8d a63c 3c92 2d3e f461 4bbe
00000260: 1009 4a3e 5f46 dabb 5023 0a3e dc16 e13b
00000270: 4c74 ee3d c231 81be a032 da3d 4039 f8bd
00000280: 0014 68be 537c 13be 6eba 5fbd 802b 4e3e
00000290: 70e9 4f3d 305a f3bd 8094 51bd d018 05be
000002a0: 985e afbd 94f5 72be d4e8 4fbe f031 6abe
000002b0: e0a8 18bd 8811 c4bd f8b1 ccbd 6048 ddbc
000002c0: 8083 63bd 2c28 87bd 146d 083e 82f9 52be
000002d0: 1084 10be 44c5 44be 5660 a5bd f4aa 0ebe
000002e0: dc37 07be 50b4 683d f076 dc3d c05f 473c
000002f0: 621e 70be 1c7f 79bd 00b8 9e3c f009 ffbd
00000300: d038 cabd 6edf 62bc b5b4 59be affc 343e
00000310: ef04 203c 043c 3f3e fdb6 2ebe d896 48be
00000320: d024 39be acc1 3fbe 19b8 523d 9069 3d3e
00000330: d04b 7abd 8007 33be 28e7 efbd cc48 1bbe
00000340: 2dd8 2fbe 5479 08be 8d1e 5dbe e896 e1bd
00000350: 2098 bf3c ac43 94be 4bc3 8dbd f03b 4a3d
00000360: c8da d23d bd14 debd b0f7 40be 5117 1bbe
00000370: 99e5 0bbd ffcb 033e 5088 a03c 004e 4cbc
00000380: d4c6 3b3e c04f 3c3e 08df 78bd 0c6c 60be
00000390: bc8c 4bbe b8f0 89bd a494 4abe 00ad fc3c
000003a0: 50d5 adbd 08d5 61be 0082 82bc a74c 1d3d
000003b0: 2020 fbbd b0a2 4c3e 3efd 36be 1aca 3f3d
000003c0: 4a38 803d 6831 293e 5828 e13d 256d 05be
000003d0: 086e 7cbd a8f7 f4bc 15ef acbd 1967 3f3d
000003e0: 80ef 18bd e81c 1b3e 02dc 8abe 0070 7abd
000003f0: dabc e5b9 9010 9bbe 7045 dbbd c47d 82bd
