app/src/main/assets/model20.tflite (tflite, 451256 bytes, 15 tensors)

sequential_2/dense_15/BiasAdd/ReadVariableOp f4 [256]
00000000: 7581 513b 9600 7b3c 8170 e13c cd7d d2bb
00000010: 3687 c0bc 5ec6 823c 2bad 333c 1c21 e5bb
00000020: 0000 0000 558d ce3c df1d d53b f722 b53b
00000030: 484d 633c 0000 0000 b5c5 b03b 8f85 953c
00000040: aa72 a13c 4805 8b3c 0000 0000 0000 0000
00000050: 057e 9a3c ec4f 613c e8d5 b9bc 0000 0000
00000060: dba1 c53a c2a7 e73a e17e 50bc 0ca1 9d3c
00000070: 0000 0000 4695 863b 9c6c 143c 0000 0000
00000080: f42e bdbc 5b36 213c 1c2e d0bb 7aa7 b9bc
00000090: 6147 80bc 97dd 3f3c 0000 0000 884a 973c
000000a0: a06f 37bc f3a6 b43c 7ac3 093c acc0 143c
000000b0: fe12 25bc 07a0 96bc 8281 523c cd81 a83c
000000c0: 63da 51bc 955a dbbb 0000 0000 c9f1 1b3c
000000d0: 9615 6a3c eabb a83b 3716 0e3b 100d 483c
000000e0: 7169 a2bb dff3 bb3b 0000 0000 3c47 2ebc
000000f0: 6549 0e3b 3910 eebb ae22 cbbb e05a f43c
00000100: 9f80 bdbb 15a1 8e3c 4112 be3c f80c ac3c
00000110: 75b4 753c 62b9 3abb 0000 0000 ccbc 1e3d
00000120: 0000 0000 680c 533c 2a45 25bc fc39 823b
00000130: ee23 ec3c 3c44 983b 4d9b e13b 0000 0000
00000140: 2443 273b 0000 0000 cd1f 81bb d123 b0bc
00000150: 0000 0000 5f75 abbb bafa 5bbc 7c5b 98bc
00000160: c03d 9438 0000 0000 9f46 c1bb b299 52bc
00000170: 4e20 99bb 3e9e 813c cf25 5d3c b11a 18bc
00000180: 0000 0000 6b1c 45bc e535 44bc 0000 0000
00000190: 3218 e53c e282 a13c 1c56 50bc 5d7e 993c
000001a0: bb1c a93c 0000 0000 0000 0000 f7e4 02bc
000001b0: 49dd 943b 6b78 633c db45 96ba ea71 09bc
000001c0: 114d 033d 6a97 92bc 0000 0000 eff8 a0ba
000001d0: 7c23 8bbb 8fc4 563c 53bc a03b dcfa 22bc
000001e0: 0000 0000 e6fa efbb e895 0bbc 0000 0000
000001f0: ea44 cf3c 994c ab3c d829 68bc 0000 0000
00000200: cf56 913b 33f9 b93c 0000 0000 a0e4 b23a
00000210: 540e a2bc b4cf 8e3c f2e0 65b9 0000 0000
00000220: 53f6 473c 8885 8cbc 1c29 533c e3d3 703c
00000230: 3a0b ad3c 5a0d dbbb 9afb a03c 2156 58bb
00000240: 0000 0000 a383 233c a569 29bc 4e75 70bb
00000250: b6a3 80bc e734 8f3c 0000 0000 530e b9bc
00000260: a91d d93c cc5f b53b 5412 503c 75f1 12bc
00000270: 6f99 af3c c921 683c 4255 8d3c 12a9 a63b
00000280: f2ff a5ba 0000 0000 4d95 c03b 0000 0000
00000290: 04ff 1bbc 2c1e d5bc 27fb 3abc 0000 0000
000002a0: 0000 0000 1696 743c 0a2b 8dbc 0b61 883c
000002b0: ffc2 1c3c 0000 0000 74f1 e23b bc11 7cbc
000002c0: 9ad7 69ba 95e3 a03c 0000 0000 0000 0000
000002d0: 583e 903c 2c39 c13c 50a6 45bc a933 c93c
000002e0: 1abb 4dbc 911d 31bc 0000 0000 04a3 7dbc
000002f0: 0000 0000 e1d4 833c b23d abb9 0cac d43c
00000300: ae0f abbc 72d1 8ebc a5a6 a1bc 05bd 37bc
00000310: c871 823c d145 093c 3a69 d83c 3741 9c3b
00000320: 65cc 84bc 5e2d 013c 9a1b 9c3c 8d8e 0f3d
00000330: 2638 40bc 0000 0000 26fd bf3c 2cfc a73b
00000340: 613b c03c 3cde 5b3c 0000 0000 eae2 40bb
00000350: 4e38 d53a 0000 0000 0000 0000 0000 0000
00000360: 1694 5fbc 0000 0000 a519 833c 0000 0000
00000370: 8c25 e43c 0000 0000 fa33 20bc b675 ab3c
00000380: 0fc7 bdbb 855c 483c 0000 0000 055b d9bc
00000390: 33dc 363c 0000 0000 3acb 0d3c da5e 62bc
000003a0: 0000 0000 5839 a43c f5f9 633c 8e04 39bc
000003b0: bd94 933c 1ade 143b 0ac3 123c c75e bb3b
000003c0: a96a 993b 5f30 a73c 7574 8c3b f15d b63b
000003d0: 0000 0000 50f8 88bc a80e 3c3c 0000 0000
000003e0: 0000 0000 0000 0000 87de b8bc bdf7 9fbc
000003f0: 0000 0000 0000 0000 0000 0000 5642 863c
0.0031968032 0.015319964 0.027519466 -0.006423688 -0.023501974 0.01596373 0.010966579 -0.0069924723
0.0 0.025213877 0.006503805 0.00552785 0.013873406 0.0 0.0053946623 0.018252162
0.019707996 0.016970292 0.0 0.0 0.018858919 0.013751965 -0.022685006 0.0
0.0015078144 0.0017673897 -0.012725563 0.019241832 0.0 0.0041071502 0.009059098 0.0
-0.023093678 0.0098396195 -0.006353153 -0.022662867 -0.015659036 0.011710546 0.0 0.018468156
-0.011196047 0.022052264 0.008408422 0.00907914 -0.010075329 -0.018386854 0.01284826 0.020569706
-0.012808415 -0.006694148 0.0 0.009518095 0.014287373 0.005149354 0.0021680722 0.012210146
-0.0049564173 0.005735859 0.0 -0.010637101 0.0021711227 -0.0072651175 -0.0061992025 0.029828489
-0.005783155 0.017410794 0.023202064 0.021002278 0.014996638 -0.0028491844 0.0 0.03875427
0.0 0.012881376 -0.010087291 0.0039741974 0.028825726 0.004646806 0.0068849684 0.0
0.0025522197 0.0 -0.0039405585 -0.021501454 0.0 -0.0052324976 -0.013426477 -0.01859831
7.068692e-05 0.0 -0.0058983113 -0.012854027 -0.0046730405 0.015822526 0.013497784 -0.0092837075
0.0 -0.012030701 -0.01197574 0.0 0.027965639 0.01971573 -0.012715843 0.018737013
0.020643583 0.0 0.0 -0.00798916 0.004542981 0.01388369 -0.001146491 -0.008388976
0.032055918 -0.017894465 0.0 -0.0012281219 -0.0042461734 0.013108387 0.0049052625 -0.009947505
0.0 -0.0073236106 -0.008519627 0.0 0.025301415 0.020910548 -0.014170133 0.0
0.004435397 0.022701835 0.0 0.0013648458 -0.019782223 0.017433025 -0.0002192294 0.0
0.012204724 -0.017153516 0.012888219 0.014698955 0.021123517 -0.0066849412 0.019651223 -0.0033010321
0.0 0.009980115 -0.010340129 -0.0036691013 -0.015703063 0.01748128 0.0 -0.022589838
0.0265034 0.0055351015 0.012699682 -0.008968701 0.021435468 0.014168211 0.017252568 0.0050860727
-0.0012664779 0.0 0.005877173 0.0 -0.00952125 -0.026015364 -0.011412418 0.0
0.0 0.014928361 -0.017232437 0.016647836 0.009567975 0.0 0.006925756 -0.015385088
-0.0008920372 0.01963977 0.0 0.0 0.017607853 0.023586832 -0.012063578 0.024560766
-0.0125568155 -0.010810272 0.0 -0.0154807605 0.0 0.01609272 -0.00032661628 0.025960945
-0.0208815 -0.017433856 -0.019732783 -0.011214499 0.015923396 0.008378462 0.026417363 0.0047685164
-0.016210744 0.007884352 0.01905613 0.035048056 -0.011732137 0.0 0.02343614 0.005126497
0.023465814 0.013419684 0.0 -0.0029432126 0.001626739 0.0 0.0 0.0
-0.013646146 0.0 0.01600344 0.0 0.027849935 0.0 -0.009778017 0.020930152
-0.005791552 0.01222909 0.0 -0.02653266 0.011160898 0.0 0.00865441 -0.01381656
0.0 0.020046875 0.013914575 -0.01129259 0.01801526 0.002271539 0.008957634 0.0057180854
0.0046819043 0.020408807 0.0042863437 0.005565398 0.0 -0.016719967 0.011478104 0.0
0.0 0.0 -0.022567047 -0.01952731 0.0 0.0 0.0 0.016389053

sequential_2/dense_16/BiasAdd/ReadVariableOp f4 [256]
00000000: 0000 0000 4aa8 983b 01f6 3c3c 2f49 70bb
00000010: 2485 ee3c ce02 ad3c 9043 b0ba d776 7bbb
00000020: 8f6c d53c 9fd1 63bc 0000 0000 0000 0000
00000030: 0000 0000 0000 0000 0000 0000 67d4 52bc
00000040: 38f9 223b a782 993c 4270 00bc 0000 0000
00000050: 4133 343c 0789 913b 2796 3ebc 44b3 08bc
00000060: 81de 8bbc 0200 14bc a9c0 c83c 0000 0000
00000070: 605e 573c 684b 8b3c f276 39bc 0000 0000
00000080: 5252 4a3c 0000 0000 0000 0000 4d3b 1f3c
00000090: 7643 8abc dc80 8d3c 9239 d23c 0767 293c
000000a0: e200 15bc bf65 073c 1cb2 7a3c 0000 0000
000000b0: 5f9a 2cbc b3e8 8cbb 84b5 b9bb 35a6 b83c
000000c0: 0000 0000 9a21 9bbc d791 60bc 1190 98bc
000000d0: b2fe 153c 1202 34bc 2fae 2abc 6fe2 a0bc
000000e0: a926 13bb 8915 8fbc df5f 55bc 07b2 a7ba
000000f0: 0000 0000 3970 a13b 0000 0000 01a1 4fbc
00000100: f6ef d93b c8ba c23a 857e e73c 389e 4fbb
00000110: 2379 db3c 0000 0000 c61c c9bb 0000 0000
00000120: 63c5 57bb 97c4 4c3c 0543 af3b 1534 e23c
00000130: 8bf7 243b add4 193c c7d4 4eb8 5e28 583c
00000140: 0000 0000 65ad c1bc 93f9 d9b6 9b32 14bb
00000150: e506 7f3b 28a8 7f3b e56d 353c b3c0 663c
00000160: 24a7 7e3c f539 26bc bf73 21bb 93ba 74bb
00000170: d8b2 f43b b0bb 8cba 8898 b339 2f88 a33c
00000180: 0000 0000 8851 9fbc 86be b93c 911f b33c
00000190: 0000 0000 b824 96bc 30d6 67bb 5873 0b3c
000001a0: 0000 0000 0000 0000 0000 0000 0000 0000
000001b0: 5554 98bc 2a98 b8bb 01be be3c 24bf b23c
000001c0: a0c1 afbb 0000 0000 e261 a13c cf13 8b3c
000001d0: 0d0b a53c 67b5 813c 0000 0000 290b 8b3c
000001e0: 0000 0000 2d09 a03b 0000 0000 47da 943b
000001f0: 6d13 a53c 4c84 733c 9361 b9bb abb9 85bc
00000200: 17b6 a5ba aa6f 08ba f66b 313b 0000 0000
00000210: 5516 5cbc ea68 53bc bbf3 8aba 4937 bf3c
00000220: 0000 0000 78d3 b5bb 49e3 c63b 0000 0000
00000230: a8bf 71bc 0000 0000 8b8a 82bc 860a 333c
00000240: 160e dfbb 0000 0000 0c79 52bc 0000 0000
00000250: 0000 0000 0000 0000 0000 0000 0000 0000
00000260: 9404 463c 5dfe 653c 8cd8 c6ba d777 11bc
00000270: 2522 883c 1d0e b3bb 0000 0000 23be b1bc
00000280: c29d 88bb c867 4abc a1f1 d6ba 0000 0000
00000290: 0cf3 8b3c 804f 8f3c 7807 7e3a cc81 28bc
000002a0: 93e4 15bc d803 03bc 5643 efbb 0000 0000
000002b0: 0000 0000 9bab e83b fe90 853b f889 9b3c
000002c0: a9dc a83c 0000 0000 2d4e dabb f0c6 743c
000002d0: 66a2 953c 0a32 c53c dc11 63bb 5087 afba
000002e0: 007f ad3c 2b08 a8bb 06f4 fd3b f0eb e1bb
000002f0: 7e25 8c3c e0a9 3f3c 0000 0000 afe7 893c
00000300: 0000 0000 4732 953c 6bbc 8e3c c0b0 9ab9
00000310: 0b25 4dbb ae13 a83b 79ff bc3c bc55 603c
00000320: ad36 533c f66c 9d3b 10c5 44bb dbae 87bb
00000330: 0000 0000 791e 883b 0000 0000 9768 463c
00000340: 736c 53bc 52b6 953c 0000 0000 bc16 d7bb
00000350: 0000 0000 3974 c13c 7230 53ba 0000 0000
00000360: 79fb 1e3c 0000 0000 6952 90bc 1182 853c
00000370: 0000 0000 a375 a03a 2390 d5bb 3ffa 86bb
00000380: e34b a8b9 0000 0000 0000 0000 7f02 ce3c
00000390: a61f 4cbb c3b0 e1b7 0000 0000 fcbb 103c
000003a0: 0000 0000 0000 0000 6d9c d7ba 2c73 c2ba
000003b0: bd4d 873c 0000 0000 5c08 c4bc a43a 8dba
000003c0: 677f a03c 4c58 c73c 0000 0000 5e24 91ba
000003d0: c727 45bc 19c9 943c 617b 8a3c 4113 a23c
000003e0: ac25 14ba 8255 d5bb c0d2 8fbc 9c35 5dbb
000003f0: b724 bb3c c9de a4bc e173 2fbc 0000 0000
0.0 0.0046587335 0.011533261 -0.0036664715 0.02911622 0.021119501 -0.001344787 -0.0038370395
0.026052741 -0.013904958 0.0 0.0 0.0 0.0 0.0 -0.0128680235
0.0024867784 0.018739058 -0.007839264 0.0 0.010998548 0.0044413838 -0.011632479 -0.0083435215
-0.017073872 -0.009033205 0.02450593 0.0 0.013145059 0.01700373 -0.011319863 0.0
0.012348728 0.0 0.0 0.009718728 -0.016877871 0.017273359 0.025662217 0.010339505
-0.009094449 0.008264004 0.015301254 0.0 -0.010534852 -0.004300201 -0.0056673903 0.022540191
0.0 -0.01893692 -0.013706646 -0.018623384 0.009154962 -0.010986822 -0.010417505 -0.019639222
-0.0022453463 -0.017466323 -0.013023346 -0.0012794145 0.0 0.004926708 0.0 -0.012672664
0.00665092 0.001485669 0.028258571 -0.003168 0.02679116 0.0 -0.0061374633 0.0
-0.0032924048 0.012498043 0.0053485655 0.027612725 0.0025171961 0.009389085 -4.931239e-05 0.013193218
0.0 -0.023642251 -6.496158e-06 -0.002261317 0.0038914022 0.003901014 0.011073564 0.014084029
0.015542779 -0.010145654 -0.002463564 -0.0037342652 0.007467609 -0.0010737088 0.00034255185 0.019962398
0.0 -0.019448057 0.022673856 0.021865638 0.0 -0.018328056 -0.0035375468 0.008511387
0.0 0.0 0.0 0.0 -0.0185949 -0.0056333737 0.02328396 0.021819659
-0.005363658 0.0 0.019699994 0.016977219 0.020146871 0.01583357 0.0 0.016973095
0.0 0.0048839063 0.0 0.0045426222 0.020150864 0.014863085 -0.0056573837 -0.016323885
-0.0012642768 -0.00052046275 0.0027072406 0.0 -0.013433059 -0.012903431 -0.0010601202 0.023341792
0.0 -0.0055488907 0.006069575 0.0 -0.014755167 0.0 -0.015935203 0.010927802
-0.006807099 0.0 -0.012846243 0.0 0.0 0.0 0.0 0.0
0.012086052 0.014037696 -0.0015170737 -0.00887867 0.016617844 -0.005464329 0.0 -0.02169711
-0.004169197 -0.012353845 -0.0016398915 0.0 0.017083667 0.017493963 0.0009690444 -0.010284852
-0.009148735 -0.007996522 -0.0073017282 0.0 0.0 0.007100535 0.0040761223 0.018986687
0.020613031 0.0 -0.0066621513 0.0149400085 0.018265914 0.024071712 -0.0034648096 -0.0013391767
0.021178722 -0.005127927 0.007750037 -0.006894581 0.017107721 0.011698216 0.0 0.016834108
0.0 0.01821245 0.017423829 -0.00029504858 -0.0031302597 0.005129299 0.023071038 0.013692316
0.012891454 0.004804249 -0.0030024685 -0.0041407174 0.0 0.0041540232 0.0 0.012109897
-0.012904274 0.018275414 0.0 -0.0065639894 0.0 0.02361499 -0.000805623 0.0
0.00970351 0.0 -0.017617421 0.016297372 0.0 0.001224209 -0.0065174266 -0.004119187
-0.00032099997 0.0 0.0 0.025147675 -0.0031146794 -2.6904401e-05 0.0 0.0088338815
0.0 0.0 -0.0016449817 -0.0014835349 0.01651656 0.0 -0.023929767 -0.0010774923
0.019592 0.024334095 0.0 -0.001107346 -0.012033409 0.018162297 0.016904535 0.019784572
-0.00056513655 -0.0065104375 -0.017556548 -0.0033753878 0.022844655 -0.020125763 -0.01070878 0.0

sequential_2/dense_17/BiasAdd/ReadVariableOp f4 [128]
00000000: e6e4 833c 75ac 36bb 0000 0000 6e5c a1bc
00000010: 0000 0000 0000 0000 7094 813c 0000 0000
00000020: a015 833c fa02 4cbc e075 b63c b27f 7e3c
00000030: dad6 9a3c 4527 a7bc 0000 0000 0000 0000
00000040: fb15 b33c 711e 1bbc 091c 963c f47a adbc
00000050: fed7 00ba d182 45bc 4300 bf3c 20d2 51bb
00000060: 5492 bfbc 25da 08bc 0000 0000 cf7d bcbb
00000070: 1fbf 803c 0000 0000 995d 863c a775 253b
00000080: dc5f 8e3c 868f 1fbb f658 38bc 352e 3b3c
00000090: 93d9 f2ba 8bb7 483c 0000 0000 93ab 653c
000000a0: b4c0 8f3c 5f29 09ba ab70 68bc 8652 d5bb
000000b0: 0000 0000 37c2 663c fb16 abba 0e46 8d3c
000000c0: fb58 433c 57b8 9f3c d4a3 843c 51e8 893c
000000d0: 06eb 38bc 45e6 303c 0c66 9fbc 6540 5abc
000000e0: 0000 0000 319d 8b3b 8b90 9c3c ec01 5ebb
000000f0: d55a 26bb 4fa6 ee3b f770 7f3c 0000 0000
00000100: c320 d13c 64a7 2eb7 72a3 38bc 3c47 e5ba
00000110: cbea 5bbc 0000 0000 60b5 8f3c f975 97bc
00000120: 0000 0000 6fd6 84bb 8e01 aaba 9cd4 46bb
00000130: f64d 463c 0000 0000 31dd b93c 296f 8c3c
00000140: 4027 fbba 0000 0000 006e 83bc 81f8 68bc
00000150: 2421 b43c 8537 e43a 3891 7e3c fc47 8ebb
00000160: 9c0b 83bc 9ef2 45b9 c720 bbbb 867e d5ba
00000170: b77a b0bb 0000 0000 2ff4 9e3c 0000 0000
00000180: 0000 0000 b2a4 59bb bb1e 133c 6a75 c43a
00000190: 4a26 1a3c 2b5b b13c a107 943c 823d 93ba
000001a0: 6aea c63c f255 85bc d0cf d8b9 5ce7 5bba
000001b0: a518 933c 05b3 dbba c843 60bc 0000 0000
000001c0: 9c72 ab3b a606 683c a489 52bb d2b9 2fba
000001d0: d276 a9bb 72e7 5aba 0000 0000 0000 0000
000001e0: c39f 733c afbb a9ba 0000 0000 a8de 1abb
000001f0: 0000 0000 0000 0000 69c4 40bb 6566 403b
0.016100358 -0.0027873788 0.0 -0.019697394 0.0 0.0 0.01581785 0.0
0.016001523 -0.012451882 0.022273004 0.015533375 0.018901277 -0.020404467 0.0 0.0
0.021861067 -0.009467707 0.018323915 -0.021176793 -0.0004914998 -0.012055115 0.023315554 -0.0032016113
-0.023385204 -0.008352791 0.0 -0.0057523022 0.015716134 0.0 0.016402053 0.0025247128
0.017379694 -0.0024347021 -0.011251679 0.011424591 -0.0018527977 0.012250791 0.0 0.014017957
0.017547943 -0.00052323 -0.014187018 -0.0065100817 0.0 0.01408439 -0.0013053113 0.017245319
0.01192307 0.01949708 0.0161914 0.01683441 -0.011286503 0.010797088 -0.01945784 -0.013321017
0.0 0.004260682 0.019111892 -0.0033875657 -0.002538373 0.007283009 0.015590898 0.0
0.025528317 -1.0410182e-05 -0.011269437 -0.0017492543 -0.013422678 0.0 0.017542541 -0.018488871
0.0 -0.004053883 -0.0012970434 -0.0030339127 0.012103548 0.0 0.02268848 0.017142849
-0.0019161478 0.0 -0.016043663 -0.014219404 0.021988459 0.0017411566 0.015537553 -0.0043420773
-0.015996747 -0.00018877766 -0.0057106945 -0.0016288317 -0.0053857225 0.0 0.019403545 0.0
0.0 -0.0033209738 0.008979495 0.0014988605 0.009408543 0.021649918 0.018070044 -0.0011233541
0.0242817 -0.016276333 -0.00041353563 -0.0008388662 0.017956087 -0.0016761726 -0.013688035 0.0
0.0052321684 0.014161741 -0.0032125497 -0.00067034096 -0.005171635 -0.0008350528 0.0 0.0
0.014869633 -0.0012949611 0.0 -0.0023631249 0.0 0.0 -0.0029413945 0.0029357907

sequential_2/dense_18/BiasAdd/ReadVariableOp f4 [64]
00000000: 0000 0000 0000 0000 39f8 a83c 23f9 9cbc
00000010: 0000 0000 6b4b 0cbc 5893 0c3c 0000 0000
00000020: b501 f93b 3368 4f3b 0000 0000 b1c4 44bb
00000030: 40ac 653c 6c8e 1cbc ba6d 983c 8378 063c
00000040: 61f6 32ba db22 faba 51a5 86bb 81db 83bc
00000050: 80d4 eebb 948d 053c 7b43 85bc 6a96 87bc
00000060: db40 4bba e55d 883c 0000 0000 faff a4bc
00000070: 88db 913a 4d98 433c faf6 d4ba b088 163c
00000080: 0000 0000 437b 35bb 0000 0000 6a9b 72bc
00000090: 1aa2 9f3c 0000 0000 1b7e acbc b260 62bc
000000a0: a30f c6bb adc9 9c3c a733 1b3c 9fc9 6e3a
000000b0: 5677 70ba 0000 0000 1eca 1d3c 9b31 fa3b
000000c0: b8bf 3cbb e694 963c adea 81bc cfdd 5b3c
000000d0: 1641 9a3c fac7 a93a 3551 09bb c7c9 943c
000000e0: 47e0 d1b7 5394 00bb b750 b33c 573e b73a
000000f0: 8669 fb3a c093 6b3c 06d6 653c 0e02 31bc
0.0 0.0 0.020626174 -0.019161766 0.0 -0.008562903 0.008580051 0.0
0.0075990804 0.00316478 0.0 -0.0030024464 0.014018118 -0.00955544 0.01860701 0.008207443
-0.00068268745 -0.0019083874 -0.0041090627 -0.016095879 -0.0072885156 0.008151431 -0.016267529 -0.016551215
-0.00077534997 0.016646335 0.0 -0.02014159 0.0011128047 0.011938167 -0.0016247921 0.009187862
0.0 -0.0027691878 0.0 -0.014807561 0.019486476 0.0 -0.021056226 -0.013816999
-0.0060443445 0.019139135 0.009472764 0.00091090234 -0.0009173056 0.0 0.009630708 0.007635308
-0.0028800797 0.018381547 -0.015858972 0.0134195825 0.018829864 0.0012953274 -0.0020952944 0.018162621
-2.5019179e-05 -0.0019619658 0.021889074 0.0013980371 0.0019181229 0.014378488 0.014028078 -0.0108037125

sequential_2/dense_19/BiasAdd/ReadVariableOp f4 [32]
00000000: be64 2b3c c0ba d6bb fc85 70bb 854b 743a
00000010: 0000 0000 e9f2 e83a c6d1 023c 0000 0000
00000020: 010d 0dbb 7aef 9b3c 0000 0000 af48 823c
00000030: c830 b7bb 0000 0000 cdbd d3bb 91d4 883c
00000040: 0000 0000 8443 bf3b ef49 8e3b 1e75 1bbb
00000050: aff9 d23a 0000 0000 0000 0000 7af2 63bc
00000060: e63e b03c b7b9 1fbb 4225 22bc a7ca 65bc
00000070: e686 74bc d539 90ba 7b6c 083c 0000 0000
0.0104610305 -0.006553024 -0.0036700955 0.00093191146 0.0 0.0017772588 0.007984584 0.0
-0.0021522644 0.01903509 0.0 0.015903799 -0.005590532 0.0 -0.006461835 0.016702922
0.0 0.005836906 0.0043423097 -0.002372093 0.001609614 0.0 0.0 -0.013912791
0.021514367 -0.002437217 -0.009896578 -0.014025367 -0.01492474 -0.0011003563 0.008326645 0.0

sequential_2/dense_20/BiasAdd/ReadVariableOp f4 [16]
00000000: 5fb4 863c 4760 843c 3392 6e3c 70ea d8ba
00000010: 114c 0b3c 590a 383c 4ef2 363a 0000 0000
00000020: d67d 693c 0509 97bc 906a 1d3a 0b7b 53bb
00000030: 03ab f8ba 0457 833c 06d9 96bb 7843 883c
0.01644343 0.01615919 0.014561224 -0.001654936 0.008502022 0.011232936 0.0006978855 0.0
0.014251193 -0.018436918 0.0006004954 -0.0032269384 -0.0018971864 0.016032703 -0.004603508 0.016633734

sequential_2/dense_21/BiasAdd/ReadVariableOp f4 [8]
00000000: 0000 0000 0ae2 87bb 0000 0000 de5f 843c
00000010: 0000 0000 3a14 803c 0000 0000 0000 0000
0.0 -0.004146819 0.0 0.016158994 0.0 0.015634645 0.0 0.0

sequential_2/dense_15/MatMul f4 [256, 8]
00000000: 97d4 01be 92eb 333b 85ac 15be a7f0 dd3d
00000010: e465 203e 3369 87bd d5bf e23c bac3 b93d
00000020: 1931 f8bc 9e7b 713c 7810 b4bc 2043 053e
00000030: 8777 a03c 48c9 eabd 740e 053d 4129 2d3d
00000040: a807 4f3d 93bc 8cbd b4d8 bc3d 2732 a13d
00000050: 8453 6ebd 6836 003e 84d6 113d 5afc bd3d
00000060: 993a 033e 5f17 023e 9f4c ad3d e419 0f3e
00000070: c28d 15bd 6362 20bc e2e1 35be 1658 f13d
00000080: 5de4 a3bd 80bc c13c c3d0 013e 785e a8bc
00000090: 1ecd 00be 5742 50be b742 273d 0e5f 223e
000000a0: 8694 20bd 887b f0bd dcce c93d 756a 653d
000000b0: 85bc 683c 825e 193c 8789 bd3c 5fd2 e93a
000000c0: 7ecc c33d e959 42bd b2cf 26bd 4cae 613d
000000d0: 37c3 eebc 3f1c 22bd 4d2c 39bd 93c8 993c
000000e0: 4cff 963d 5c9a 9bbd 305f a43d 9ea4 1ebe
000000f0: 9d0e 87bd d052 543d 5802 4dbd 3846 0c3e
00000100: 07f8 83bd 60ed 653c a83f 043d 5c44 07be
00000110: 3052 ccbc ace5 ee3d 3c6a 703d 54c9 573d
00000120: d83e 69bd 39e4 2dbd d894 183e 8124 6c3d
00000130: 96cb 0e3e 5c82 9fbc 8398 65bd 61c0 0d3d
00000140: dc74 883d 1958 243d 5be7 e2bd 0bc9 fdbd
00000150: ca06 b7bd 7bc3 9abb a48f 1bbe f928 39bc
00000160: 6fd5 ddbd 2c48 b43d 5ccd 84bd 552c 68bc
00000170: 918b 823d 322b 0b3d 8696 8b3d b5b9 c1bd
00000180: 7668 62bd b1c3 19bd 989e 043e 9148 e13d
00000190: 5704 1dbe bc86 33be a962 693c 65db fabd
000001a0: 7090 42bc e05a f23b 4c41 bebd 24ec b6bd
000001b0: b8ab 44bd c0a0 18be 2051 21bc 7dc9 b7bd
000001c0: 4870 e5bb 6aa9 bc3d 2b7a fdbd 4612 2ebd
000001d0: 914e 53bd fc67 843d 82a3 0dbd b360 e93d
000001e0: 1410 14be 1a85 d43c da41 113e cd0e 0d3c
000001f0: fceb 25bd b98d b9bd 662b 9a3d e4f7 2bbd
00000200: b53d 1ebe ea5b b1bc cc8b d9bc eb41 c23d
00000210: 7ed1 abbb 36f1 c83d 45bf 813d 4225 bbbd
00000220: f16d 84bd 17de 0bbe 0da6 0b3d 4526 fb3d
00000230: a26e 18be b5e0 8e3d f7b9 e8bd a072 9e3b
00000240: 0a9e 1ebd 586c e8bd 807d b1bb ef7c 96bd
00000250: 2aa1 93bd 8018 b13b 46b3 5ebd ddd1 bbbd
00000260: f796 0bbe de2f bfbd 8ced 6d3d 0097 a4bc
00000270: e9f9 ecbd eab0 a33d 109e ea3d a04d 933d
00000280: 7b5a 473d cd72 a43d 6d5e 053e 393c 833d
00000290: 276a 553d 0ec7 ca3d 1dbc cdbd 041e 0dbd
000002a0: c1ff 2cbd 6a14 b8bc 1bce a2bd adc7 0f3e
000002b0: 5571 903d 06d1 893d 1097 283e 6585 0fbd
000002c0: 70b5 e9bd b2c7 9e3d 1763 ae3d 9e97 123d
000002d0: 7e2a 06be 4580 80bd 6941 a13d 98d1 603e
000002e0: f057 26bc 9030 77bd 7778 fdbd 863e 3cbd
000002f0: eb63 a4bd a09f 6a3c de37 8cbd b4c7 13be
00000300: ae94 9f3d 5769 06bd 2885 be3d c35b afbd
00000310: 8c4f 2b3e db34 eaba 0191 26be 0555 183e
00000320: cdff 0f3d 4efd 093e fea6 dfbd 1cfd 4a3d
00000330: 03d0 e2bb 9c04 e43d 0b19 a1bd 9280 2fbe
00000340: 52c1 903d f0a4 94ba 7ef8 be3c 601d 2b3d
00000350: 3035 0abe 6530 22be 0fc6 65be 5584 193d
00000360: baa1 9ebd e64a 97bc a0aa 143e 77d2 babb
00000370: d603 c03d 1800 e3bd 6ea8 aa3d 0c17 d9bd
00000380: 133c f7bd 8099 01be c825 f93c a010 a43d
00000390: 021b f0bd 5871 8cbd 446a 07be 808c a13d
000003a0: 08ab 6a3d d74f b7bc 23ef 75bd 88eb 92bd
000003b0: fc23 e2bd ece8 053e ad4f 19be 9372 5ebd
000003c0: 248b 0a3e 6fd2 8ebd b818 1a3d aa25 a2bd
000003d0: ee37 d5bd ad52 4a3c 017f 543b 23ce 04bc
000003e0: 0060 22bc 859f adbd 0a00 06be bc6f ad3d
000003f0: 7034 21bc becb 163e 96ae 153e dcbd b43d
-0.12678753 0.0027453643 -0.14616592 0.108369164 0.15663868 -0.06611862 0.027679363 0.09070535
-0.03029685 0.014738945 -0.02198051 0.13013887 0.019588245 -0.114641726 0.032484487 0.04227567
0.05054441 -0.06871905 0.0922102 0.07870894 -0.058185115 0.12520754 0.03560497 0.09276648
0.12815322 0.12704228 0.0846188 0.1397472 -0.036512144 -0.009789082 -0.17761949 0.11784379
-0.08002541 0.023649454 0.12677293 -0.020552859 -0.12578246 -0.20337807 0.04083511 0.15856573
-0.039204143 -0.11742312 0.098539084 0.05600973 0.014205103 0.009360911 0.023136867 0.0017839185
0.09560488 -0.047449026 -0.040725417 0.055097863 -0.02914582 -0.03957772 -0.045208264 0.018772399
0.07372913 -0.07597801 0.08025968 -0.15492484 -0.06594584 0.05183679 -0.050051063 0.13698661
-0.06443792 0.014033645 0.03228727 -0.13209671 -0.024941534 0.116649 0.058695063 0.052682236
-0.056944698 -0.04245398 0.1490053 0.057652 0.1394485 -0.01947134 -0.05605365 0.034607295
0.06662914 0.04012308 -0.11079284 -0.123918615 -0.08936842 -0.00472301 -0.15191513 -0.011301273
-0.10831725 0.08802828 -0.06484482 -0.014170726 0.063742764 0.03397674 0.068158194 -0.09459249
-0.055275403 -0.03754014 0.12951124 0.11000169 -0.15333687 -0.17531866 0.014244714 -0.122488774
-0.011875257 0.007396087 -0.09289798 -0.08931759 -0.048015326 -0.14905071 -0.009846002 -0.08973978
-0.0070019104 0.09212001 -0.12376817 -0.042497896 -0.0515886 0.06465146 -0.03457976 0.11395397
-0.14459258 0.025942374 0.14185277 0.008609486 -0.040508255 -0.090602346 0.07527809 -0.041984454
-0.15453227 -0.021650273 -0.026555918 0.09485229 -0.0052434793 0.09811632 0.0633531 -0.09137966
-0.06466282 -0.1365894 0.034093905 0.12263159 -0.14885953 0.06976453 -0.11363595 0.0048354417
-0.038724937 -0.1134879 -0.005416572 -0.07348048 -0.07208474 0.005404532 -0.054370187 -0.091708876
-0.13631807 -0.09335302 0.05808787 -0.020091534 -0.11571104 0.07992728 0.11455929 0.0719254
0.048670273 0.08029709 0.13024302 0.06407971 0.052103188 0.09901248 -0.100456454 -0.034452453
-0.042236093 -0.022470672 -0.07949468 0.14041014 0.07052866 0.06729321 0.16463876 -0.035039324
-0.114115596 0.077529326 0.08514994 0.035789125 -0.13102147 -0.062744655 0.07873804 0.21954954
-0.010152802 -0.060349047 -0.123764925 -0.045958064 -0.0802687 0.014320284 -0.06846593 -0.1443165
0.0779203 -0.032815304 0.09302741 -0.08562424 0.16729563 -0.0017868535 -0.16266252 0.14876182
0.03515606 0.13475534 -0.10920523 0.04955779 -0.0069217696 0.11133692 -0.07866105 -0.1713889
0.07068123 -0.0011340659 0.02331185 0.04177606 -0.13496852 -0.15838774 -0.22438835 0.037479717
-0.07745691 -0.018468332 0.14518213 -0.005701359 0.09375732 -0.11084002 0.08332907 -0.10600099
-0.12072005 -0.12656212 0.030413523 0.080109835 -0.11723901 -0.06857556 -0.13224131 0.078881264
0.057292014 -0.022376938 -0.06004251 -0.0717383 -0.1104202 0.13077134 -0.149718 -0.054308485
0.1352964 -0.06973731 0.03762123 -0.0791734 -0.10411058 0.012348813 0.0032424333 -0.008105787
-0.0099105835 -0.084776916 -0.13085952 0.08468577 -0.009839162 0.14726159 0.1461738 0.08825275

sequential_2/dense_16/MatMul f4 [256, 256]
00000000: 6250 773d 9287 d9bd bc69 54bd eadf 65bd
00000010: b4cc 963c aa6c 50bd 32d1 643d 6080 da3b
00000020: dcaf ec3c 969e 8bbd 4ce1 27bd 89d3 d63d
00000030: ce1b 593d c096 90ba d62d 1b3d 8db6 63bd
00000040: 6005 62bd 800d 43bc e030 553b 68c8 29bd
00000050: 21b5 863d 9ce7 8b3c c4eb c73c 6c77 80bd
00000060: 27d2 3cbd d1f0 8a3d 47b4 ce3d 944e fe3c
00000070: 36fd b7bd 62db 113d f480 34bd d55a 49bd
00000080: 2953 a5bd 4035 4fbc 66f5 6fbd f4d8 2bbd
00000090: 32f3 8fbd b2dc 333d ee5a 19bd d65e afbd
000000a0: 138c 68bd d729 ab3d 7480 a0bd c212 a9bd
000000b0: 6816 c4bc 76b1 90bd b884 e4bc 4bf3 c73d
000000c0: f703 a13d 04c3 10bd 4dcc b0bd 1a1e 0e3d
000000d0: b1ef b4bd 5130 8e3d 1bda d2bd 19de 6cbd
000000e0: 685d 91bd 0c96 fc3c 3882 72bc bc27 db3c
000000f0: 1062 eb3b 40c1 fcbc a0ba edbb 7fdc cf3d
00000100: 725e 41bd 375a da3d ed66 b93d 3efe 56bd
00000110: f175 a03d c296 87bd f933 adbd f8e4 2ebc
00000120: 0710 c13d e0b8 d0bd c082 f0bb bbe9 9b3d
00000130: 5cfd b1bd de33 04bd fc96 c03c cc5c b0bd
00000140: 8407 b33c c00d 733b c84f 9ebd 5d26 943d
00000150: e601 353d 0ad5 163d 7673 56bd ab82 8b3d
00000160: bf04 813d 7358 cb3d 5e84 2d3d 9978 a9bd
00000170: 4e6b 263d 0095 0dbc 2055 303b 3d87 8fbd
00000180: b654 503d 004c 11bc 4ad9 61bd 3a3e d6bd
00000190: a91e 963d d4ac e1bc 01fb a73d e046 89bc
000001a0: 2579 7dbd 0070 d4bb 3b8d b0bd 00a8 14b9
000001b0: b08c d33b e141 3cbd 349f f13c 144d 0fbd
000001c0: 26b4 2a3d 3407 80bd 7058 dbbc bca6 c53c
000001d0: 2513 8c3d a419 8cbd 4611 4c3d 972a b93d
000001e0: e02c 1abc bc8e d93c 2431 c6bd 71a9 a3bd
000001f0: de82 b8bd bce1 d7bc ab4d d4bd 6940 dc3d
00000200: e6eb c5bd 7d0d 8ebd b89a 23bc b4e6 9ebd
00000210: c20a 2bbd 4266 493d fde5 bc3d 4e1c 623d
00000220: 42a4 73bd 748a 9cbc 9f38 bc3d a248 2d3d
00000230: 72c5 543d ae9f 88bd 5cd6 58bd 2f86 be3d
00000240: 2a47 033d 8334 b03d b474 08bd 1987 54bd
00000250: f8cb 0abd 908d 7cbc 5b5b d83d 1b38 9c3d
00000260: f860 57bd 806b fabb 8d6c 99bd 3e60 433d
00000270: 945e 943c f0b9 bdbb b721 4ebd d61b 0ebd
00000280: 2af7 9abd 5f57 a5bd 0a8f ccbd 6649 85bd
00000290: bcc6 c9bd 9c86 cabc c69b 673d f4ca ccbc
000002a0: f87c 17bd 4797 ad3d 0050 9939 ae5f 693d
000002b0: 4035 8cba 2e78 683d 66d2 493d 39c1 da3d
000002c0: b3ed b83d 0b58 cebd 35ad d53d f87b 83bd
000002d0: 8232 2cbd a4cd 9d3c 324a 733d 7d94 d0bd
000002e0: 4836 afbd 96b6 d0bd d657 91bd be23 95bd
000002f0: 5000 6cbc 1192 a53d 3804 78bc 0afa 8fbd
00000300: 032c 46bd 1888 6d3c bf39 d83d 781a 4abd
00000310: aaef 283d 73f9 d93d d0bb 87bc 80b7 cabb
00000320: 1ced 983c 8e16 6f3d be3f 703d 0075 fdbc
00000330: f7aa 8f3d d682 733d 7c43 923c da3a aebd
00000340: 84fc f6bc c0c9 ab3a 4fc7 8c3d 24c5 bfbd
00000350: 21ca c33d c892 213c 4c23 c53c b22b 653d
00000360: d177 9d3d 9a73 413d 6002 6b3b 10c1 a7bc
00000370: 29a0 61bd 33c8 babd 7c40 dd3c 7e19 86bd
00000380: 8065 3d3c 1eee 96bd a122 8cbd 0d7b 51bd
00000390: 981b bebc 1e3f 733d 141a 8abd 004b 893b
000003a0: b6a3 293d 5e11 513d dc95 983c fac7 c1bd
000003b0: af3f d5bd e899 b0bd 82d8 373d f939 bd3d
000003c0: a8b6 acbd dedf 3abd 931e c43d c0ca 76bb
000003d0: 6814 6f3c 20d1 0a3c 5195 d6bd bcbc b3bc
000003e0: be59 6e3d c8b8 90bc 61d9 803d 4a2d 0a3d
000003f0: 541d a43c fdc9 a43d e039 bcbc 9e8d 00bd
0.060379393 -0.10621561 -0.05185865 -0.056121744 0.018408157 -0.05088488 0.055863567 0.0066681355
0.02889245 -0.06817357 -0.040986344 0.10489566 0.053005032 -0.0011031255 0.03788551 -0.055594016
-0.055180907 -0.011905074 0.0032530352 -0.041450888 0.06577516 0.017078213 0.024404414 -0.06272778
-0.046098854 0.06784213 0.10092979 0.031043328 -0.08983843 0.03560961 -0.04406829 -0.04915889
-0.08072502 -0.012646973 -0.05858364 -0.04195495 -0.07028808 0.043911643 -0.037440233 -0.085630104
-0.05677421 0.0835759 -0.078370005 -0.08255531 -0.023936465 -0.07065098 -0.027895316 0.09763201
0.07862084 -0.03534223 -0.08632717 0.034696676 -0.0883478 0.069428094 -0.102955066 -0.057828996
-0.07097894 0.030833267 -0.014801554 0.026752345 0.007183321 -0.030853868 -0.0072549134 0.10149478
-0.04720921 0.10661738 0.09052835 -0.052488558 0.078349955 -0.06620552 -0.084571786 -0.010674708
0.09426885 -0.10191512 -0.0073398054 0.0761294 -0.086909026 -0.032276027 0.023509495 -0.086114496
0.02185417 0.0037087053 -0.07730061 0.0723388 0.044191264 0.036824264 -0.052356206 0.06812032
0.06299733 0.0992898 0.042362563 -0.08274955 0.040629677 -0.008641481 0.0026906207 -0.070082165
0.050862037 -0.0088682175 -0.055138864 -0.104610875 0.07330067 -0.027548231 0.08202172 -0.016757429
-0.06188311 -0.006483078 -0.086206876 -0.00014176965 0.0064559802 -0.045961265 0.02949486 -0.034985617
0.04167571 -0.06251374 -0.026775569 0.024127357 0.06839589 -0.06840828 0.04982116 0.090413265
-0.009410113 0.026557319 -0.096773416 -0.07991303 -0.09009336 -0.026352756 -0.103663765 0.10754473
-0.09664135 -0.069361664 -0.009985618 -0.07758847 -0.041758306 0.049169786 0.09223554 0.055202775
-0.05948282 -0.019108988 0.09190487 0.042305596 0.05194611 -0.066710815 -0.052938804 0.09302937
0.03205029 0.08603766 -0.03331442 -0.05188665 -0.033885926 -0.0154146105 0.105643 0.07627889
-0.05258271 -0.0076422095 -0.074914075 0.047699206 0.018111505 -0.0057899877 -0.05032512 -0.034694515
-0.07566674 -0.08073305 -0.0998822 -0.0650814 -0.09852359 -0.02472239 0.05654504 -0.02499912
-0.036984414 0.084761195 0.0002924204 0.056976013 -0.0010697022 0.056755237 0.049272917 0.106813855
0.090297125 -0.100753866 0.10433427 -0.064201295 -0.042040356 0.019263096 0.05939693 -0.10184572
-0.08555275 -0.101910755 -0.070968315 -0.07282208 -0.014404371 0.080845006 -0.015137725 -0.07030113
-0.048381817 0.014497779 0.10557889 -0.04934165 0.041244186 0.10643282 -0.016569048 -0.0061864257
0.01866775 0.05837112 0.05865454 -0.030939579 0.07015031 0.059450947 0.017854445 -0.08507319
-0.030149706 0.0013106391 0.068739526 -0.093637735 0.095600374 0.0098616555 0.024064682 0.055949874
0.07688869 0.047229387 0.003585957 -0.020477802 -0.05508438 -0.09120216 0.027008288 -0.06547831
0.011559844 -0.07369636 -0.068425424 -0.05114274 -0.023206517 0.059386365 -0.06743255 0.004189849
0.041415893 0.051041953 0.018626146 -0.094619706 -0.10412537 -0.08623105 0.044884212 0.09239573
-0.084332764 -0.045623653 0.09576144 -0.003765747 0.014592268 0.008472711 -0.104776986 -0.021940582
0.058191054 -0.017666236 0.06291462 0.033734597 0.020033516 0.08046339 -0.022976816 -0.031385057

sequential_2/dense_17/MatMul f4 [128, 256]
00000000: 90b3 dbbc dfe3 263d 35d1 c43d c879 be3c
00000010: b2a5 033d ffab 03bd f23d a03d a6a8 1abd
00000020: 6b2f 62bd 8b9f f13d a04e 993d ccc2 a13d
00000030: b012 073d 5436 ec3d 80fe 3c3c 2feb 31bc
00000040: 2c1f a63d d569 e23d cbae a2bd 40b9 a8bd
00000050: 9623 e1bd 1c97 1fbc 09d1 003e 2aea 92bd
00000060: d986 e7bd 199d 643d 4c30 3bbb f8e0 64bd
00000070: 7710 4abd 69d0 263e 2802 e7bd bc78 94bd
00000080: 590b a6bd 68bc a43d 809f bb3b 8276 063e
00000090: 9244 b7bd 249f 5fbd e71f 993c 57d0 f3bd
000000a0: 54b9 27bd 394e b83d 3892 82bd 1837 39bd
000000b0: f286 373d 7fbe f03c 8ba4 65bd e035 a1bd
000000c0: a442 fe3d d881 d2bd 3e06 6b3c acb6 d33d
000000d0: 1a86 94bd bd22 033d 993c 03be 362f aebd
000000e0: 6c1f 693d d59c bc3a b1ea f8bd ab0e aa3d
000000f0: a4bc 903d b8d7 c43d d448 eebd d328 c93d
00000100: 1b1a 81bd a36b 00be 933d 973d 553e 5f3d
00000110: 5002 1fbd d41e ad3d ff11 2f3d 98c4 1d3d
00000120: 7e03 2ebc 1724 e33d 6cc6 95bd fcc0 c93c
00000130: 9553 aa3b 9a41 18bd 6fb6 cc3d 8111 5cbd
00000140: a853 0b3d 7ccd d2bd 6803 373d 1bab 083d
00000150: 48fb 00be 096e adbd 5afd 013d 1e5f 9abd
00000160: f35b f83c 5c0c adbd c9db 95bc 7a61 aa3a
00000170: ef7c 9a3d 8daf cd3d 2ea2 6c3d 9042 1d3d
00000180: 544b ca3d cc8e f2b7 1795 493d 8eb3 4e3c
00000190: 20a8 c9bd ada0 e5bd 5327 d93d b445 043d
000001a0: 84ab 9ebd fc09 c8bd c0ac 963c 587e 04bd
000001b0: 0000 963d 462a 7cbd 8501 d03d 380a 18bd
000001c0: 4dca d7bb 4c68 b73d c492 d0bd 6632 ffbc
000001d0: b8f0 9d3d b5c3 c93b 7836 70bd 86c8 c63d
000001e0: b045 3bbd 6811 dcbd 10c6 b03c a44a 97bd
000001f0: 8726 31bc fa0e e53d deba a63d e66e b23a
00000200: 1a3c f13d c4f9 f0bc cb50 1bbc 1c64 943d
00000210: e253 923d 319f fcbd 8965 e53d 9e51 6f3d
00000220: 64a1 b93d a818 8cbc 0d6f 84bd 68e0 133d
00000230: 0ded 06bd fc5c f0bd 4c35 bf3d 5d8f e53b
00000240: 194c 94bd b096 8abd cac9 303d b89f 8dbd
00000250: 5494 9e3d e0ea 30bc 487d c5bd f498 a4bd
00000260: 9d7b 1c3d 2a74 97bd 2950 403d dbe6 d6bd
00000270: 043c 8e3d 0699 0bbe 60e8 aa3d c339 dd3d
00000280: 4791 fd3c a2c8 9abd 23c0 59bd 507e 013d
00000290: 77d3 353c b259 fc3d 0837 ca3d 60c7 90ba
000002a0: e5b2 8cbc 9c78 bcbc 0da5 163e 18f7 c0bd
000002b0: c00a eb3c 10a3 3e3c 03ab 2f3d 7330 cabd
000002c0: a816 e4bd 6c0a 8c3d 488a febc 13da 5a3d
000002d0: 223e 21bd 2bb0 913d bfae 2cbc e75c a1bd
000002e0: 661a f33d 36cf f7bd fc97 353d ad01 01be
000002f0: 6a4e a1bd 8a1b a03d 885d 8d3d 38d7 403c
00000300: b07f c03c d18c 053e f691 44ba 4085 a73d
00000310: faaf 5e3d e0ed 8b3d 03f6 3dbd 3b51 673d
00000320: 32a1 cf3d cb33 113d bc09 ea3c a4d7 693d
00000330: 2092 8ebc ec0a 033d 4039 86bd bb40 fe3d
00000340: fdad 09bd 5978 d03d 708b 913d 8efc 2cbd
00000350: 3496 f8bd b285 1abd 97bb 9cbc 40aa 403d
00000360: a2fa 833d 0811 493d 896c 7cbc 9092 443d
00000370: 6854 563d f15d 983c 58b7 223d 5ec8 e33d
00000380: 1be7 6b3c 80b4 1a3c 2802 a13d b8f4 283c
00000390: 94d3 2abd beea eb3d b05d fdbd f7e9 f8bd
000003a0: a086 73bd a0a3 5b3d 5521 893c 1b54 513b
000003b0: aaa4 c93d 80f2 97bc da04 913c 7f63 8dbd
000003c0: 72e8 993d a097 4b3d 604f 81bc eef3 683d
000003d0: f6fd 2c3d b5c0 823d b9a7 b2bd e23a ac3d
000003e0: 63fe a23d 881d a03d ff9c dfbd 9569 08be
000003f0: 6320 87bd 545b 2b3d 936f 97bd b046 443d
-0.02681902 0.04074466 0.096102156 0.02325143 0.03214044 -0.03214645 0.07824315 -0.037758492
-0.055221003 0.117980085 0.074857 0.07898483 0.032976806 0.115338 0.011535287 -0.010859295
0.08111414 0.11055342 -0.07943495 -0.08238459 -0.109931156 -0.009740617 0.1257974 -0.071735695
-0.11305017 0.055813882 -0.0028562723 -0.05587861 -0.04933211 0.1629044 -0.11279708 -0.07249591
-0.08107633 0.08043748 0.005725801 0.13131145 -0.089486256 -0.054595128 0.01869197 -0.11904972
-0.040948227 0.08999295 -0.06375545 -0.045218557 0.04480643 0.02938771 -0.056065124 -0.07871604
0.124150544 -0.10278672 0.01434475 0.10337576 -0.0725214 0.03201555 -0.12816085 -0.085050985
0.05691473 0.0014390001 -0.12154139 0.08303579 0.0706723 0.096114576 -0.116349846 0.0982224
-0.06303807 -0.1254106 0.07384791 0.054502804 -0.038820565 0.084531456 0.04274177 0.038517565
-0.01062095 0.11090868 -0.073132366 0.024628155 0.005197952 -0.037171938 0.09995734 -0.05372763
0.034015328 -0.10293099 0.044680983 0.033366304 -0.12595856 -0.08468253 0.031735756 -0.075376734
0.030317282 -0.08449623 -0.018293278 0.0012999021 0.075433604 0.10043249 0.057771854 0.038393557
0.09877649 -2.8915143e-05 0.04921445 0.012616051 -0.098465204 -0.11212287 0.106032036 0.032293037
-0.07747558 -0.09767529 0.01839292 -0.032347053 0.07324219 -0.061563753 0.1015654 -0.03711912
-0.0065853954 0.0895544 -0.10184243 -0.031151962 0.07711929 0.0061573633 -0.058645695 0.097062156
-0.045720756 -0.107455075 0.021578819 -0.073872834 -0.010812408 0.11184497 0.08141111 0.0013613373
0.117790416 -0.029415973 -0.009479712 0.07245657 0.071449056 -0.12335051 0.11201007 0.058427446
0.09063986 -0.0171016 -0.06466494 0.036102682 -0.032940913 -0.11736485 0.093363374 0.0070056156
-0.07241077 -0.067670226 0.04316119 -0.069152296 0.07743135 -0.010798186 -0.09643036 -0.08036986
0.038203824 -0.073952034 0.046951447 -0.10493251 0.06945041 -0.13632593 0.08345103 0.10802033
0.030953063 -0.07557799 -0.05316175 0.0316146 0.01109778 0.123217955 0.09873778 -0.0011045747
-0.017175147 -0.02300673 0.147114 -0.094221294 0.02869165 0.011635557 0.0428877 -0.09872522
-0.11137134 0.06837925 -0.031071797 0.053430628 -0.039365895 0.071136795 -0.01053971 -0.07879048
0.118702695 -0.12100069 0.044334397 -0.12598296 -0.078762844 0.07817753 0.06902605 0.011770062
0.023498386 0.13041998 -0.00074985565 0.08179712 0.054367043 0.068324804 -0.046377193 0.05647395
0.101381674 0.035449784 0.028569095 0.057090417 -0.017403662 0.031992838 -0.06553888 0.1241469
-0.033613194 0.101792045 0.07106674 -0.042233042 -0.12138024 -0.037725158 -0.019132419 0.047037363
0.06444289 0.049088508 -0.015406736 0.047991335 0.05232659 0.018599482 0.03972563 0.111222014
0.014398362 0.009442449 0.078617394 0.010312252 -0.041705683 0.11519383 -0.12371385 -0.12154
-0.05945456 0.05362284 0.016739527 0.0031941 0.0984586 -0.01854825 0.017702509 -0.06903743
0.075150385 0.049705148 -0.01578492 0.056873254 0.042234384 0.06384412 -0.08723397 0.084096685
0.07958677 0.07818133 -0.109186165 -0.13321526 -0.06597974 0.041835144 -0.07394328 0.047918975

sequential_2/dense_18/MatMul f4 [64, 128]
00000000: 0298 02be 0414 1dbd dc4d 22be 9d37 093e
00000010: 5c86 16be 249e dcbd 1902 1e3e 2e57 bd3d
00000020: a4f2 5d3d a076 35bc 59fe 283e 70e9 123c
00000030: 2c8b 33bd 0dac 2abe b023 77bc f549 293e
00000040: 4c4d 28be 79fd 05be 30d8 e33c b823 9ebc
00000050: 50f2 9d3c 0076 bcba 6070 d13b 12b1 a73d
00000060: da61 ffbd 50c7 0ebe 4fe2 ccbd acc9 653d
00000070: 40bd b5bc d8be ecbc 95a4 9fbd 1ae7 853d
00000080: de9d df3d 459c a0bd 0817 da3c f01e 753c
00000090: 6467 733d bd67 c7bd c59d 253e 32ab a23d
000000a0: f7d9 193e 3865 91bc d2b2 893d ec84 3f3d
000000b0: 8610 21be 518b 1fbe a372 dbbd e033 37bd
000000c0: 8f2a 023e a39c 243e fc72 25bd a000 f2bc
000000d0: 5261 1fbe 2af2 b03d a4a7 403d f34e a5bd
000000e0: 39fd 1b3e dfe6 33be dc55 08bd 3a62 dd3d
000000f0: 8c8c 403d c70a 293e 0030 8039 f3b2 0a3e
00000100: 8e7d 05be 007c 40bc 43d2 12be decc 8ebd
00000110: 9c1d 4d3d 0b3b 1cbe 84fa 8a3d a689 af3d
00000120: 4617 6bbd b03c fbbd edf1 cdbd 7480 393d
00000130: 2aba 60bd 8000 92bc 1f75 16be 71a8 0cbe
00000140: 4ae7 e23d 3300 053e 2492 053d 5eaa e33d
00000150: 5388 85bd d77b 323e ce16 ba3d 35df 323e
00000160: cc0e 5c3d c80d 32bd b2ef 96bd 84f0 143d
00000170: d888 ff3c 5a66 be3d 10f0 57bd 5edc e9bd
00000180: 96b2 aa3d 65a0 023e 70a2 88bc d61d f03d
00000190: 6602 e13d 7079 3c3c 5985 1b3e 40c9 003d
000001a0: 5000 ed3c e0e7 873c 3152 00be c199 283e
000001b0: ee8a cdbd c831 e2bc c0f5 24bb 5af2 f23d
000001c0: 906f 0abe 50c0 f8bd 28ca 19bd b00d 9abd
000001d0: aaab 803d 5350 0fbe e722 b7bd 9643 e03d
000001e0: fde2 a3bd 429b b4bd c907 01be 1239 ad3d
000001f0: 0452 223d 3a22 f53d 22cf f53d 45a5 32be
00000200: d26e d53d 30ae 75bd b576 0c3e c2c5 9a3d
00000210: e6c5 74bd 40e7 02bb 273b 003e b205 873d
00000220: 39f0 12be 6891 09be a827 dabc efb2 1d3e
00000230: 5413 39bd e6ea 34be ec9f 073d 6cdd 31be
00000240: 6c0d 32bd 41f1 213e f687 b1bd f095 f53c
00000250: 5eb1 ed3d b939 21be fbfe a4bd eef7 8f3d
00000260: 46c9 983d c61a fd3d a058 c3bd 6087 debb
00000270: 91d0 06be 867b 15be 33db 18be aed7 e83d
00000280: ea6b b33d 19c4 14be c454 033d 00da 143b
00000290: a93f 9cbd 5e5e e9bd 5e8f 97bd ba21 bd3d
000002a0: 2aad febd 5d3c e0bd d061 933c 20a7 b63c
000002b0: 365d fc3d 80aa 84ba 5678 0ebe 9401 07be
000002c0: a0be edbc e048 12bc 9159 1e3e 821d d43d
000002d0: 7bb0 80bd 3288 e5bd 70c4 15bd d539 19be
000002e0: b61b df3d 00b3 e93a dac4 c4bd 9a0f 67bd
000002f0: a453 9fbd d2ce ec3d 1054 313c 5604 a03d
00000300: 00bf 2bbc 20fa b9bc 20da 903b 92e5 f7bd
00000310: 36b0 bb3d 225b de3d e123 183e 8879 5f3d
00000320: d025 66bd cc22 31bd 884b 483d 6404 aebd
00000330: 0000 443a e016 c9bc 3b66 eebd 6024 77bd
00000340: 328d b93d 67c0 e7bd 5fb6 1dbe 4d73 113e
00000350: 3031 a6bc be80 e63d ff81 07be 919b 8abd
00000360: ee26 983d 9235 c13d b83d 563d 5c91 1b3d
00000370: 2072 d8bc d845 043d cdd3 0bbe 4421 01be
00000380: badc b13d 4343 333e 0087 fe3c ad92 10be
00000390: 24e1 04bd 2f1e 153e ac19 0b3d 1599 253e
000003a0: 24c7 04be dc73 593d 5a8f ffbd e867 38bd
000003b0: ce25 f0bd 669b de3d 8834 51bd 5b63 213e
000003c0: 281f d7bd 8a5f bc3d 564b 85bd 591a 16be
000003d0: 0094 96bc 30f1 903d e0b3 edbb 8874 253d
000003e0: 4e05 7cbd 0775 b9bd e44a 13be d7d6 f6bd
000003f0: 306b 89bc 61b0 063e 4c2c 21bd fa66 c43d
-0.12753299 -0.038349167 -0.15850013 0.13400121 -0.14699692 -0.107723504 0.15430488 0.09245144
0.05418648 -0.011075646 0.16503276 0.008966789 -0.043833897 -0.16667195 -0.015084192 0.16532119
-0.16435736 -0.13084973 0.027813047 -0.019304141 0.019280583 -0.0014378428 0.00639157 0.0818807
-0.124698356 -0.13943219 -0.100041024 0.056100532 -0.022184968 -0.028899595 -0.077950634 0.0653822
0.10918783 -0.07842306 0.02662231 0.014960989 0.059424773 -0.097365834 0.16173466 0.07942809
0.15024553 -0.01774846 0.067235604 0.046757624 -0.1572896 -0.15580489 -0.107152246 -0.044727206
0.12711547 0.16075377 -0.04039286 -0.029541314 -0.15564469 0.08639939 0.047034875 -0.08071699
0.15233316 -0.17568539 -0.033285007 0.10809751 0.047009036 0.16508017 0.00024449825 0.13544826
-0.13036177 -0.011748314 -0.14338021 -0.06972669 0.050077066 -0.15256898 0.06786063 0.08571176
-0.057395242 -0.122674346 -0.10055909 0.045288518 -0.05486504 -0.017822504 -0.14693116 -0.1373613
0.11079271 0.12988357 0.032610074 0.11116479 -0.065201424 0.17430054 0.09086381 0.17467959
0.05372505 -0.043470174 -0.07369937 0.036362186 0.031193182 0.09296866 -0.052719176 -0.11418985
0.08334844 0.12756498 -0.016679019 0.11724441 0.109867856 0.011503562 0.15187587 0.031441927
0.028930813 0.016590059 -0.12531354 0.16464902 -0.10036264 -0.027611628 -0.0025170892 0.11862631
-0.1351912 -0.12146056 -0.037546307 -0.07522142 0.06282742 -0.13995485 -0.08942204 0.10950391
-0.08002279 -0.088186756 -0.12600626 0.08458151 0.039628997 0.11969419 0.12002398 -0.17445858
0.10421528 -0.05998057 0.13717158 0.075572506 -0.059759043 -0.0019974262 0.12522565 0.06592883
-0.1434945 -0.13434374 -0.026630238 0.15400289 -0.04518445 -0.17667732 0.033111498 -0.17369622
-0.04346983 0.15814687 -0.086685106 0.029978722 0.11606096 -0.15744676 -0.08056446 0.07029711
0.07460265 0.12358622 -0.09538388 -0.0067910403 -0.131655 -0.14597902 -0.14927368 0.11369263
0.08760817 -0.1452793 0.03206326 0.0022712946 -0.0762933 -0.11394952 -0.07400392 0.092349485
-0.12435372 -0.109490134 0.017990977 0.022296488 0.12322466 -0.0010121614 -0.13913092 -0.13184196
-0.029021561 -0.008928508 0.15463854 0.10357191 -0.06283661 -0.11207618 -0.03656429 -0.14963467
0.10893957 0.0017829835 -0.09607859 -0.056411363 -0.07779625 0.11562885 0.010823265 0.07813327
-0.01048255 -0.022702277 0.004420534 -0.12104334 0.09164469 0.10857226 0.14857437 0.05455926
-0.056188405 -0.043246076 0.048900157 -0.08496931 0.00074768066 -0.02454704 -0.11640593 -0.060337424
0.09060134 -0.11315995 -0.154016 0.1420414 -0.020287126 0.112550244 -0.13233183 -0.06767953
0.074293 0.09434046 0.052304953 0.037980422 -0.026421607 0.03229317 -0.13655014 -0.12610346
0.086846784 0.17506127 0.031070232 -0.14118452 -0.032441273 0.14562295 0.03396003 0.16171677
-0.12966591 0.053089008 -0.12478514 -0.045020968 -0.11725961 0.10869484 -0.05107549 0.15760557
-0.105039895 0.0919791 -0.0650851 -0.14658488 -0.018381119 0.07077253 -0.007254109 0.040394336
-0.061528496 -0.09055524 -0.14384037 -0.12052696 -0.016774744 0.1315322 -0.039348885 0.09589954

sequential_2/dense_19/MatMul f4 [32, 64]
00000000: fc55 4d3e 2c7e 7f3e 1058 bc3d ff46 bf3d
00000010: 40a5 7b3e b4aa 35be 43ae bd3d f428 31be
00000020: 8fbd 32bd 9a80 113d f06d 43bd 36ed 623d
00000030: 6baa 053e edd6 1dbe 578e 2a3e 4067 53bd
00000040: d0a1 363e cf62 f6bd b8e5 97bd 7c98 2bbd
00000050: 25a6 4f3e 7801 b13d 70e9 56be 3d09 9e3d
00000060: 683a dbbd 5366 383e 4455 283e 0076 273e
00000070: 5d25 17be f0ad 7c3e 4345 64bd e6a8 863e
00000080: c48d 00be 0454 6dbd 88b2 213e 90c1 283d
00000090: 1ca4 713e d86f e0bd 440d 663e 06e1 af3c
000000a0: 5bc9 edbd e260 51bd 1aae 5cbe 658d 27be
000000b0: 9342 0abe 947b 17be 36e1 5f3e 1bbb 383d
000000c0: a9db 673e f02b 363e 90c3 95bd f084 623e
000000d0: 1d82 cb3d b761 0abe 1c3c 42bd 61f0 a83d
000000e0: 78cb 8abd 1e35 ac3d ee54 383e 92a9 8a3d
000000f0: 9dc8 bdbd 1fd9 423e 2210 813e 37cf 143e
00000100: e05c cfbc bc7a 42be e6cb f9bd 78f5 c93d
00000110: 60bb 44be 2006 ab3d d401 53bd a8bd e5bd
00000120: 44bd 163e f098 57be 58e4 353e fada 913d
00000130: 2eb9 84ba 5407 f8bb a019 3fbe 1b8b 883d
00000140: 90ea d9bd c0a4 65bc 8c44 493e 9620 053e
00000150: 9486 a2bc f3f4 38bd b5ab 37be 5c02 7d3e
00000160: 397f 4fbe 11c3 23be 5823 16be b62a 503e
00000170: 4049 33be 74db 0fbe 183c 86bd f411 503e
00000180: c0a2 f5bd 5537 253e 00cd 5e3e 3462 84bd
00000190: c4e5 a8bd dc7c 1e3e 7a00 87bb c49f 373c
000001a0: e41e 603e 19f1 37be d8cb 1d3e a011 6abd
000001b0: 54c8 f63c 2c5a 2d3e 1cad 1bbe 1875 483e
000001c0: 8179 c6bd feb2 f1bd f906 7b3e c270 1f3e
000001d0: b785 fb3d 5058 0ebd 3815 dabd 25e2 0d3e
000001e0: 1a90 14be 0039 103d a734 63be 808c efbb
000001f0: 6832 773e c0e2 96bd a999 ca3d e024 fd3c
00000200: 30aa 2fbd b46f 663e be69 5cbe 09e7 1dbe
00000210: 2897 6e3e d08d 1ebd cf0f 803e 9c8d 323e
00000220: c02e 11be 2f45 c9ba 60dc e73c dae0 9e3d
00000230: 6ef3 3f3e 792c c9bd e1f9 1b3e 8da5 5e3e
00000240: d815 623e f89a d4bd 2ebc 7d3e 1e29 80bd
00000250: e7ae b93a 0d11 173e ed0c cd3d 409a b43d
00000260: 28a1 143b 6e86 313e 40ff 6fbd 5a79 9cbd
00000270: 7c37 5cbe 007e 21bb d9d5 d33c 24e7 5cbe
00000280: d06a 21be 71f8 e8bd 00d3 44bd d280 4c3e
00000290: 9046 0fbe e8fe 2dbe 0bcd 0dbe 5c63 6b3d
000002a0: b051 56be 7946 3abc af4e 0ebe cd04 0ebe
000002b0: b762 0dbe f0f9 543d b963 67be a0aa 393d
000002c0: 1ca7 00be 45ad 3dbe 1758 c3bb b5be 843d
000002d0: 0e17 cd3c 8c70 6d3e 2ca5 f53d 1c1d 1cbe
000002e0: 93ff ba3d 8c42 56be 5b92 793e ccd2 183e
000002f0: 4cab 043e 0075 103b cdb4 6abe c1d7 093d
00000300: e0a9 28bd 889d 8b3d 63d4 263e 1534 0d3d
00000310: 90f8 11be 54f9 12be 061b e9bd 00cc 6dbd
00000320: a160 23bd 5149 22be 0063 2f3e d77d 2abe
00000330: d94a 7b3e 4303 1e3e a792 633d 053f 20be
00000340: 802d 7c3c 98f1 69be ca54 c1bd 5122 9bbd
00000350: c9e7 d0bc 03a4 343d c4f9 2dbe 1317 653e
00000360: 2e41 8e3b ebe4 8bbd 00f0 10b9 d0cf 88b8
00000370: e000 18be af15 6f3e 5f5a 193e c427 053e
00000380: c8eb f33d 4bc2 353e c0f3 183c 1b00 0f3d
00000390: c405 4ebc 18b0 12be c656 7d3e 17a9 fcbc
000003a0: d857 633e 5974 73be 94d2 13be 4386 33be
000003b0: cfa1 61be 503b 433d bd67 60be a0d0 8dbc
000003c0: c42d f1bd ee4e 89bd 9074 62bd 95b6 903d
000003d0: e761 683d e5c8 18bd 3516 9bbd 8510 85bd
000003e0: 8bfa 7d3e d892 acbd 80b9 4e3d c036 af3c
000003f0: f460 4f3e e8ae 4d3e ea54 92bd c3be d4bd
0.20052332 0.24950475 0.09196484 0.09339713 0.24574757 -0.177409 0.092617534 -0.17300779
-0.04363781 0.035523035 -0.047712266 0.055402003 0.1305329 -0.15414019 0.16655861 -0.05161214
0.17835164 -0.12030565 -0.07416862 -0.041893467 0.20278223 0.08642858 -0.20987487 0.07716606
-0.107044995 0.18007784 0.16438776 0.16353607 -0.14760347 0.24675727 -0.055730116 0.26300734
-0.1255408 -0.05794145 0.1579076 0.04120022 0.23597759 -0.109588325 0.22465998 0.021469604
-0.11610671 -0.051117785 -0.2155079 -0.16362531 -0.13501959 -0.14793235 0.21863255 0.045100313
0.22642387 0.17790198 -0.07312691 0.22121024 0.099369265 -0.13513838 -0.047420606 0.08248974
-0.0677709 0.08408569 0.18001148 0.06770624 -0.092667796 0.19028138 0.2520762 0.14532171
-0.025312841 -0.18992132 -0.12197094 0.098612726 -0.19212103 0.083507776 -0.051515415 -0.11217815
0.14720637 -0.21054435 0.17762887 0.071218446 -0.0010125989 -0.007569233 -0.18662119 0.06667157
-0.10640442 -0.01401633 0.19655055 0.13000712 -0.019839562 -0.045155477 -0.17936595 0.24707931
-0.20263375 -0.1599238 -0.1466192 0.20328793 -0.17508411 -0.14048558 -0.06554431 0.20319349
-0.11993933 0.16134389 0.21757889 -0.06464043 -0.08246949 0.15477318 -0.00411993 0.011207525
0.21886784 -0.17963065 0.15409791 -0.057145715 0.03012482 0.16928929 -0.15202755 0.19575918
-0.09691144 -0.11801718 0.24514379 0.15570357 0.122813635 -0.03475219 -0.106485784 0.13855799
-0.14508095 0.03521061 -0.22188054 -0.00731045 0.24140322 -0.07367468 0.098925896 0.030901372
-0.042886913 0.22503549 -0.21524712 -0.15420164 0.23299849 -0.03870946 0.2501206 0.17436832
-0.1417799 -0.0015355701 0.028303325 0.07757731 0.18745205 -0.098229356 0.1523204 0.2174284
0.22078645 -0.103811204 0.24778816 -0.062578425 0.0014166505 0.14752598 0.10012231 0.08818483
0.0022679064 0.17336437 -0.058593035 -0.076403335 -0.2150554 -0.0024641752 0.025858806 -0.21572548
-0.15763402 -0.113755114 -0.048052788 0.19971016 -0.13991761 -0.1699177 -0.13847749 0.057467803
-0.20929599 -0.011369341 -0.13897203 -0.13869019 -0.13807188 0.05199617 -0.22596635 0.045328736
-0.12563747 -0.18523128 -0.005961429 0.06481687 0.025035407 0.23187464 0.11994395 -0.1524548
0.09130778 -0.20923823 0.24372236 0.14924163 0.1295597 0.0022042394 -0.22920533 0.033653025
-0.04117763 0.06817156 0.16291957 0.034473497 -0.14254975 -0.14352924 -0.113821074 -0.058055878
-0.039887074 -0.1584828 0.17127609 -0.16649567 0.24540271 0.15430932 0.05555978 -0.1564904
0.015391707 -0.22846067 -0.0944 -0.07574905 -0.025501149 0.044101726 -0.1698981 0.22372083
0.004341266 -0.06830772 -0.00013822317 -6.5236934e-05 -0.14844084 0.23348115 0.1497588 0.1300345
0.11910206 0.17749898 0.009335458 0.03491221 -0.012574617 -0.14324987 0.24740133 -0.030842347
0.22201478 -0.23774852 -0.14435798 -0.17531686 -0.22034381 0.047663987 -0.21914573 -0.017311394
-0.11776307 -0.06704508 -0.055286944 0.07066075 0.056733992 -0.037300963 -0.07572595 -0.064972915
0.24802606 -0.08426446 0.050469875 0.021388412 0.20251828 0.20086253 -0.07145102 -0.103879474
